models/discriminator.pt (torch, 121980 bytes, 25 tensors)

rnn.weight_ih_l0 f4 [72, 24]
00000000: 3f16 e73c dc91 403e a6c2 2b3d 8da0 dd3b
00000010: 349d 26bd 2172 f63d f161 ecbd a0fb 1c3e
00000020: 5e23 46bd 862b 7fbe 9fd2 dabd ebed 05bd
00000030: 6711 dc3c 5c9e 57be cbaa 2e3e 6d28 b43c
00000040: a86c 61be 108e 023e 86c4 01be 66c3 0b3e
00000050: d95b 913d 9afc 4c3e 2a73 7b3d 8598 03be
00000060: 55e6 283d 8f53 27be 4812 5f3e b8b4 ecbd
00000070: 7aef 3cbe de3e 433e 6969 acbd a681 123e
00000080: 4822 43be fec6 a5bd 3c38 0abe 5f69 07be
00000090: c06b 213e 4bc6 19be 2a06 fbbd 2f90 5b3e
000000a0: 992b 25bd 9d99 7a3e 7be0 28bb 856a 0a3e
000000b0: 01a5 c53d af7f 55be b93a 433e 9005 ffbd
000000c0: 3429 b93c 666d 803d da2c 3e3e cb8b bcbd
000000d0: 0867 8e3e 53f1 10be d865 5e3e 6c8b be3d
000000e0: 6b75 643d b857 d7bc 5759 34bd 2dce a93d
000000f0: 3ed2 d4bd b1eb a4bb adad 7e3e 6cb6 103d
00000100: 7084 c2bd 991f 453e 4199 783e eba7 0e3e
00000110: 3967 f7bd bb51 4cbd bb43 8e3d 068b 4dbd
00000120: 2830 083e 7535 75bd 0c2c 25bd 4c10 56be
00000130: 7e32 ae3c e515 c5bd fac3 5b3d 77c9 83bd
00000140: cb16 c6bd bbd3 bebd 08a1 243e 266d 053d
00000150: 6cb6 dd3d 10ee a63d db56 113e 0e50 3b3d
00000160: b0ce 483e 71bd 013e 9f06 04bd 17e4 313e
00000170: 7c5e 833d 04f4 9e3d 095c 2fbe d072 4abd
00000180: e0e7 1f3d 2bac 89bc bf71 f7bc dbd9 723d
00000190: 7d6c 503e 29a4 91bc 7e30 9fbd c843 7a3e
000001a0: 18bc 7a3e 4ab1 cf3d cc8c e2bc 7a39 cfbc
000001b0: 16a3 4c3e 0492 e93d 73cd 643d 8b40 a9bd
000001c0: 1922 f13c b87c ee3c cc93 dc3d 6b81 503e
000001d0: ef2d 743e 8a74 82bd 805e 313d fa9c 8d3d
000001e0: c451 223e 8fd4 32be 0429 3d3c a83e 3d3d
000001f0: f7ba db3c 3a9a d5bb c137 9cbc 0eaf 553c
00000200: ebbc e1bd 0a66 c5bd f8d0 c2bc 296b 40bd
00000210: 544f b33d 16d0 9a3c b26f edbd 376a 2f3b
00000220: ebc0 48be bcac 18bd fab7 123e 1dda 59be
00000230: fc11 03be b83a 473e 1533 47be 6e07 3dbe
00000240: 41ec 813e 692d 1a3e 4bac 05be 9212 48be
00000250: aec7 a5bd 50ec 95bd 644a 93bd c60e 303e
00000260: 0e84 913b dfb7 6e3e 8204 9e3d 6e55 89be
00000270: 9caf 7e3d b8a2 4a3e be13 c6bd 7a50 d3bd
00000280: 7fd6 c2bd c0d0 0d3e 0163 793c ebd9 5b3e
00000290: 90c5 b33d a548 dc3d f268 f8bd 0ee4 66bd
000002a0: 9253 a93d 10de 283b 542f 68be 3594 88bd
000002b0: 47e2 0f3e 6be4 0ebd 0771 08be 56af 15be
000002c0: e0f0 8bbd d781 36be eb72 173d 7d0d ce3d
000002d0: 921a 213e 579a 963c 5c1b d83d 09bc 67be
000002e0: 261e 5dbe 7e43 92bd f0f1 42be dfbd c33d
000002f0: def5 3b3e 6b72 1cbd 8849 1abe 610a 323e
00000300: 2662 42bc 5adc bf3d 7f10 44be f133 803e
00000310: af1e 0ebe 59fa 6d3d 0542 143e 7821 c23d
00000320: 97a4 e93c 9651 6c3e 70de d5bd 4de6 33be
00000330: bc24 3e3e 6082 fbbd a953 83bd bf6f 1dbe
00000340: d4ea f1b8 15e8 db3d 83fd 3a3e d0fb dc3d
00000350: 6ca8 433e 874a f2bd 3b5e 7dbd 24bf 0cbd
00000360: 289e 8b3e 2463 5e3e 00cb ddbc 60aa 263e
00000370: 8eaf 5abc ad52 6b3e c297 a23d 9f0f 63bd
00000380: f184 8cbd e42c debb 087c 10bc 4002 cdbc
00000390: 9a1c 803c 6166 ce3d 7b5e 2fbd 3b42 443e
000003a0: dc10 ccbd c6bb 373e 4eaf 4dbe 630c afbd
000003b0: d47a 083e eee8 1dbe a896 09be 511e 173e
000003c0: e704 c73d ac27 3cbc be07 86be 86b4 563e
000003d0: 7c21 86bc 1106 dd3c 429a 2e3e 6906 e7bc
000003e0: 494c d53d b9b7 cb3d d9de 3b3e b2a6 5cbe
000003f0: 0f80 ec3d ee4e 72ba 9f6c a23d 81eb 903d
0.02820885 0.18805641 0.041933678 0.006763524 -0.040677264 0.12033487 -0.11542118 0.15330362
-0.048373573 -0.24918947 -0.10684704 -0.0326976 0.026863767 -0.21056503 0.1705734 0.021991933
-0.22014105 0.12749505 -0.12672624 0.13648757 0.07097597 0.20018235 0.061389126 -0.1285115
0.041235287 -0.16340469 0.21784317 -0.11557907 -0.18450728 0.1906695 -0.08418543 0.1430727
-0.19056046 -0.080945954 -0.13498014 -0.1322379 0.1576376 -0.15017049 -0.12257035 0.2144172
-0.04032478 0.24472661 -0.0025768566 0.13517196 0.096506126 -0.20849489 0.1906537 -0.12452233
0.022602655 0.06270866 0.18571797 -0.09206351 0.27812982 -0.14154558 0.21718538 0.09303936
0.05577604 -0.026286945 -0.044030514 0.08291278 -0.10391663 -0.0050329794 0.2487094 0.03533022
-0.09497917 0.19250335 0.24277212 0.13931243 -0.12080235 -0.04988263 0.06946512 -0.05018141
0.1329962 -0.059865434 -0.04032521 -0.20904654 0.02126431 -0.09623317 0.053653695 -0.06434911
-0.09672316 -0.09317728 0.16077054 0.032574795 0.1082581 0.081508756 0.14193289 0.045730643
0.19610095 0.12669922 -0.032232877 0.17372166 0.06414506 0.07761386 -0.17124952 -0.0494259
0.039039493 -0.016805729 -0.030205606 0.059289794 0.20353885 -0.017778473 -0.07772921 0.24439919
0.24485815 0.10141237 -0.027655028 -0.025295962 0.19984087 0.114048034 0.055859994 -0.08264264
0.029435204 0.029112205 0.107703775 0.20361869 0.23845647 -0.06369884 0.043303013 0.069147065
0.15851504 -0.17463897 0.011545423 0.04620233 0.02682255 -0.0065186294 -0.019069554 0.013042225
-0.11022361 -0.09638603 -0.023781285 -0.046977196 0.08755365 0.018898051 -0.1159357 0.002676619
-0.19604842 -0.037274107 0.14327994 -0.2127461 -0.12799829 0.19455993 -0.1945308 -0.18459865
0.2537556 0.15056385 -0.13054006 -0.19538334 -0.080947265 -0.07320464 -0.07191923 0.17193136
0.004440791 0.23312329 0.077157035 -0.2682299 0.062179193 0.19788635 -0.09671734 -0.10318084
-0.09513568 0.13849163 0.015221358 0.21469848 0.087779164 0.10756043 -0.12129392 -0.056369834
0.08267893 0.0025767125 -0.22674304 -0.06668893 0.14051162 -0.034885805 -0.13324367 -0.14617667
-0.06833053 -0.17822967 0.03697483 0.100611664 0.15732792 0.018384142 0.105520934 -0.22630323
-0.21593532 -0.07141779 -0.19037604 0.095576994 0.1835551 -0.038195055 -0.15067112 0.17386772
-0.011864221 0.093682006 -0.19146918 0.25039628 -0.13878892 0.05810008 0.1447831 0.0947904
0.028520865 0.23077998 -0.10442817 -0.17568322 0.185687 -0.122807264 -0.06412441 -0.15374659
-0.00011535516 0.107376255 0.1826077 0.10790217 0.19107217 -0.11830621 -0.061857443 -0.034361973
0.272691 0.21717507 -0.027074337 0.1627593 -0.01334752 0.22980757 0.07939102 -0.05543482
-0.06861294 -0.0067802537 -0.008818634 -0.025025487 0.015638638 0.10078121 -0.042814713 0.1916589
-0.09964153 0.17942724 -0.20086405 -0.085472845 0.13328105 -0.15420887 -0.13436377 0.14757659
0.09717732 -0.011484068 -0.26177782 0.20967302 -0.016373388 0.026980432 0.17051032 -0.028201299
0.10414941 0.09947152 0.18346728 -0.21547964 0.11547863 -0.0009243329 0.07930874 0.07076169

rnn.weight_hh_l0 f4 [72, 24]
00000000: b9b7 b0bc f308 f53d c311 3cbe 285b 053e
00000010: 49d6 493d f831 e9bd 0ae0 f73c 7aed 663d
00000020: 3244 bfbd 050f 11be 5f02 c8bd f58e 903d
00000030: 965c ae3d 8b48 7a3e f896 24be 42a2 96bd
00000040: cc98 923e 25ce 2fbd e65b 2d3e 9a16 70bd
00000050: b28b 843e 3a13 fb3d 6f66 2dbd b5ab c8bd
00000060: cbad 173e f60c c13d 45f3 e93d 6bc1 213e
00000070: 0706 2cbe 6aad a03d b4c3 ba3d 2750 593c
00000080: a43b c33c 01a5 12be 816e a0bc 24fd 16be
00000090: 29dc 503e 0837 febd 8ddb 07be e73e 313e
000000a0: b9a1 1d3e dddb b7bd dc48 c6bd ea17 33be
000000b0: 5aa0 d63c b12f 34be ca92 1cbe 6f1e 2abd
000000c0: 3d82 debc 23f5 c3bd e415 99bd eff8 82be
000000d0: 641a 8db9 78a4 533e 09da a73c cf60 1a3b
000000e0: 7459 b8bd 2065 1f3d b631 a3bd e6da 343d
000000f0: 3ce8 283e 0f71 3e3e cc2a 9bbd 441c 1a3d
00000100: 0bca 053e 2289 d43d cc1e 4c3e 57ea 55be
00000110: f2f2 5dbe 9a1a 463e b6f5 353e 66c8 5c3c
00000120: cc86 19be faa9 f83d 57d2 47bd 0d0b 24be
00000130: 73fb fcbd 0361 113e c18b c43d fa37 f83d
00000140: 7026 433d 90c2 5b3d 2b62 28bc 8964 863d
00000150: 4bee 34bd 6f08 b3bd f460 4ebe 5b2a 093d
00000160: 126a 3ebe 8117 373d 3b52 053e 1606 3c3d
00000170: 5c01 903d ab57 6d3b 32a3 c93d 2432 7e3d
00000180: 856f 0fbe 9f57 cfbd 203a c2bd 2bca 09bd
00000190: 3c84 49b9 389e 873e f6e8 74be b75c 17be
000001a0: 6fa2 89bd 1056 973e d09c febd 6f5d eebd
000001b0: 25dd 263d 0e52 2e3e ae59 763e d9f5 10be
000001c0: f334 5dbd d2d8 e6bc 6418 ceb7 d541 c93d
000001d0: 1059 8e3d 8282 14be 4069 28be 8e64 f7bc
000001e0: bd7d 2bbe e431 803d 0914 5cbb d346 95bd
000001f0: a047 f8bc cb96 f33d fc52 e1bd fd4e 5fbe
00000200: a2be 1a3d 3ddc 193e 3cd3 03be 06b2 943d
00000210: 2f28 253e 58b4 513d 2890 fcbd 0846 71be
00000220: cb87 043e 9c24 4bbd d6f9 c43c febd cd3d
00000230: df41 833e a8b6 27bd b4a3 22be 83ea 16be
00000240: 63b8 adbd cd3c 20be 73e4 b7bd 9f50 153e
00000250: a9ab 0d3e cb02 2e3d 0198 863d 0801 febc
00000260: e44d 253c 95a0 88bd 453d 393e 1bcf 33be
00000270: 76f2 16be 37be 8c3d b256 193e af13 a03b
00000280: ec37 1bbe fd5f fd3d 84ce 64be 0161 4cbd
00000290: 8ee6 19be 6375 7a3d 1fe0 7ebd efe4 b9bd
000002a0: 2287 213e 9b18 8cbe d439 3b3d 5933 c6bd
000002b0: b5c6 d13d fa7f 813d 0aa9 273d 2e8c 593e
000002c0: 0de0 ad3c fc33 683e c27b 943d 50aa 44be
000002d0: 20e1 51be f4c9 313d 496d 29bd f7b1 893d
000002e0: cd97 c23d 0fba 75be 6729 94bc e027 2c3e
000002f0: 4a50 8abe 0446 97bd 8228 1c3d d3e9 8abd
00000300: f99a 57be 8ef7 46be be2b 133e 4c44 23be
00000310: 66fb 523e 6651 3a3e 71f7 59be ed4c 21be
00000320: 69f6 0d3e 532e bcbd 5828 fcbd 25df 0cbd
00000330: 616f 60be 9f16 e3bd c032 bdbc e051 023d
00000340: 0641 e23d 90d1 4cbe 38ab 163e c7a4 f73d
00000350: 6ee6 99bd 527d 1f3d 9d67 79be e3e1 c33d
00000360: 8335 cfbd 446d 4fbe 2c87 81bd 81b2 f03b
00000370: 8bc9 efbd c985 4b3e bdf9 7fbe d759 523e
00000380: 7fc0 efbd b32c e0bc a291 5fbd f7f6 dc3c
00000390: 0228 31be c6e0 103e ed83 0fbe 5eb0 64be
000003a0: a126 bc3d b5a6 0bbd 1a7e fa3c e720 f4bd
000003b0: c9fe 0abe 9b12 48be 8d16 efbc 10dd 31bc
000003c0: 199f fdbd 4346 3f3d d157 163e 1df1 323e
000003d0: 27d1 d1bd fae6 8b3d ebe8 fb3b e944 40bd
000003e0: 107a 1e3e 3f10 86bc 11ad 2a3e 0f82 323d
000003f0: b54d 88bd 82b2 0c3e dd84 64bc 34ae acbc
-0.02157198 0.119645976 -0.1836615 0.13023055 0.049276624 -0.11386484 0.030258197 0.05637882
-0.09339179 -0.14165886 -0.09766077 0.07058517 0.08513753 0.24441735 -0.16073215 -0.07355167
0.286322 -0.042921204 0.16929588 -0.058615305 0.2588783 0.122595266 -0.042334016 -0.097983755
0.1481239 0.094263 0.11423353 0.1579644 -0.16799174 0.07845576 0.09119359 0.013263739
0.02383215 -0.14320756 -0.019583942 -0.14745003 0.20396484 -0.1241284 -0.13267346 0.17309152
0.15393724 -0.089774825 -0.096818656 -0.17489591 0.026199508 -0.17596318 -0.1529037 -0.04153293
-0.027161712 -0.095682405 -0.074748784 -0.25580546 -0.00026913278 0.20668209 0.02048971 0.0023556238
-0.09001437 0.0389148 -0.07968466 0.04415407 0.1649484 0.18597816 -0.07576522 0.037624612
0.13065355 0.103777185 0.19933623 -0.20890175 -0.21674708 0.19346085 0.17769513 0.013475513
-0.14992827 0.121417955 -0.04878458 -0.1601984 -0.12352648 0.14197163 0.095969684 0.12120052
0.04764408 0.053652346 -0.010277311 0.06562144 -0.044172566 -0.08741843 -0.20154172 0.03348766
-0.1859515 0.04470015 0.1301965 0.04590424 0.07031509 0.0036215584 0.0984558 0.062059537
-0.14007385 -0.10124134 -0.09483743 -0.033640068 -0.00019218115 0.264879 -0.23916993 -0.14781462
-0.06720435 0.29557848 -0.12432253 -0.11638915 0.040738244 0.17023489 0.24057648 -0.14156283
-0.054005574 -0.02817956 -2.4568471e-05 0.098270096 0.06950581 -0.1450291 -0.164464 -0.030199315
-0.16747184 0.06259516 -0.0033581278 -0.07288899 -0.030307591 0.11893996 -0.11002156 -0.21807475
0.037779458 0.1502542 -0.12873548 0.07260518 0.1612861 0.05119738 -0.12332183 -0.23561871
0.12942426 -0.04959546 0.024044912 0.10046004 0.25636193 -0.04094568 -0.1588276 -0.14737897
-0.084824346 -0.15648194 -0.0897912 0.14581536 0.13835014 0.042483132 0.06571961 -0.031006351
0.010089371 -0.066712536 0.18089779 -0.17559473 -0.14740929 0.06872218 0.14974478 0.004885159
-0.15158051 0.12371824 -0.22344404 -0.049897198 -0.15029356 0.061147105 -0.062225457 -0.09076869
0.15774205 -0.27362522 0.045709446 -0.096777625 0.102429785 0.06323238 0.040932693 0.2124488
0.021225 0.2267608 0.072501674 -0.19205594 -0.20496035 0.043405488 -0.041363988 0.06723397
0.0950161 -0.23996757 -0.018086148 0.16812086 -0.2701438 -0.07386401 0.03812457 -0.0678288
-0.21055211 -0.19430372 0.14372155 -0.15944022 0.20603713 0.18195114 -0.21285798 -0.15752001
0.1386353 -0.09188523 -0.123123825 -0.034392495 -0.21917488 -0.11088299 -0.023095489 0.031816363
0.110475585 -0.20001817 0.14713752 0.12091976 -0.07514654 0.038937874 -0.24355932 0.09564569
-0.101176284 -0.20256525 -0.0632461 0.007345498 -0.11708363 0.19875254 -0.24997611 0.20542084
-0.117066376 -0.027365064 -0.054582246 0.02697323 -0.17300418 0.14148244 -0.1401517 -0.22332904
0.091870554 -0.03409453 0.030577708 -0.11920338 -0.13573755 -0.19538347 -0.029185558 -0.010855928
-0.12383861 0.046697866 0.14681937 0.1747479 -0.10244971 0.06831165 0.007687678 -0.046940718
0.1547625 -0.016365169 0.16667582 0.043581065 -0.066554464 0.1373997 -0.013947693 -0.02107916

rnn.bias_ih_l0 f4 [72]
00000000: c120 253e 24d3 82bd 7bcc 96bd be61 31be
00000010: a7cd d33d 9949 35be 0e85 28bc 9de5 50be
00000020: ea7b 50bd eff6 823d c97f 26be 4a56 873e
00000030: 2a1c 18bd 9159 203e 181b 453e c706 e2bd
00000040: 31cc 053e 9d98 c33d 1cf5 48bd 61a6 4b3d
00000050: ba26 fb3b f26a 0bbd 7625 0bbd a322 1b3e
00000060: 7520 eabd 1cc2 26be 673e f83d 822a 36bd
00000070: a884 02bd 3021 be3c 40c9 bc3c 4ff2 8a3d
00000080: ce38 d5bd 232b 523e d51a d03d 55ef d1bd
00000090: 66ae ef3c ea09 883d eaa6 ed3d d2fc 9e3d
000000a0: a0e1 283e f0c6 9ebd 49ca 33be ce49 86be
000000b0: 6084 45be 2c06 e03d e79e 233e 2c12 ed3d
000000c0: 1e82 063b 18ec 8d3a dc2d f43d 5e73 1abe
000000d0: 7b63 11be 9d02 be3d ae4d 033d 2300 38be
000000e0: ca91 bfbd 8b96 303d 8a14 05be fe8a aabd
000000f0: d3da d3bd 6866 b73d 797f 03bd 98fb f6bd
00000100: 5d2d 793d 80e8 4a3d 6a41 34bd f05c 133e
00000110: 1a4c ca3c af39 023d a073 9fbd bfcc 9d3c
0.16125776 -0.06387928 -0.0736322 -0.17322442 0.103419594 -0.17703857 -0.010285629 -0.2040009
-0.050899424 0.06394755 -0.16259684 0.2643302 -0.037136234 0.15659167 0.19248617 -0.11036449
0.13066174 0.09550593 -0.04906188 0.04971922 0.0076645287 -0.034037538 -0.033971272 0.15149932
-0.11431972 -0.16284984 0.12121277 -0.044474132 -0.031864792 0.023209184 0.023045182 0.06784498
-0.10411225 0.20524268 0.10161368 -0.10250727 0.029257964 0.06642516 0.11604102 0.077630654
0.16492319 -0.07752788 -0.17557634 -0.26228184 -0.19288778 0.10938677 0.15978585 0.11575732
0.0020524333 0.0010827808 0.119228095 -0.15083072 -0.14198105 0.09277842 0.032056503 -0.17968802
-0.09353979 0.04311232 -0.12996116 -0.08327292 -0.10344472 0.08955079 -0.03210399 -0.120597064
0.060834277 0.049538136 -0.044007696 0.14390922 0.024694491 0.031793293 -0.077857256 0.01926267

rnn.bias_hh_l0 f4 [72]
00000000: 2e7a 713d 78f2 4d3e d7c1 5f3e 9503 803c
00000010: e128 b23d e112 05bc e708 273e 1952 cf3d
00000020: 75f0 2dbe 023f eebd 180a 1d3d 5136 d03b
00000030: 17cc 5a3e 4d06 b8bc 0559 5d3e e564 bf3d
00000040: 1f85 023e 5dfc 813e 19bf 9cbd 857f e13d
00000050: 56fb 7c3e 9dd7 863e 2e8b 8b3d 80e1 e4bd
00000060: 19ce e3bd bb3a f8bd ebbf ddbd 5e95 ac3c
00000070: a718 c53c 3261 babd fbdf d33d 4afc 6cbe
00000080: b6fe 163d f47b 253e bb69 9abd c420 d33d
00000090: e41a 6e3b d8de a73d 1219 da3d 2e85 6d3d
000000a0: 17db d53d 0c65 23be 1529 51be c6c6 ccbe
000000b0: 14ea 38be 24b6 c4bd d7a5 acba 4b58 50be
000000c0: 758f 523e 8ccc 0ebe ffaa d9bd bc50 3abe
000000d0: 8279 06be 1a74 2e3e d8ae 003e 6eda 52be
000000e0: 78b8 78bc a193 6d3d 59a5 e1bd 4334 44be
000000f0: ed6f a9bd e9e0 8abd 24ae fe3d 70aa b1bc
00000100: ab63 a9bc cb03 eabd 2783 3f3d d832 0dbe
00000110: 43d0 c7bc 4b36 8abd bbfe 3b3e e3b4 d7bd
0.05895441 0.20112026 0.21851288 0.015626708 0.08699203 -0.008122177 0.1631199 0.10123081
-0.16986258 -0.116331115 0.038339704 0.0063541313 0.21366917 -0.022463942 0.2161599 0.09345416
0.12746094 0.2538785 -0.076536365 0.110106505 0.24705252 0.26336375 0.06813656 -0.11175823
-0.111232944 -0.12120577 -0.10827621 0.021067318 0.024059607 -0.0910057 0.10345455 -0.23143116
0.036864005 0.16160566 -0.07539698 0.10308984 0.0036331946 0.08196801 0.10649313 0.05798834
0.10442179 -0.15956515 -0.20425828 -0.39995402 -0.18058044 -0.09605053 -0.0013171983 -0.20346181
0.20562537 -0.13945216 -0.10628318 -0.1819486 -0.13132289 0.17036477 0.12566698 -0.20591137
-0.0151806995 0.058002118 -0.11017866 -0.19160561 -0.08273301 -0.067811795 0.124355584 -0.021687716
-0.020677408 -0.11426505 0.046755936 -0.13788927 -0.0243913 -0.06748637 0.1835889 -0.10532548

rnn.weight_ih_l0_reverse f4 [72, 24]
00000000: e087 84bd c7b5 a03c 239c e2bd 91d1 a3bd
00000010: 1652 7b3d e630 c4bd 79d4 053e 88b4 01be
00000020: bd6f 023e aced f2bd 8203 2fbe d91e afbd
00000030: 43dc 7e3d 02d2 263b 30ff 963d 1213 1dbe
00000040: 7237 15be 63b9 0cbe f08c 8fbd 36da 273e
00000050: 511f eebd f4b3 5d3d 3d3a fcbd 237e 26be
00000060: 7015 54bd 22c8 163e ab1b 65bd 860d dd3d
00000070: fa08 01bd d9e4 99bd 6df2 bebd 2065 12b8
00000080: 70ea 1bbd aaa5 1cbe e164 81bd e6cc 1bbe
00000090: f1db 61bd 32fe fa3d 3175 093c d345 4b3c
000000a0: a470 88bc b0ba f13d 904a a83b a753 0abe
000000b0: fc73 1bbd 0fa6 b1bd 1bbf da3d b186 3c3e
000000c0: a963 abbd 4248 933e eecc 263e 7830 a83d
000000d0: d007 8f3c 3e40 40bd b345 463e e94f 773e
000000e0: 7965 12bd 3495 5fbd 4ee7 013c c58e 923e
000000f0: 39fc b83d 9b66 e9bd a53f 423e 8d60 2a3e
00000100: fbbd a9bd c2e7 a43e 8130 c4bb dfb9 5d3d
00000110: 2b89 38be c93a 24bd 16b5 973c 33f6 1fbd
00000120: f738 62be 96f2 29bc e82e 0cbe 58ff 4d3e
00000130: dc43 713e 8af8 22be d9bf 5f3e d898 9f3d
00000140: dbc6 9abd bd05 8a3d ad2b 893e a385 27bd
00000150: cbf4 d63d 4884 6bbe 0114 eebd 9356 013d
00000160: 49b2 55be 052a 9dbd d440 6d3e d011 cb3d
00000170: c34a db3d ea39 2dba eb55 2dbd ec42 b0bd
00000180: 8ae9 3bbe aa4a d83d 5e3c e73d 69d7 28be
00000190: a3a5 993c 0e50 d3bd adb3 bdbd fc98 86bd
000001a0: f6e4 52bd b1f9 2fbe 7efb 4bbe dc74 7a3e
000001b0: b11c 57bc cdeb 393e aac1 373d 0ddd 0f3e
000001c0: e442 023d ccb9 d2bc d73b 95bd b48e 573d
000001d0: bf48 51be 5f92 adbc 0212 a7bd 19ce e83d
000001e0: f627 5cbd b935 5e3e 19d2 6dbe 1558 133e
000001f0: 3a5a f73d 1c1f 1f3e 609f 7bbd 870f 1e3e
00000200: 3a5d 763e e23a 9e3d 62f7 613e 7e31 333e
00000210: d3c1 8c3e 4862 ef3d ae7b 0b3e 2849 b03d
00000220: d152 0abe e32b aebd 8d24 9e3d 4c8f 97bd
00000230: 2715 273d 43bf 633e e993 863d 3f26 c8bd
00000240: db0a a2bd b473 663e c072 54bd 9889 943d
00000250: 822c 80bd e000 b43d 23b5 593e d38b 73be
00000260: 7a01 183e 4c7c 243e 7e5e 863e f5c4 64bc
00000270: 058c f63d 7762 a83d 29c6 003e cb53 203d
00000280: 86f5 febd 949e b7bc 2191 393d b6d8 42be
00000290: 0220 053e efc7 173e f581 f0bd d5d7 cdbc
000002a0: cc29 1d3e c986 8c3e 8dfa 193e 835e 453e
000002b0: 634a ba3a a719 633e b848 643e 87c7 b6bd
000002c0: 7a55 753a 7f48 e03d ea39 c73d 090b cd3b
000002d0: 4b14 8abb a5f0 383e 2a3f 473e 3de5 e33d
000002e0: 4fa8 31bd c6c5 14be 6498 293e 4d6f 383e
000002f0: c467 053e 1a41 6c3e df66 6b3e ff7c 9ebd
00000300: 4a63 133e 2d1c 6d3d f77a b1bd 4dca 763e
00000310: f203 9c3c 7e18 5a3e d5cf a8bd 923f 043e
00000320: 7e57 833d 7c0b c3bd 6c79 71bc 8fba 073e
00000330: 59ac 193e f76a 563e 5f50 5f3d 14a5 913d
00000340: 506c c53c e12d 2ebe 2944 293e 8102 683d
00000350: 9a46 ab3d 4ac6 3b3e 634d a1bd 06dd 523e
00000360: ae45 eebd dd26 8e3d a4ee 023e 8e66 013e
00000370: 71f6 ac3b 4535 77bd 1daf 653e edbb 8cbd
00000380: 88f5 f1bc 0e46 003e a4c3 af3d 85b3 3e3e
00000390: 44b0 903d 75be 52bb e8bf 00be 4ec4 253b
000003a0: c8f3 04be 83cf 1c3d ab4a 143b 0ab2 6d3d
000003b0: 2f1c f5bd 0daf ee3d 4e7e 1fbe 60e4 e3bc
000003c0: acbb b43d 4814 82ba e39c 51be 0aa1 c63d
000003d0: 0c17 76be 8e80 17be 7e1c 27be cf95 62bd
000003e0: a4d0 38be 5b9d 4cbe 7671 2dbe 0979 22be
000003f0: 1300 61be 1896 093e 524c 033e 410d 52be
-0.064712286 0.019617928 -0.11064937 -0.07998956 0.06135758 -0.09579639 0.13069333 -0.12666523
0.12737937 -0.118617386 -0.17091182 -0.085508056 0.062221777 0.0025454764 0.07372892 -0.15339306
-0.14571932 -0.13742594 -0.070093036 0.16391835 -0.11627067 0.054126695 -0.123157956 -0.16259055
-0.051778257 0.14724782 -0.05593459 0.10793595 -0.0315027 -0.07514352 -0.09323583 -3.4903293e-05
-0.038065374 -0.15297571 -0.06318069 -0.15214881 -0.055141393 0.12255515 0.008389757 0.012406784
-0.016655274 0.11803186 0.0051358417 -0.13508473 -0.03795241 -0.08674251 0.10680982 0.18410756
-0.08368618 0.28766066 0.16289112 0.0821237 0.01745978 -0.046936266 0.19362526 0.24151577
-0.035741303 -0.05458565 0.0079286825 0.2862455 0.09032483 -0.113965236 0.18969591 0.16638394
-0.08288189 0.32208067 -0.0059872274 0.05413234 -0.18021075 -0.040095124 0.018518966 -0.039053153
-0.22092043 -0.010372778 -0.13689768 0.20116937 0.23561043 -0.15915123 0.21850528 0.077928245
-0.0755746 0.06739376 0.26791134 -0.04089893 0.10495909 -0.2299968 -0.11624909 0.031576704
-0.20868792 -0.0767403 0.23169261 0.09915507 0.10707619 -0.0006608056 -0.042318266 -0.08606514
-0.18350807 0.10561116 0.11290811 -0.16488422 0.01875574 -0.103180036 -0.09262786 -0.06572148
-0.051487885 -0.17185093 -0.19920155 0.24458641 -0.013129399 0.18156357 0.044862427 0.14049168
0.031802073 -0.02572336 -0.07286804 0.052626327 -0.20437907 -0.02118796 -0.081577316 0.11367435
-0.053749047 0.21700181 -0.23224677 0.1438907 0.12077756 0.15539211 -0.06143129 0.1543561
0.24059 0.07726075 0.22067025 0.17499349 0.27491626 0.116886675 0.13621399 0.086077034
-0.13508154 -0.085044645 0.07721815 -0.074003786 0.040791657 0.2224093 0.065711804 -0.0977292
-0.07912227 0.22505075 -0.051867247 0.072528064 -0.06258489 0.087892294 0.21260504 -0.23783807
0.14844313 0.1606304 0.26243967 -0.013962974 0.12038425 0.08221906 0.12575592 0.03914241
-0.12449174 -0.022414483 0.04530442 -0.19027981 0.13000491 0.14822362 -0.11743537 -0.02512733
0.15347975 0.27446583 0.15036984 0.19274335 0.0014212843 0.22177754 0.22293365 -0.089247756
0.00093587453 0.109513275 0.09727843 0.006257419 -0.004213845 0.18060549 0.19457689 0.11127708
-0.043373402 -0.1452857 0.16562039 0.18011208 0.13027865 0.2307171 0.22988461 -0.07738685
0.14393345 0.0578882 -0.08666032 0.24100609 0.01904485 0.21298406 -0.08242766 0.12914875
0.06413172 -0.09523675 -0.014738422 0.1325476 0.15007152 0.20939241 0.054520007 0.07111564
0.024099499 -0.17009689 0.16529907 0.056643013 0.083630756 0.1833736 -0.078760885 0.20592126
-0.11634384 0.06941006 0.12786347 0.12636778 0.0052784015 -0.060353536 0.22430082 -0.068717815
-0.029536024 0.12526724 0.08582237 0.18623169 0.0706487 -0.0032156978 -0.12573206 0.0025294009
-0.1298362 0.038283836 0.0022627513 0.05803112 -0.11968266 0.11654482 -0.15575525 -0.027818859
0.08824858 -0.0009924257 -0.20470004 0.096986845 -0.24032229 -0.14795133 -0.16319463 -0.05531865
-0.1804834 -0.19981901 -0.16937813 -0.15866484 -0.21972685 0.13436162 0.12822083 -0.20512868

rnn.weight_hh_l0_reverse f4 [72, 24]
00000000: 815f 44be 918d 09be ba0b 95bc 2924 8ebd
00000010: c38f 50be d5cb 443d 8689 ba3d 8b7a 003d
00000020: e839 e1bd 34d9 993c 7579 11bd e8a5 b33d
00000030: f333 543c ec65 2dbe caed 653d 0f76 09be
00000040: 31d8 5c3e a8d1 bebd 2309 c2bd 27b0 98be
00000050: c063 5ebe b350 6e3d 2811 8a3d c373 3b3e
00000060: 7882 5b3d 8516 0e3d 8b66 a7bd db64 493d
00000070: 2a4d 0b3e 9aed 70bc 8f3e 92bd 4818 ba3d
00000080: 93f7 1dbe cf53 e63d 6fa4 303c b3e2 9b3c
00000090: 4d98 943c 240d 443e 965f 123e f9ab f03d
000000a0: 129a 293e 0e09 16be 766b 103d de95 0e3e
000000b0: 741d 323e dfdb 0cbe c6fe a83d 729a 32be
000000c0: 4540 3c3c 4527 673e cd48 9c3e b1c3 3b3d
000000d0: 7ab8 5cbe aa19 e0bd 588a babd 70cb 343b
000000e0: 7957 d83d 6843 513e 076f d53d 750a 82bc
000000f0: 62c5 953e 3dad 723e 07ad 0c3b 70d1 523c
00000100: 5c2f 3b3e 42d0 db3d 4403 0c3e e520 35be
00000110: b238 633e d286 5cb9 cdb6 6b3d 3182 143e
00000120: 6ee2 343d f439 3bbd 5914 2a3e 9ce7 92be
00000130: ba2d 1bbe f733 9dbe 3989 29be 827f c0bd
00000140: 8894 84be fe02 1a3e a082 253c ac13 a2bb
00000150: c129 a03e 4f91 243e a548 f8bd ebee c03d
00000160: dc88 5d3e d61a d03d fb9b 1fbe c3f0 d5bc
00000170: 2466 7e3e df26 0abd 3d37 7bbd ceec 273e
00000180: 06b5 c4bb 49cf eb3d 4fe3 983e e11a 89be
00000190: 42d6 663d c7e1 da3c e7f6 2ebe 1b65 0ebb
000001a0: a71c ed3c 2c97 723d f317 3dbe fdc9 fb3c
000001b0: 4842 ec3d 6400 023d 5f2f 403e 518f 45be
000001c0: ad91 513e cc98 afbc 7a38 bebc 8b5b 4abe
000001d0: e9af dcbc f55c 253d 96d4 d83d 9db9 7a3e
000001e0: e732 8b3e 1cc1 8c3e c2a2 e8bc fe9d e43d
000001f0: 39eb d53c 677d 35bc 2cbf 84be 9550 6d3e
00000200: 75d4 f23d 684a 373e 8a3b c33d 5f70 363d
00000210: 6b32 0f3e 33bd babd bee7 bdbd 0a71 253e
00000220: 653d 0c3e 8b8d a5bc 9950 dbbd a89e 6d3d
00000230: 91ed 9e3d 7e7c 433e 7bb7 1abc 920d 76be
00000240: 9022 00be bb60 623e d242 87bd 5be0 3abb
00000250: 148e fb3d 86a4 27bc c7ac 36be 72fd d73d
00000260: 8758 57be 264f 4f3e 1eb8 9f3d b1d9 19be
00000270: d3e8 d33d 8003 33be 2b17 5c3e 01a0 21be
00000280: 923c 7c3e fe39 c5bd 38a7 4abe 03b5 66be
00000290: a84f 35be 2894 95bd 62c4 47bd 5158 fa3d
000002a0: dda9 703d 9a93 6d3e 898d 91be 317c 6fbd
000002b0: 82d5 d6bd 5d8f 4a3e 568f b13d 3848 3b3e
000002c0: 3377 ba3d 9361 86bd 7512 143e 0fda 12be
000002d0: b0cd 2f3e 7057 efbd 7ae7 643e f254 35bc
000002e0: 1024 bdbd 7c6d 03be 405e 363e 9a73 9fbd
000002f0: eb1a 38be 03fb 23be 126a a43d 1f3e 68be
00000300: f5c1 1a3b b40a f03d d6e4 5fbd f51e 17bd
00000310: 1eeb e93b b495 f9bd f5f4 903c efd9 973d
00000320: 1e51 953d ad74 c73d 1002 833e f74a b7bd
00000330: c5de a53d 4365 0e3c 0a58 bd3d 0c66 113e
00000340: 049c cabd 1c69 bdbd a242 c03d ca61 653e
00000350: 8411 223e 6cea c03d d2f4 1b3e 04e9 2ebd
00000360: 6b04 a83d d50c 1a3d f580 17be 9f35 1d3d
00000370: aeee 68be 6c50 173d 7e2c f2bd 73ed 4a3d
00000380: 01b0 103e bbf1 1fbe d80e 363e 9174 503d
00000390: 287f 06be 5f3a 353e ff68 9b3d 3d0b 0ebe
000003a0: b085 693e a8ab 73bd 8518 213e 8906 c1bd
000003b0: e7a9 c3bd 33df 6d3e 6a17 243e 42a2 0c3e
000003c0: c87c 3fbe c58c 48be 216a cb3d a514 2d3e
000003d0: fa97 1b3e 678f de3a 2c26 27bd bd7c 96bc
000003e0: 0b15 3bbd d11c 3ebe 1096 a1bd e183 053e
000003f0: 3e5f 44bd f9ff 663d 40e2 633d b15a 0cbe
-0.19177057 -0.1343291 -0.018194068 -0.06940491 -0.2036734 0.048045952 0.09108262 0.031366866
-0.10997373 0.018780328 -0.03551622 0.087718785 0.012951839 -0.16933411 0.056134976 -0.13423942
0.21566845 -0.093173325 -0.09474399 -0.29821894 -0.21717739 0.05818243 0.067415535 0.18305878
0.05359122 0.034689445 -0.081738554 0.04916845 0.13603655 -0.014705086 -0.07140838 0.090866625
-0.15426473 0.11246454 0.0107813915 0.019028997 0.018139029 0.19145638 0.14294276 0.11751551
0.1656268 -0.14651892 0.035258733 0.13924357 0.17394048 -0.13755749 0.08251719 -0.17441729
0.011489932 0.22573574 0.30524293 0.045840923 -0.21554747 -0.10942395 -0.09108418 0.0027587079
0.10563559 0.2043587 0.104215674 -0.015874127 0.29252154 0.23698898 0.0021465437 0.012867317
0.18279785 0.107330814 0.1367312 -0.1768833 0.22189596 -0.0002103106 0.05754738 0.14502789
0.044161253 -0.045709565 0.16609325 -0.2869233 -0.15154162 -0.3070371 -0.16556253 -0.0939932
-0.2589457 0.15040204 0.010101944 -0.0049461927 0.31281856 0.16071056 -0.12123231 0.0942057
0.21634239 0.101613685 -0.15586846 -0.02611578 0.24843651 -0.033728477 -0.061331976 0.16398928
-0.006003025 0.11514146 0.29860923 -0.2677832 0.056356676 0.026718987 -0.17086373 -0.0021727744
0.028944327 0.0592262 -0.18466167 0.030735964 0.1153608 0.031738654 0.1876807 -0.19292952
0.20465727 -0.021435164 -0.02322029 -0.19761483 -0.02693935 0.040371854 0.105874225 0.24484868
0.27187273 0.2749108 -0.028397921 0.11162947 0.02611314 -0.0110772615 -0.25927103 0.23175271
0.11856929 0.17899477 0.095328405 0.04454076 0.13984077 -0.09118118 -0.09272717 0.16156402
0.13695295 -0.020209095 -0.10708732 0.058012635 0.07760156 0.19090459 -0.009443159 -0.24028614
-0.12513185 0.22107212 -0.06604542 -0.0028515074 0.122829586 -0.010232097 -0.17839347 0.10546388
-0.21029864 0.20245036 0.077987894 -0.15024449 0.10347142 -0.17481804 0.21493213 -0.15783693
0.2463248 -0.09630202 -0.19790351 -0.22529988 -0.17706168 -0.07303649 -0.04877127 0.12223876
0.058755744 0.23200837 -0.28428295 -0.058468048 -0.10489942 0.19781251 0.08669917 0.18289268
0.09104767 -0.065615796 0.14460166 -0.14340995 0.17168307 -0.11686599 0.22353926 -0.011067616
-0.09235394 -0.12834734 0.17809391 -0.07785721 -0.17979018 -0.16013722 0.08028044 -0.22679947
0.0023614143 0.117207915 -0.054661594 -0.036894757 0.007138624 -0.12186757 0.01769493 0.074146144
0.072908625 0.09739051 0.2558751 -0.08949845 0.080991305 0.008691135 0.09245308 0.14199084
-0.09893039 -0.09248564 0.09387709 0.22400585 0.15826994 0.094197124 0.1523011 -0.04270269
0.08203968 0.037609894 -0.14795287 0.038381215 -0.22747299 0.03694193 -0.118248925 0.049542855
0.1412964 -0.15619557 0.177791 0.050892416 -0.13134444 0.17698048 0.07588386 -0.13871475
0.22804904 -0.059489876 0.1573201 -0.094250746 -0.09553891 0.23229675 0.16024557 0.13733771
-0.18699944 -0.1958495 0.09932352 0.16902407 0.15194693 0.0016979993 -0.040807888 -0.018370027
-0.045674365 -0.1856568 -0.0788995 0.13038589 -0.047942393 0.05639646 0.05563569 -0.13706471

rnn.bias_ih_l0_reverse f4 [72]
00000000: 207d 7fbd 490a 1c3d f2e7 8b3d e604 063e
00000010: dedb c9bc f7d6 103d 7dbd 353e 4de9 e8bb
00000020: 4f2a bfbd e028 2a3e 27be 74be d131 2b3e
00000030: 11e7 b5bc 5773 38be bbbd 173e 0113 433d
00000040: d47d fbbd 5efa c0bd 794a 9fbc d16b 033d
00000050: f990 543e 4e70 bc3d 06ef d73c 6481 cfbd
00000060: 693a 88bb 5535 343e 8641 ce3d 4117 0abe
00000070: 9b6b 85be 652c 92be 6af5 5dbe a63a 32be
00000080: 561f 1e3e 773b 58be 8eb7 2dbd 9f4f 2cbe
00000090: ff22 3b3e eeb3 86be b781 663d b24d 90be
000000a0: 781e a5bc 2e0e 24be aa51 3cbe 9abb 14be
000000b0: f55f fa3d e82b 6f3c ab76 21bd 95c5 3f3e
000000c0: 361d 0a3e ee79 2a3d 53b0 d03d 2986 343e
000000d0: 64e0 07be 7037 353b 9745 32be c743 0d3e
000000e0: 307e 033e 5c04 5e3c a6f5 fabc 4aa3 edbc
000000f0: 02c9 b43d 61e6 5fbe 89ec 383d e6e2 ab3d
00000100: 7eb6 113d ebcf 2dbe 1653 50be af00 8c3c
00000110: d172 473e 78bc 263e 0a84 5f3e 88d7 173e
-0.062375188 0.038095746 0.068313494 0.13087806 -0.024640974 0.035361256 0.17748065 -0.0071078897
-0.093342416 0.16617155 -0.23900662 0.16718222 -0.022204908 -0.18012749 0.1481847 0.047625545
-0.12279859 -0.09422754 -0.019444691 0.032085244 0.20758428 0.09201108 0.026359092 -0.10132101
-0.0041573537 0.1759847 0.10071091 -0.13485433 -0.2605866 -0.28549495 -0.2167565 -0.17405185
0.15441641 -0.21116434 -0.04241138 -0.16827248 0.18275069 -0.2630915 0.05627605 -0.28184277
-0.02015613 -0.16021034 -0.18390527 -0.1452469 0.122253336 0.01459787 -0.03941981 0.18727715
0.13487706 0.041620187 0.10189881 0.17629303 -0.13269192 0.0027651452 -0.17409359 0.13795386
0.12841105 0.013550844 -0.030634712 -0.029008526 0.08827402 -0.21865226 0.045147453 0.08392887
0.03557443 -0.16973846 -0.20344195 0.01709017 0.19477393 0.16282833 0.21827713 0.14828312

rnn.bias_hh_l0_reverse f4 [72]
00000000: d223 783d 4583 183e 98b7 703e 33ee 0c3e
00000010: c850 d13d e889 193e 938a 1d3e ad75 593d
00000020: 58cc c43d 64c4 c13d 4c13 be3d 8cdc d9bd
00000030: 96f0 fabd bc66 aa3d 27aa 99bd efab 6fbc
00000040: 54b0 08bb 1e58 2bbe 02f0 05be 6676 3b3e
00000050: ce37 213d d896 9d3d 0409 bd3d 8411 61bd
00000060: 5e7a 42be 3dff bfbd 738b 693d 14b1 063d
00000070: c9fb 1fbe bca4 6bbe 6379 82be f5a8 fa3d
00000080: fc93 833d 56e2 56be e5c1 9abe 7335 5cbe
00000090: 26c5 ee3d 2d45 27be fbb2 e63d ea9b 173d
000000a0: 2412 553e acc9 b33d 13af 7f3d 7c74 02be
000000b0: 1676 0a3e 8e6d 18be 163a 3c3e 6a10 07bd
000000c0: f8ff 01be faaa 50bd a51b ba3d 6c0e 98bc
000000d0: ba8a 7d3e 1921 24bd 0069 0ebe b38e ef3d
000000e0: ee3e b63d 48d1 a93d f43c bb3d 9b03 15bd
000000f0: 1ae5 84bc 753c 47be 8924 ca3d 83f0 f53d
00000100: a07b f43d 97dd 983d 2c65 ba3d e1a6 123d
00000110: 657b 38bd 0237 db3c 2c82 843d 5e8c 36bd
0.060581036 0.14893825 0.23507535 0.13762741 0.10220486 0.14994013 0.15384893 0.05309074
0.09609288 0.09461287 0.09281024 -0.10637769 -0.122529194 0.08320376 -0.07503157 -0.0146283945
-0.0020857053 -0.16732833 -0.13079837 0.18306884 0.03935986 0.07694787 0.09230235 -0.054948345
-0.18991992 -0.09374855 0.057017755 0.03288372 -0.15623392 -0.2301206 -0.25483236 0.12239257
0.0642471 -0.20984778 -0.30226055 -0.21504764 0.11658697 -0.16334982 0.112646066 0.037013926
0.20807701 0.087787 0.062422823 -0.12739748 0.13521609 -0.14885542 0.18381533 -0.032974638
-0.126953 -0.050944306 0.09087304 -0.018561564 0.24759951 -0.040070627 -0.13907242 0.116971396
0.08898722 0.0829187 0.09142485 -0.03638039 -0.016222525 -0.19456656 0.0987025 0.120087646
0.11937642 0.0746414 0.09101328 0.03580368 -0.045039553 0.026759628 0.06470141 -0.04456746

rnn.weight_ih_l1 f4 [72, 48]
00000000: d128 24be 0e41 8fbd 5a6b da3c 60b2 da3c
00000010: e102 43bb a022 18be 7d9d cbbd 14cc 2cbe
00000020: 0c56 e43c 4ff0 aabd eb17 59be 2a8d 653e
00000030: 81ad fdbd 97aa 163e 80e6 bc3c bd69 913e
00000040: 478b 71be f38a 9cbd a02f 98bd 3a24 3f3e
00000050: 27f5 9ebd 63d4 36bc e568 983d 9d72 3fbc
00000060: aeb6 013e 967e 883e c71e bfbd b2dc 023e
00000070: edac 1c3d 5caf babc 9a3a 02be 8eba 6b3e
00000080: b498 a8be 5c8e 2c3e f6b9 15be 2f39 04be
00000090: b469 babd 17db dbbd 9d58 933d 4f51 1bbb
000000a0: cf02 303e 7cf6 5fbe fd14 f93b 2d33 c1be
000000b0: a933 cb3d 9ad9 0e3d b8f0 2ebe c5b2 2c3d
000000c0: 9937 37be bc03 a13c 270e 883d 3198 ab3d
000000d0: f9ab b83d cb85 bcbc 5693 05be c0b2 033d
000000e0: 7a18 f1bd ea16 bd3c ba18 a1bd 0aff 053d
000000f0: 3031 47bd bbec e3bd 811b 5b3d b489 2c3e
00000100: f582 99bd 99bd bebd 8b70 b03c b7d6 cb3d
00000110: 5ed2 80be 2fad 39bd 89ed 7fbe b30e e83d
00000120: f1bb 263e 04cb 73ba 5521 0d3d 5bcd e03c
00000130: 0476 8fbe 1dde 533e 9d45 b3bd 9adc 35bc
00000140: 0398 2fbe 069a 9bbc cf30 e63c 4be5 d4bc
00000150: 3274 b43d aaf8 9abd 4282 4b3d 06b2 18be
00000160: 7d20 3ebe 5db9 913d 1c10 0a3e 3996 0abe
00000170: b9d8 5fbe af45 d13d 5ab6 bf3b 9abe 90be
00000180: a984 093e 2d42 11be 5cfb a13d 1587 31be
00000190: bd6a dbbd 80af 023e 1cef 54be b7cc d9bd
000001a0: 3cf6 8ebe 7017 e0bb fd8a da3d f531 3bbd
000001b0: 3efb febd ae30 c3bd d087 0e3e bad1 a4bc
000001c0: 1351 d53d 1d48 21bd 4fb6 143e 8382 a4bc
000001d0: 321c 143e 0579 623d b569 dbbd 62a9 23be
000001e0: ecbc e5bc 8d42 ea3d 3b40 1fbe b0ad 073e
000001f0: 08f3 32be ccba 34bd 166a 19be 864f bdbd
00000200: f095 07bc 6e56 4a3e 4b3f 7a3e eb1d 943e
00000210: 5632 983d b15b 813e 5f57 b5bd aa96 2fbd
00000220: 8484 b8bd 76ec 8cbe 63a3 32be a7bc 93be
00000230: 2157 153d 2b77 803e 24a8 fd3d 1fd3 bd3c
00000240: 6f0b 113a 24d7 3f3e 6cbb 7d3c 3d21 593d
00000250: 1499 e5bc b8c5 8ebd ccf2 2e3c 060a 17be
00000260: c021 463e d63e 983d 13e5 2a3d ee3c 39be
00000270: de2a 853e b8c7 173e ecbc b5bd 16bb 8b3c
00000280: edea 2e3e eb88 51be 607a cb3c 6b08 98bc
00000290: ce31 c23c 2f96 d23b ea59 143d 1e5c 50bd
000002a0: c1d1 11be ab47 2b3c 2495 173e ba03 c8bd
000002b0: 499a 863d 32b1 2cbe 6bcf 2fbe 1bf5 d73c
000002c0: fa27 1bbe 972d 20be 02d1 efbc e246 383b
000002d0: 0681 3abd e4d9 133e 2cd3 30bd b699 573e
000002e0: becb da3d 4df6 25be a85c 2c39 6e24 b63d
000002f0: 415c 30bd e1ad f03d 142f bbbd f48c 86bd
00000300: 8930 4b3d 7664 1f3d d510 f4bd 0344 c4bd
00000310: f6af 483d 5634 203c 3358 d93d aa5e 343c
00000320: 31fa 89bd 00aa b83d cd4e 44bd c063 ac3d
00000330: 3882 593e 1b18 af3c d510 95be 5e6f d6bd
00000340: cbcd b2bc cb4d 123d 5a80 0cba d3a2 c63c
00000350: f467 f3bd 88a5 f73c fcd8 973b 8cc5 8bbd
00000360: 9914 033d 8e3d 78be d271 8e3e 3960 903d
00000370: 7e45 7d3e 28e9 833d c9d8 443e b167 db3d
00000380: 87b5 8cbc 792a 0cbd bdd3 50be 7e4d 3ebe
00000390: 4599 77bd cdef 86be 28bd b03d 79d4 e0bd
000003a0: 0096 1b3e 97c5 17be 12b8 2dbe c52a 893e
000003b0: 3599 443d 1924 d73d 5f2b d23d d715 e3bc
000003c0: 3c33 0c3d cb47 59be 8d24 503d 0877 4cbe
000003d0: 6333 e4bd 3f07 a5bd 7f64 7e3d 9204 863e
000003e0: 646f 8abd 6085 353d 5152 a23c efed f33d
000003f0: 9de6 753e 7604 58be ccd5 f03d 6a82 9f3d
-0.16031195 -0.0699483 0.026662517 0.026696384 -0.0029756355 -0.14856958 -0.09942148 -0.16874725
0.027873062 -0.083466165 -0.2120053 0.22417131 -0.12386609 0.14713512 0.02305913 0.28400984
-0.23588286 -0.0764369 -0.07430959 0.18666163 -0.07761603 -0.011159035 0.07441882 -0.011685041
0.12667343 0.26659077 -0.09332042 0.12779501 0.038250852 -0.022788696 -0.12717667 0.23020384
-0.32929003 0.16851181 -0.1462172 -0.12912439 -0.091021925 -0.107351474 0.07194636 -0.0023699587
0.17188571 -0.2187137 0.007601379 -0.37734357 0.09921963 0.03487549 -0.17084014 0.042162675
-0.17892303 0.019655101 0.06643324 0.083786376 0.09017176 -0.023013016 -0.13044485 0.03215289
-0.11772247 0.023082215 -0.07866044 0.032713927 -0.048630893 -0.11129137 0.053493027 0.16849405
-0.07495681 -0.09313507 0.02153804 0.09953063 -0.25160497 -0.045331176 -0.24992956 0.11330929
0.16282631 -0.0009299966 0.034455616 0.027441671 -0.28019726 0.20690198 -0.08753512 -0.011099959
-0.17147832 -0.018994343 0.028099446 -0.025988242 0.08811225 -0.0756696 0.04968477 -0.1491166
-0.18567081 0.07115433 0.13482708 -0.13533868 -0.21860017 0.10218369 0.0058505954 -0.28270417
0.13429512 -0.141854 0.07909271 -0.17336686 -0.10713718 0.1276226 -0.20794338 -0.106347494
-0.27922237 -0.0068387315 0.10671041 -0.04570194 -0.124502644 -0.09530769 0.13918996 -0.020119537
0.10415854 -0.039375413 0.1452267 -0.020081764 0.1446388 0.055291194 -0.107135214 -0.15982583
-0.028044187 0.11438475 -0.15551846 0.1324985 -0.17475522 -0.044123456 -0.14981875 -0.092436835
-0.008275494 0.19759533 0.24438207 0.28929076 0.07431476 0.25265267 -0.08854555 -0.042868294
-0.0900965 -0.27524155 -0.1744514 -0.28854868 0.036460046 0.25090918 0.12385586 0.02317196
0.0005533015 0.18734413 0.015486579 0.053010214 -0.028027095 -0.069713056 0.0106780045 -0.14749917
0.19348812 0.0743386 0.04172237 -0.18089649 0.26009268 0.1482228 -0.088739246 0.017056983
0.17081805 -0.20462386 0.024838626 -0.018558702 0.02370539 0.0064265947 0.03621856 -0.0508691
-0.14240171 0.010454099 0.14802986 -0.09766336 0.06572396 -0.1686447 -0.17168967 0.026361993
-0.15151969 -0.15642391 -0.029274467 0.0028118421 -0.045533203 0.14438587 -0.04317014 0.2105473
0.10683392 -0.16207238 0.00016437715 0.08893667 -0.04305673 0.11751915 -0.09139839 -0.065698534
0.049606834 0.038914166 -0.11917273 -0.09583285 0.048995934 0.009778103 0.10612526 0.011008898
-0.06737173 0.090168 -0.047926713 0.08417463 0.21241081 0.0213738 -0.29114404 -0.1047046
-0.021826645 0.03571872 -0.0005359702 0.024247563 -0.11885062 0.030230299 0.004634021 -0.068247885
0.032002065 -0.24242231 0.27821213 0.07049603 0.2473354 0.064409554 0.19223322 0.10713137
-0.017176403 -0.034220193 -0.20393272 -0.18584248 -0.060448904 -0.26354828 0.08629829 -0.10978026
0.15193939 -0.14821468 -0.16964749 0.26790443 0.047997672 0.10504932 0.10262179 -0.027720375
0.03422855 -0.21218793 0.050816108 -0.19967282 -0.11142614 -0.08058023 0.06210756 0.26175362
-0.06759527 0.04431665 0.019814642 0.119106166 0.24013753 -0.21095452 0.117595285 0.077885464

rnn.weight_hh_l1 f4 [72, 24]
00000000: 58eb a33e e8cd 433c 50a0 76be 0f3e aabd
00000010: 6c4e 103e 4583 653e 9ce8 b43c f981 043e
00000020: 7f4d 9ebe 8c0f af3d c3c7 b33d 77bd 0e3e
00000030: d0fc dbbc 20b7 d43d 4b73 553e 12a4 d23d
00000040: 355c 46be bf99 683e f9c5 93be cbad 623e
00000050: 60bc ad3d f379 29be 56f4 1dbd 14d9 373d
00000060: a43b 17be bb2f 6fbe e003 30be dc4f 4c3e
00000070: 25d9 643e 9073 133e fd1e 2bbd cbf3 ccbd
00000080: 48ba 19be cd3b c0bd 7488 b63c 0050 773e
00000090: b05d ae3c b85b 543e 2dda c4bd efdf 413e
000000a0: 3d4c 57bd c6ee b7bd 4361 6a3e dfea c6bc
000000b0: b5db aebd a523 13bd c0c8 c8bc 6baf dcbd
000000c0: 6c8e 773d b84f d3bd 124a efbd a143 203e
000000d0: fe9f 843e a33a ef3d 8408 b93d 4eb6 7a3e
000000e0: f0c9 89bd 1b02 f8bd 650e 1f3e 7a83 813c
000000f0: 9c4c 843d 4248 a4bd d7a2 95bd e5d7 383e
00000100: 8644 babc 8490 a8bd a008 07be 295c 9d3c
00000110: 1cb4 f63c 8635 febd 3489 643e b705 c43d
00000120: 3dc8 dabd dddd f3bd 83a7 033e 3e86 6bbe
00000130: e1ec 8dbd 67f5 d23d aaca 333e a097 333e
00000140: a4a2 32bd 1a72 953d b4fb fc3d 8f66 1c3e
00000150: 2916 273e af2d a1be 273f 343d 9845 ecbc
00000160: 0523 29be a141 89bd ee9b 7a3e b7b0 dd3d
00000170: 0308 03be 29f6 0dbe 3ab6 58be 0adb 823d
00000180: 61f5 84be 7b3f eabc 4ecf c83c d940 34bc
00000190: 89f4 6cbe 9a13 93be b0e4 2f3d c11f 1abe
000001a0: c7eb 58be 8f04 1dbe e2a7 60be 1697 4f3c
000001b0: 7c85 e7bb 96de 47be 7acf a73d 9211 62bd
000001c0: 8661 a6bd 2c57 2abe 5809 d63d 3e7a 59bc
000001d0: 1e13 1abe 479e 503e 171d 59bb f955 f63c
000001e0: 9456 d4bd 01a5 dabd be77 c13c 74e9 4bbe
000001f0: 009b e63d 3ddb 853d aa20 453d 64bf 0a3d
00000200: f72b 1cbe d603 eabd 9205 cebd 0fa6 56bd
00000210: 0216 55bd bcab 85bd 8134 763e 306c febd
00000220: d07e 523e 5f3f 54be a570 19bc 913e 303e
00000230: 0acb 3cbe 98c0 eabd 42b7 3fbe 320e e2bd
00000240: 9ed6 5ebe 1985 26be 1935 2b3e 532f 6dbd
00000250: efd3 1b3e be68 1abe 0005 a23d 2c52 5abe
00000260: e786 9cbd e2b9 cfbd 4da7 a53d d214 0bbe
00000270: 4d0b 9dbd dadb 15be 9745 493e c93a 33be
00000280: 80ec d4bd a13a 3e3e 3523 053c bbd2 323e
00000290: fcc0 15be ccf4 98bd 8c1e 93bb 4bbf 62bd
000002a0: 5f30 12be a819 1abe d366 2fbd aa71 2a3e
000002b0: 1263 07be bba3 193e 58f1 17bd 9618 91bc
000002c0: b332 bc3d 05a9 e53d 93f3 533d 8bc6 adbd
000002d0: 018e f0bd a7cb 103e 2e73 383d e3ab 9abd
000002e0: d72d 4d3d 3439 513e a975 c13d d73b fc3b
000002f0: 6a4e cfba 429c 6b3e f12a 9bbd 5007 9fbd
00000300: 7005 9838 21e5 423e eb14 14bd 3bab c5bc
00000310: 71db 923e 7acc 743e e73e 7dbe 875e 683e
00000320: 7a8a c1bd acbd 283e 45bd 543e 5803 76be
00000330: 3916 27be 8f37 143e b08c bbbe 0237 8ebe
00000340: 722d d33d a33d e43c 022f 2fbd 1c3e 103d
00000350: 7d9c c03d 8c54 65bd de5c 993e 7ea3 703d
00000360: 7c76 c63d 7b04 f5bc 9594 01bc 14d9 ee3d
00000370: 58e5 2e3e e869 033d aac2 ef3d f2e8 773d
00000380: 06cf 8f3e 411a f63d 818e c73d 17cd 3b3c
00000390: a75b 513e fbc1 403e cc18 44be dd5f 1abe
000003a0: 3074 163e b769 22be ba81 41be a115 9b3d
000003b0: 3e81 573d 2019 39be cced 57bd ea42 41be
000003c0: e9dd 2e3e 2877 cd3d e82d c13c 7b8a fe3d
000003d0: 1230 d0bd fc68 39be efe9 013c ba99 b13d
000003e0: 30cf b4bc 21fc 053e bb31 edbd f690 38be
000003f0: 1ccc 45be 202d 113e ba55 0a3e 457e e0bd
0.3201549 0.011950947 -0.24084592 -0.08312618 0.14092416 0.22413357 0.022083573 0.12940206
-0.309185 0.08547887 0.08778336 0.13939463 -0.026853949 0.10386491 0.20844762 0.102852
-0.19371112 0.227149 -0.2886198 0.2213661 0.08483195 -0.16550426 -0.038563095 0.044884756
-0.14768845 -0.23358051 -0.17188978 0.19952339 0.22348459 0.14399552 -0.0417776 -0.10007437
-0.15012467 -0.09386406 0.022281863 0.24151611 0.021284908 0.20738113 -0.09611926 0.1893308
-0.05256294 -0.08981089 0.22888665 -0.024281917 -0.085379995 -0.035922665 -0.024509788 -0.10775646
0.06043856 -0.103179395 -0.1168405 0.15650798 0.25903314 0.11681106 0.09034827 0.24483606
-0.0672797 -0.121097766 0.15532835 0.015809763 0.064599246 -0.080215946 -0.0730645 0.18051107
-0.022737753 -0.08230689 -0.13186884 0.019208984 0.03011518 -0.124125525 0.22317964 0.095714025
-0.10682724 -0.119075514 0.1285687 -0.23000428 -0.06929947 0.10300713 0.17557779 0.17538309
-0.043612137 0.07297154 0.12352696 0.15273498 0.16317047 -0.31480166 0.04400554 -0.028841779
-0.16517265 -0.06701971 0.24473545 0.10824721 -0.12796025 -0.13863434 -0.21163264 0.06389435
-0.2596846 -0.028594723 0.024512913 -0.011001789 -0.23140158 -0.28725892 0.042942703 -0.15051176
-0.21183692 -0.1533377 -0.21939042 0.012670299 -0.007065473 -0.19518504 0.0819387 -0.055192538
-0.0812407 -0.16634816 0.10451001 -0.013273774 -0.15046355 0.20372878 -0.003312891 0.030070292
-0.10368076 -0.10676003 0.023616668 -0.19913274 0.11260033 0.06535957 0.048126854 0.03387393
-0.15251146 -0.11426513 -0.10059656 -0.05240446 -0.05202294 -0.06526896 0.24043466 -0.12422979
0.20556188 -0.20727299 -0.009365235 0.17211367 -0.18436828 -0.114625156 -0.18722251 -0.11037864
-0.21761557 -0.1626171 0.16719474 -0.05790646 0.15217565 -0.15079018 0.0791111 -0.21320409
-0.07642918 -0.10142876 0.08088551 -0.13582161 -0.07668171 -0.14634648 0.19655453 -0.17502894
-0.10396671 0.18577053 0.00812607 0.174632 -0.14624399 -0.07468566 -0.0044897255 -0.055358212
-0.14276265 -0.1504885 -0.04282267 0.16644922 -0.13221386 0.15003864 -0.037095398 -0.017711919
0.091893576 0.112138785 0.051745962 -0.08485135 -0.11745835 0.14140187 0.04503172 -0.07552316
0.050092544 0.20431978 0.0944627 0.007697563 -0.0015816216 0.23008826 -0.0757655 -0.077650666
7.2489376e-05 0.19032718 -0.03615276 -0.0241295 0.28683046 0.23906127 -0.24731027 0.2269231
-0.094502404 0.16478604 0.20775326 -0.24024713 -0.16317071 0.14474319 -0.36630774 -0.27776343
0.103114024 0.027861422 -0.04276944 0.035215482 0.09404848 -0.055988833 0.29953665 0.05874967
0.09690568 -0.029909363 -0.00790896 0.11662498 0.17079675 0.032083422 0.11707051 0.06052489
0.28087634 0.12016726 0.09743977 0.011462471 0.20445119 0.18823998 -0.19150084 -0.15075631
0.1469276 -0.1586064 -0.18897143 0.07572485 0.05261349 -0.1807599 -0.052717015 -0.18873182
0.1707684 0.10032493 0.02358146 0.12428757 -0.10165419 -0.18106455 0.007929309 0.08671899
-0.022071451 0.13084461 -0.11581751 -0.18024048 -0.19316143 0.1417737 0.13509265 -0.10961584

rnn.bias_ih_l1 f4 [72]
00000000: 75ff dbbd 29c3 e0bd 9240 403e b195 04be
00000010: 13ea 9c3d 5c90 b8bc 9458 ba3c b21f 52be
00000020: 1d53 fb3c ad9b 733d ebac ab3d e6bc c2bd
00000030: 6190 1bbd db14 0c3e 5639 8c3e 6f0c 3e3e
00000040: dea5 8c3d 11df ddbb 4fef 24bc f1a1 443e
00000050: 8282 9abd b426 6bbd e172 0ebe c37a e5bd
00000060: d7f0 f1bb eb88 d83d a52c afbd 26bd 76bd
00000070: 4ad9 35bd dcf4 183e 2cf8 2f3e 0634 a43d
00000080: 49c0 b73d 2e6e 983e a497 993d b997 fbbc
00000090: c3ac 1c3e 8f1b 1fbe 9db2 5b3e c33a 983c
000000a0: b7e8 65be 1568 343e 3a09 443e fd69 653e
000000b0: 4717 23be e5bb 4a3c 58e4 4b3e 364e 0d3e
000000c0: 41c6 f93d 378d 1cbe 256d 00be 480f 0fbe
000000d0: 90d6 383c 4ab1 cf3d 7f6e 1fbe 9b6f 5d3e
000000e0: 2708 d5bd c536 d03d fa7c 89bd 0937 25be
000000f0: ca1c f5bd 80d0 893d 4496 be3d a737 33be
00000100: 84b8 863c e5ee 353e f00e 20be 2d1c 493e
00000110: e100 52be 3077 c9bd b12b 20be 7b5e 5d3d
-0.10742084 -0.10974724 0.18774632 -0.12947728 0.076618336 -0.022529773 0.022747315 -0.20519903
0.03067928 0.059474636 0.08382591 -0.09508686 -0.037979487 0.1367983 0.27387494 0.1855943
0.06867574 -0.0067709764 -0.010066821 0.192024 -0.07544424 -0.057409957 -0.1391101 -0.112050556
-0.0073834467 0.1057299 -0.08553437 -0.06023898 -0.044396676 0.14937156 0.17184514 0.08017735
0.08972222 0.2977156 0.07499626 -0.030711995 0.15300278 -0.15537857 0.21454854 0.018582707
-0.22452055 0.17617829 0.19144145 0.22403713 -0.15926848 0.012373899 0.19911325 0.13799366
0.12196017 -0.15288244 -0.12541635 -0.13970673 0.011281624 0.10141237 -0.15569495 0.21624605
-0.104019456 0.101666965 -0.067132905 -0.16134275 -0.11968382 0.06729221 0.09306005 -0.17501698
0.016445406 0.17766912 -0.15630698 0.19639654 -0.20508148 -0.09837186 -0.15641667 0.05404518

rnn.bias_hh_l1 f4 [72]
00000000: ef72 fabd bd5d bf3d bbe0 b53d 26d5 92bd
00000010: 2404 06be 0589 bd3d 5069 1abd 74f2 e6bd
00000020: 6636 a83d e164 253e a296 263c 3b0f a63d
00000030: 5f7b e23c b387 ca3d 9bc3 473d dbb7 c83c
00000040: ad0c cbbd 57bc e13c ae36 743d 92f8 1abe
00000050: e85d 273e 8625 6d3e 2ae2 453e 00e4 173d
00000060: fa48 97be 1ec2 22be b0e3 fdbd 2b65 8abc
00000070: 37ee 1dbe 7497 a53e ee6e 133e c9f1 d33c
00000080: f3c9 31be aa1e a73d bb10 8d3e 792b 853d
00000090: c57f 633e ed65 2b3e 467c 0f3e f4d3 953d
000000a0: 5e5e 38be 4bf0 653e d97d 9f3d 73dd d83d
000000b0: 761e aebd 81ae a73e fcf5 293e 42e0 463e
000000c0: 200e 3438 9584 4fbe fe7a 373e d6dd 6cbd
000000d0: a607 16be 7c7a b9bb 04db 873d 673e 3cbc
000000e0: b984 55be d3d2 c0bd a41e aa3c 66de b7bd
000000f0: e5d4 153e 8003 62bd 3af0 f73d bd0d 2a3e
00000100: c36f 87be 3a99 263e 38e7 41be d69c 253e
00000110: 63e8 cbbd 385d dc3c 258b 1e3e 4484 023e
-0.12228953 0.09344051 0.088807546 -0.07169561 -0.13087517 0.0925465 -0.03769809 -0.11276713
0.08213501 0.16151763 0.01016775 0.08108374 0.027646719 0.09889164 0.04877053 0.024501732
-0.09914527 0.027555628 0.05962246 -0.15133885 0.16344416 0.23158845 0.19324556 0.037082672
-0.29547864 -0.15894362 -0.123969436 -0.016893944 -0.15422903 0.32342112 0.14397785 0.025872128
-0.17362194 0.081601456 0.27551827 0.065024324 0.22216709 0.167381 0.1401225 0.073158175
-0.18004748 0.22454946 0.077876754 0.10589113 -0.08501904 0.32750323 0.16597742 0.19421485
4.29285e-05 -0.2026542 0.17918012 -0.057828747 -0.14651355 -0.005660353 0.06633571 -0.011489487
-0.20851411 -0.094152115 0.020766564 -0.08977966 0.14631994 -0.05517912 0.121063665 0.16606803
-0.26452455 0.16269389 -0.18935859 0.1617311 -0.099564336 0.026899919 0.15482767 0.12745768
