models/embedder.pt (torch, 43454 bytes, 14 tensors)

rnn.weight_ih_l0 f4 [72, 1]
-0.059776727 0.2932916 0.22214387 0.09230899 -0.019171715 -0.10692103 0.060996592 -0.14210725
0.0021211396 -0.17624378 0.17168827 0.109637454 0.06691756 0.26660454 -0.123979256 -0.30398566
0.13009799 -0.17153461 -0.27912843 0.039426584 0.03479385 -0.23283315 0.18914957 -0.21655525
-0.10433114 -0.26796064 -0.1420777 -0.042936966 -0.26285583 0.084027335 0.013669367 -0.29103148
-0.11642186 -0.08542302 -0.073717885 -0.044876125 -0.030427609 -0.2288559 0.0248995 -0.052621204
-0.03885469 0.04993159 -0.19706027 -0.10619493 0.20683554 -0.30202433 0.102196544 -0.1139003
-0.26273787 -0.12329839 -0.09341718 -0.22446528 -0.092296764 -0.22721736 -0.09117545 0.23773266
0.08993518 0.1975491 0.0009133166 0.15418 -0.14419878 0.28910074 -0.003423999 -0.21475953
0.06421194 -0.26553708 -0.28852713 -0.15972579 0.0042743543 0.10766898 -0.28260627 -0.019748192
00000000: 71d8 74bd 512a 963e af79 633e 7f0c bd3d
00000010: 000e 9dbc 6af9 dabd 90d7 793d 9084 11be
00000020: d102 0b3b 4079 34be 0dcf 2f3e 9a89 e03d
00000030: 130c 893d 6480 883e d6e8 fdbd 02a4 9bbe
00000040: 6838 053e c5a6 2fbe ece9 8ebe c57d 213d
00000050: ff83 0e3d d06b 6ebe 6db0 413e a9c0 5dbe
00000060: 91ab d5bd 2332 89be d17c 11be acde 2fbd
00000070: 0a95 86be 8616 ac3d 7bf5 5f3c 1402 95be
00000080: 966e eebd 44f2 aebd 67f9 96bd 07d0 37bd
00000090: 5243 f9bc 3359 6abe 09fa cb3c 5589 57bd
000000a0: 1826 1fbd 1185 4c3d 2bca 49be ba7c d9bd
000000b0: b2cc 533e efa2 9abe 6c4c d13d 8f44 e9bd
000000c0: 9485 86be de83 fcbd 8251 bfbd 3ada 65be
000000d0: 1606 bdbd abab 68be 32ba babd 3170 733e
000000e0: f02f b83d 504a 4a3e a46b 6f3a 5de1 1d3e
000000f0: d8a8 13be 0305 943e 2c65 60bb ece9 5bbe
00000100: 8d81 833d 7af4 87be d4b9 93be 288f 23be
00000110: e20f 8c3b 8e81 dc3d c5b1 90be f6c6 a1bc

rnn.weight_hh_l0 f4 [72, 24]
0.040718384 -0.178341 -0.05699129 0.0014285665 0.08386007 -0.009697643 -0.14442065 0.07238112
-0.11887974 0.015364115 -0.011838769 -0.15196313 -0.13235499 0.05574376 -0.14186695 0.19216856
0.10454215 -0.18292812 0.1880557 -0.12773167 -0.16440032 0.18249951 -0.11093506 -0.16511615
-0.06668458 -0.13755317 -0.08541595 -0.111016825 0.15340644 0.120286144 0.073132575 -0.14969029
0.0655128 0.073711224 0.31587046 0.03293535 0.09153712 0.13098182 -0.082368836 0.12969474
-0.32278267 0.11841242 -0.016971378 -0.28655252 0.004935702 -0.21655901 0.068928346 -0.11317163
0.08255923 -0.20836799 -0.017745262 0.013424728 -0.22596636 0.10085484 -0.11663674 0.03946104
-0.19139396 0.047347266 0.21584114 0.16297415 -0.27112237 -0.08954999 0.017719828 -0.1997254
0.022351556 -0.27205193 0.0226155 -0.24586439 -0.041151125 0.10885718 -0.13690683 -0.23984459
0.10315256 0.012770774 0.056690976 0.04957748 0.27109894 -0.17102708 -0.109507136 -0.21372627
-0.034461875 0.14266852 0.043460723 0.06425905 -0.03704141 -0.10884359 0.16670106 0.12290697
-0.06963539 -0.04299214 0.01988222 -0.07346207 -0.058444567 0.03171235 0.17429632 -0.14106984
0.13068114 -0.21518074 -0.056937642 -0.12652163 -0.019883707 0.18394947 0.067442104 0.056002334
-0.12735927 -0.062829554 0.1440806 0.025602411 0.047001287 -0.036357325 -0.06026216 -0.1819841
0.111294724 -0.088509485 0.16124402 -0.13705875 0.047982335 0.06438229 0.16045909 0.07132887
0.05020945 0.12603162 -0.051057268 0.17365476 -0.06925775 -0.10146058 -0.022584809 -0.021635553
-0.045177747 -0.027666954 0.16441546 -0.23396532 -0.14051417 0.016019806 -0.037299946 0.034523856
-0.19847138 0.19055554 0.15315445 0.1380297 -0.17262152 0.044332877 -0.20680459 -0.13099013
0.006404535 -0.2051458 -0.22548172 0.18578033 -0.08605008 -0.019190876 -0.12586178 -0.011924092
-0.1309037 -0.114092626 0.07998128 0.20926647 0.15950833 -0.028969675 -0.14246729 0.13844697
-0.039438512 0.20312569 0.22947608 -0.045517817 -0.10451613 0.02852272 0.16345619 0.06283105
0.0860794 0.035686556 -0.10504601 0.18035337 0.028287064 -0.16452599 0.14425837 0.12933807
-0.06916884 -0.10192942 -0.06641517 0.17433172 -0.09227789 0.22200735 -0.1866101 -0.036196068
-0.041336104 0.084794015 0.16521019 0.08489233 -0.25145158 0.08045676 0.11825911 0.07475604
0.04291559 -0.19416001 -0.11599805 -0.08859587 0.17513219 -0.1005003 -0.026836652 0.014746883
0.15202619 0.060646217 -0.15827774 0.1914906 0.049292527 0.19833122 0.049181256 -0.056536157
0.017460918 0.03511176 -0.15836988 0.008394038 -0.13112567 -0.02711076 0.05388161 -0.04124601
0.049092017 0.057553265 -0.06232194 0.048302807 -0.22751977 -0.02754504 0.012255544 -0.0702731
-0.060535114 -0.020296473 0.17627108 -0.080659464 0.071725406 -0.13287345 0.077686414 -0.084787905
0.065678395 -0.0071638427 -0.15816242 -0.12883396 -0.010524533 0.16897509 -0.13806769 0.12720329
0.1391671 -0.1687336 -0.21935175 -0.101006396 -0.13584037 -0.04122271 0.21198513 0.07953993
0.09413668 0.20093751 -0.02406208 -0.08563416 0.05220178 0.1573844 -0.11520019 -0.058531992
00000000: 52c8 263d 069f 36be b36f 69bd bd3e bb3a
00000010: d4be ab3d dde2 1ebc 02e3 13be 8d3c 943d
00000020: 3977 f3bd c5b9 7b3c 65f7 41bc 399c 1bbe
00000030: 1188 07be 9253 643d 9245 11be d6c7 443e
00000040: 321a d63d 8251 3bbe ac91 403e 17cc 02be
00000050: 8f58 28be 27e1 3a3e ec31 e3bd 3514 29be
00000060: ed91 88bd bdda 0cbe 8fee aebd ca5c e3bd
00000070: 9416 1d3e 9558 f63d 88c6 953d 6948 19be
00000080: 932b 863d e9f5 963d c6b9 a13e 38e7 063d
00000090: d077 bb3d 1920 063e feb0 a8bd b3ce 043e
000000a0: c543 a5be 3682 f23d 8f07 8bbc 03b7 92be
000000b0: abbb a13b a5c1 5dbe 4e2a 8d3d 87c6 e7bd
000000c0: d014 a93d 6b5e 55be 835e 91bc 64f3 5b3c
000000d0: ba63 67be fb8c ce3d 3edf eebd e6a1 213d
000000e0: c7fc 43be 35ef 413d 7605 5d3e b2e2 263e
000000f0: 8dd0 8abe fc65 b7bd 2c29 913c d184 4cbe
00000100: 9c1a b73c 644a 8bbe 2444 b93c e0c3 7bbe
00000110: 158e 28bd 83f0 de3d 4e31 0cbe d299 75be
00000120: a641 d33d 823c 513c cc34 683d c111 4b3d
00000130: 7bcd 8a3e b921 2fbe 4745 e0bd 0fdb 5abe
00000140: e527 0dbd b217 123e df03 323d 409a 833d
00000150: bcb8 17bd 63e9 debd afb3 2a3e a6b6 fb3d
00000160: 009d 8ebd 8718 30bd 0ae0 a23c 4873 96bd
00000170: 9263 6fbd cfe4 013d bc7a 323e 9d74 10be
00000180: 47d1 053e 5758 5cbe 7237 69bd e38e 01be
00000190: 28e3 a2bc 405d 3c3e 161f 8a3d b462 653d
000001a0: 786a 02be c8ac 80bd dd89 133e 26bc d13c
000001b0: 6c84 403d 6beb 14bd 74d5 76bd 0a5a 3abe
000001c0: 7dee e33d 7644 b5bd 271d 253e 2159 0cbe
000001d0: 2089 443d ddda 833d 634f 243e df14 923d
000001e0: 6da8 4d3d 6f0e 013e 6d21 51bd 8ed2 313e
000001f0: 02d7 8dbd 91ca cfbd c703 b9bc 0b3d b1bc
00000200: 4d0c 39bd cfa5 e2bc 875c 283e 9b94 6fbe
00000210: f2e2 0fbe f83b 833c d4c7 18bd e368 0d3d
00000220: 153c 4bbe fe20 433e 85d4 1c3e a857 0d3e
00000230: b2c3 30be 6496 353d 95c4 53be 4722 06be
00000240: 22dd d13b be11 52be aee4 66be 333d 3e3e
00000250: 063b b0bd 2f36 9dbc e9e1 00be 445d 43bc
00000260: 9f0b 06be 65a9 e9bd 3acd a33d f349 563e
00000270: 2756 233e d051 edbc f2e2 11be 0bc5 0d3e
00000280: 478a 21bd 2e00 503e c7fb 6a3e e470 3abd
00000290: 8e0c d6bd 7ba8 e93c 0f61 273e 91ad 803d
000002a0: 654a b03d 112c 123d 5d22 d7bd 8eae 383e
000002b0: 46ba e73c 8079 28be 77b8 133e 3371 043e
000002c0: 65a8 8dbd 5fc0 d0bd ad04 88bd 0484 323e
000002d0: 31fc bcbd e555 633e b816 3fbe 5442 14bd
000002e0: 0c50 29bd 7ca8 ad3d dc2c 293e 08dc ad3d
000002f0: 43be 80be 84c6 a43d d531 f23d b219 993d
00000300: 42c8 2f3d e2d1 46be 6390 edbd c071 b5bd
00000310: da55 333e 1ad3 cdbd 8ad8 dbbc e99c 713c
00000320: c1ac 1b3e 2b68 783d 8f13 22be 1d16 443e
00000330: f6e6 493d 5717 4b3e 4972 493d 7592 67bd
00000340: 330a 8f3c 59d1 0f3d b72b 22be 2687 093c
00000350: cf45 06be 6217 debc f7b2 5c3d 94f1 28bd
00000360: b614 493d f9bc 6b3d 4a45 7fbd 2ad9 453d
00000370: f1fa 68be 23a6 e1bc 7acb 483c 58eb 8fbd
00000380: abf3 77bd ca44 a6bc 6880 343e ca30 a5bd
00000390: c5e4 923d fa0f 08be 0e1a 9f3d 48a5 adbd
000003a0: 6582 863d abbe eabb 54f5 21be 0ded 03be
000003b0: 176f 2cbc ce07 2d3e 9e61 0dbe 9441 023e
000003c0: d281 0e3e 80c8 2cbe bf9d 60be 71dc cebd
000003d0: bd19 0bbe 25d9 28bd a112 593e d5e5 a23d
000003e0: bbca c03d 90c2 4d3e d71d c5bc f660 afbd
000003f0: 89d1 553d 6029 213e 14ee ebbd 3ebf 6fbd

rnn.bias_ih_l0 f4 [72]
-0.19141634 -0.083756045 0.113517456 0.18261418 -0.015575968 0.11349541 0.04004142 0.26167625
-0.04649979 -0.16612884 0.24938622 0.25161436 -0.104462974 -0.119392686 0.10809769 -0.18997638
0.19695571 -0.043059863 -0.1446559 -0.116756566 0.030455882 0.11007439 -0.011643762 0.04962487
-0.08054482 -0.2154629 0.13748993 -0.15620518 -0.0022720536 0.1117708 -0.11243916 -0.26424503
-0.16064718 -0.15380344 0.02138609 -0.16278288 -0.2038137 0.06433939 0.15795706 -0.24872951
0.06781418 -0.09834035 -0.2641417 -0.025590016 -0.03838767 0.016702767 0.06398318 0.085892975
0.022504076 -0.10510485 -0.253392 0.13238274 -0.13477084 -0.13432421 0.105879135 -0.13448119
-0.15038697 -0.15412922 0.08023715 0.18192443 -0.13401285 0.015182463 -0.17382479 0.07658085
0.00842532 0.082068086 0.09445303 -0.15751179 -0.15262255 -0.050599165 -0.06722627 -0.07286111
00000000: a502 44be 4a88 abbd d77b e83d 36ff 3a3e
00000010: 5832 7fbc 4870 e83d 7902 243d 6efa 853e
00000020: 9076 3ebd ae1d 2abe 1a5f 7f3e 99d3 803e
00000030: aff0 d5bd 2784 f4bd 5262 dd3d 2b89 42be
00000040: c2ae 493e 8a5f 30bd ad20 14be 111e efbd
00000050: 9d7e f93c af6e e13d 7ac5 3ebc 7343 4b3d
00000060: aff4 a4bd 4ea2 5cbe 29ca 0c3e 40f4 1fbe
00000070: bce6 14bb 17e8 e43d 8146 e6bd 204b 87be
00000080: b280 24be a67e 1dbe e231 af3c 8eb0 26be
00000090: 8ab4 50be 5fc4 833d 7fbf 213e f3b2 7ebe
000000a0: 29e2 8a3d aa66 c9bd 953d 87be 27a2 d1bc
000000b0: 643c 1dbd 3ed4 883c 9d09 833d a8e8 af3d
000000c0: 785a b83c 3641 d7bd 99bc 81be 578f 073e
000000d0: 5e01 0abe 498c 09be 29d7 d83d 70b5 09be
000000e0: 0bff 19be 0dd4 1dbe 6053 a43d 664a 3a3e
000000f0: aa3a 09be debf 783c 20ff 31be 6cd6 9c3d
00000100: 5a0a 0a3c 5013 a83d 9770 c13d c54a 21be
00000110: 1649 1cbe 1241 4fbd edad 89bd 3538 95bd

rnn.bias_hh_l0 f4 [72]
0.15456617 -0.07931381 0.21343504 0.02519313 0.10706743 0.18387131 0.09002731 0.2570947
0.15572572 0.1476384 -0.03234242 0.033574924 0.1532722 -0.14108372 0.054815393 -0.21535014
0.22373174 0.06089007 0.18032166 -0.102684505 -0.12037988 -0.0033604142 -0.031136844 -0.021862995
-0.105268575 -0.091388024 0.08380496 0.10257489 -0.23983872 -0.23741437 0.08066784 -0.28583583
0.11713759 -0.2535615 -0.08444442 -0.14289796 -0.26293156 0.0113946 -0.04303299 -0.079832636
-0.067285776 -0.003145308 0.017998083 -0.07954828 0.06007371 -0.11972454 -0.24277776 0.081021376
0.14209194 -0.14206384 -0.06260859 -0.013769974 -0.017646225 -0.006219764 0.22931504 -0.0957165
-0.08633278 -0.15837833 0.23705478 0.16358171 0.103159234 0.21163657 0.076551296 0.14565216
-0.21954298 0.04667828 0.18370286 -0.22951669 0.117948435 -0.055650312 -0.041144367 -0.25990218
00000000: 9846 1e3e 476f a2bd b78e 5a3e d361 ce3c
00000010: 2b46 db3d c348 3c3e 3d60 b83d eba1 833e
00000020: 9076 1f3e 852e 173e 7c79 04bd dc85 093d
00000030: 63f3 1c3e 4078 10be 1b86 603d bf84 5cbe
00000040: ef19 653e de67 793d 3ea6 383e 414c d2bd
00000050: ba89 f6bd 653a 5cbb b212 ffbc 061a b3bc
00000060: 0d97 d7bd a529 bbbd efa1 ab3d c912 d23d
00000070: 4898 75be c11c 73be 2e35 a53d 1359 92be
00000080: d5e5 ef3d d0d2 81be 32f1 acbd d853 12be
00000090: f79e 86be 6bb0 3a3c 5c43 30bd 4b7f a3bd
000000a0: 20cd 89bd 8321 4ebb b770 933c 35ea a2bd
000000b0: da0f 763d 2432 f5bd bc9a 78be 89ee a53d
000000c0: 8d80 113e 2f79 11be ef38 80bd 759b 61bc
000000d0: d18e 90bc 29cf cbbb 90d1 6a3e 0307 c4bd
000000e0: 3ecf b0bd ee2d 22be 7dbe 723e f781 273e
000000f0: 2645 d33d 42b7 583e edc6 9c3d d725 153e
00000100: e0cf 60be b931 3f3d 9a1c 3c3e 6c06 6bbe
00000110: f38e f13d 95f1 63bd ff86 28bd e611 85be

rnn.weight_ih_l1 f4 [72, 24]
-0.0846368 -0.036242004 -0.171608 0.20913596 -0.06343311 0.21131995 0.18814331 -0.17366286
-0.11213904 -0.024049258 0.23909402 -0.09053421 0.23258066 -0.07607207 -0.26268965 0.035994314
0.026843483 0.023352081 0.24719346 0.13022612 -0.076929 -0.10974379 0.27647027 0.16315114
-0.040178686 -0.024573995 -0.13115671 -0.23864621 0.13703784 -0.11213071 -0.026163412 -0.059030488
0.09483278 0.069595136 0.1394348 0.088131234 0.22626399 0.06275707 0.079221286 -0.1715942
-0.023053546 -0.21126494 -0.1777574 0.07333239 -0.002328685 0.23576057 -0.09669712 0.121575706
-0.1552487 0.12521484 -0.044682752 0.15643135 -0.18255611 -0.0090532815 -0.20878711 0.106005706
0.22660446 0.017060822 0.17070971 0.2276811 0.123099014 0.19480135 0.09116615 -0.014112892
-0.06245776 -0.21547678 -0.21183744 -0.08375219 0.07363159 -0.09152973 0.08122673 -0.15175949
0.11522454 -0.17203753 -0.057384748 0.05444347 -0.11494502 0.101073995 -0.111383416 0.066751726
-0.07751666 -0.07880434 -0.008342662 -0.19840588 0.17525114 0.052684166 -0.024582898 -0.054911334
0.16784504 -0.22374094 0.091833 -0.107991144 0.021783065 0.23158813 0.14778061 0.19906157
-0.15855631 0.06091744 -0.11532439 -0.08669469 -0.026033314 0.022687102 -0.010130125 -0.20596951
-0.020020157 -0.097492136 0.120903805 -0.07793232 -0.2824494 0.18167473 -0.07143414 -0.010604169
0.08333529 0.17639665 -0.17132029 0.012066608 -0.26975855 -0.08836699 -0.012113803 -0.1495281
0.018601 -0.13500911 -0.014073431 0.13103221 -0.15658168 -0.19043535 0.037554745 -0.07314176
0.20260818 0.15939721 -0.07277413 -0.06296326 -0.10425404 0.16400649 0.015914105 0.037022993
0.13507704 0.011920972 0.08157579 -0.0688896 0.20448142 0.04324601 0.17272736 -0.12267162
-0.10330413 0.009259191 -0.101860635 -0.029440178 0.00961283 -0.25886086 -0.14731467 0.112395726
0.06701081 0.0098724095 0.24820039 -0.097085185 -0.13814245 0.23789911 0.056560818 0.0702238
0.14773043 0.0711353 -0.089400485 -0.2686249 -0.026642257 0.10883361 -0.024946425 -0.0013438807
-0.008997955 -0.032641944 0.072674826 -0.038847506 0.114568755 -0.1366646 0.0031332348 -0.13931446
-0.14731032 0.019334324 -0.027712438 0.019684587 -0.032939598 0.10481743 0.040750206 -0.12925816
-0.019380473 -0.009158757 -0.16251393 -0.03766085 -0.18915741 0.14379434 0.039730266 0.104486786
-0.006155892 0.12706612 -0.13535844 -0.11667893 -0.22345096 0.03712647 -0.1058432 -0.010729631
-0.11842227 0.13435057 0.16367026 0.22500087 0.08134262 -0.089134164 -0.13027683 -0.119836204
-0.02812478 -0.018301498 -0.053334057 0.066020824 -0.18464223 0.27620244 -0.029802646 -0.11043619
-0.07539784 -0.20289111 0.18855256 0.07029042 0.030341715 -0.07646613 -0.12344677 -0.21951792
0.020589417 0.042678393 0.06887472 -0.029856078 0.042343248 0.21254097 0.037390787 -0.06790111
-0.010926273 0.018722055 0.12260427 -0.10846362 0.09987585 -0.22968571 0.09758178 -0.12951128
-0.17473517 -0.014105635 -0.18050738 -0.18123399 -0.05335057 -0.19539848 -0.080007695 0.13117924
-0.12577671 0.020532107 0.19997744 -0.13866258 -0.20262156 -0.11766364 -0.14283961 -0.08182718
00000000: 0f56 adbd 7f72 14bd 02ba 2fbe bd27 563e
00000010: 38e9 81bd 4264 583e a4a8 403e add4 31be
00000020: 27a9 e5bd f302 c5bc 10d5 743e 006a b9bd
00000030: a029 6e3e accb 9bbd 427f 86be c66e 133d
00000040: dde6 db3c dd4c bf3c 4820 7d3e ff59 053e
00000050: f48c 9dbd 5ac1 e0bd 838d 8d3e 1811 273e
00000060: 6892 24bd 674f c9bc f24d 06be ac5f 74be
00000070: a653 0c3e c9a4 e5bd a754 d6bc f4c9 71bd
00000080: b037 c23d e587 8e3d ffc7 0e3e 267e b43d
00000090: bfb1 673e c786 803d c53e a23d 64b6 2fbe
000000a0: cada bcbc d655 58be 0906 36be 4b2f 963d
000000b0: da9c 18bb 386b 713e 2409 c6bd affc f83d
000000c0: 84f9 1ebe 5238 003e 4305 37bd 8a2f 203e
000000d0: fdef 3abe 3754 14bc 4acc 55be 8519 d93d
000000e0: 000b 683e 23c3 8b3c 87ce 2e3e 3c25 693e
000000f0: 561b fc3d 017a 473e 52b5 ba3d c239 67bc
00000100: b5d3 7fbd f2a5 5cbe eaeb 58be 4586 abbd
00000110: 29cc 963d f073 bbbd 335a a63d d766 1bbe
00000120: d8fa eb3d 9b2a 30be 450c 6bbd 1e00 5f3d
00000130: 4b68 ebbd e2ff ce3d fd1c e4bd 21b5 883d
00000140: 0ec1 9ebd 2b64 a1bd a9af 08bc e92a 4bbe
00000150: 0975 333e 5acb 573d 1362 c9bc b5ea 60bd
00000160: 92df 2b3e 581c 65be f112 bc3d 762a ddbd
00000170: 6672 b23c 7025 6d3e cd53 173e ccd6 4b3e
00000180: 965c 22be 9184 793d 322f ecbd fc8c b1bd
00000190: d143 d5bc 4dda b93c d3f8 25bc ace9 52be
000001a0: 5001 a4bc f5a9 c7bd 6a9c f73d fb9a 9fbd
000001b0: 359d 90be f108 3a3e 104c 92bd 1cbd 2dbc
000001c0: b1ab aa3d 53a1 343e 966e 2fbe 06b3 453c
000001d0: cb1d 8abe c1f9 b4bd f978 46bc e51d 19be
000001e0: 2061 983c d43f 0abe 3f94 66bc 4f2d 063e
000001f0: f356 20be 7c01 43be 01d3 193d 59cb 95bd
00000200: 8578 4f3e 0639 233e 9a0a 95bd e2f2 80bd
00000210: 2483 d5bd 51f1 273e 4c5e 823c 6ca5 173d
00000220: a351 0a3e 2e50 433c 3511 a73d fe15 8dbd
00000230: 9463 513e ba22 313d 71df 303e 423b fbbd
00000240: 1e91 d3bd ddb3 173c 4f9c d0bd 872c f1bc
00000250: 227f 1d3c 6989 84be a8d9 16be bb2f e63d
00000260: f73c 893d e3bf 213c 3e28 7e3e 99d4 c6bd
00000270: 3775 0dbe d39b 733e 51ac 673d 7fd1 8f3d
00000280: a546 173e 62af 913d 9a17 b7bd 3489 89be
00000290: dd40 dabc 28e4 de3d 725c ccbc 2725 b0ba
000002a0: 296c 13bc 8fb3 05bd 8ad6 943d 901e 1fbd
000002b0: 06a3 ea3d cef1 0bbe f556 4d3b 73a8 0ebe
000002c0: 84d8 16be 0463 9e3c 3205 e3bc 9241 a13c
000002d0: aceb 06bd 85aa d63d b0e9 263d 405c 04be
000002e0: ccc3 9ebc 9c0e 16bc 0d6a 26be 4342 1abd
000002f0: 7bb2 41be d33e 133e 34bc 223d 2bfd d53d
00000300: 5db7 c9bb 9f1d 023e 679b 0abe 5df5 eebd
00000310: 54d0 64be ed11 183d 52c4 d8bd 56cb 2fbc
00000320: 6087 f2bd 3293 093e 2d99 273e a166 663e
00000330: f696 a63d f98b b6bd 4a67 05be af6c f5bd
00000340: f065 e6bc 06ed 95bc d074 5abd ed35 873d
00000350: da12 3dbe 686a 8d3e ae24 f4bc 5f2c e2bd
00000360: 2f6a 9abd b0c2 4fbe ec13 413e 6cf4 8f3d
00000370: 308f f83c 469a 9cbd a9d1 fcbd 4ec9 60be
00000380: 23ab a83c 8acf 2e3d 300e 8d3d bc94 f4bc
00000390: 1d70 2d3d 57a4 593e 1527 193d bd0f 8bbd
000003a0: 1c04 33bc ff5e 993c f317 fb3d 2d22 debd
000003b0: b68b cc3d bb32 6bbe f5d8 c73d 9b9e 04be
000003c0: c7ed 32be 521b 67bc edd6 38be 6795 39be
000003d0: 2186 5abd 8a16 48be 13db a3bd da53 063e
000003e0: 9ccb 00be f332 a83c e3c6 4c3e 90fd 0dbe
000003f0: 077c 4fbe a2f9 f0bd 8c44 12be 0295 a7bd

rnn.weight_hh_l1 f4 [72, 24]
0.127266 0.15056972 -0.17143966 -0.11902972 -0.07746212 0.12046126 -0.094169416 0.22340226
-0.1106005 -0.031402808 -0.13314667 -0.18969518 -0.01004827 -0.014640769 0.10754515 -0.123929374
-0.16644177 0.12905426 0.15905896 0.060136743 0.14606147 0.10099147 0.10324886 -0.106957145
-0.12825464 -0.06711267 -0.012950479 -0.054304503 -0.15450184 0.03655151 -0.09593968 0.10572076
-0.03426539 -0.01787115 -0.044137865 -0.09194599 0.13199544 0.15154417 0.061629053 0.17803656
0.13234858 -0.06555212 0.19495016 0.24072969 -0.17277768 -0.017291047 0.062795274 0.056190256
0.012281557 0.06885044 0.19078176 -0.10229272 -0.025958175 -0.122185014 -0.008005481 0.019267034
0.08193423 0.09151408 0.119330734 -0.1122452 0.059889764 0.16618398 -0.19612868 -0.11404841
0.18055084 0.11260259 0.13712195 -0.06894176 0.23211695 0.16399936 0.06871468 -0.077115394
-0.20355488 0.3146432 -0.15479913 -0.06394335 -0.01545356 0.07997345 0.2128081 -0.26148182
0.2193032 0.1622254 0.0386006 0.08918024 0.022647 0.20317388 -0.06637241 0.018045634
0.15752374 -0.24603167 0.18239462 -0.036590174 -0.24977548 0.0036555033 -0.20359686 -0.1615811
-0.060883977 0.12631583 0.207598 -0.11994091 0.106523104 -0.23566572 0.13861743 -0.16007598
-0.119172856 0.22931892 -0.13382629 -0.13324617 -0.007671405 -0.20497759 -0.117607936 0.1251179
0.21744953 0.1664562 0.10833547 -0.033829834 0.18947016 -0.124970354 -0.07114223 0.12562327
0.05245619 0.13330948 -0.08890759 -0.038071953 0.06726187 -0.059040878 -0.015554319 -0.0059782565
-0.05912939 0.06778364 -0.11845725 0.10878495 0.1480363 0.19414876 0.08014364 -0.14382869
0.14392963 0.14253522 0.2478398 0.066669606 0.05183757 -0.070565574 -0.15601936 0.06725922
0.15668619 -0.10764569 0.16687845 0.02287553 0.22615549 0.12017761 -0.11312602 -0.103058316
-0.055702563 0.22275601 -0.09275189 -0.07736996 -0.093000546 -0.081929676 0.17624266 -0.041565508
-0.11527317 0.037743423 0.14472821 0.043304816 -0.029476643 -0.19628325 0.0132658 -0.16122189
0.05571737 0.08014565 -0.12674932 0.039372217 0.051745128 -0.06031315 0.17645909 -0.024408547
0.26677096 -0.017742753 0.1721735 -0.24931146 0.11950804 0.04974855 0.008657633 -0.227398
-0.007475013 0.158951 -0.14978038 -0.009729511 0.10803279 0.055355642 -0.26403064 -0.008374156
-0.15873231 0.038021438 -0.050783664 0.14777476 0.0842535 -0.05921199 -0.0071911523 0.097142935
0.08738611 -0.02665112 -0.191592 -0.14368975 0.08741626 0.19498365 -0.2027896 -0.15206313
0.0117464075 -0.07020348 -0.030127082 -0.009970019 -0.122147925 0.08285705 -0.11539212 0.16462503
-0.11962285 -0.14108491 -0.1925084 -0.043224946 0.061014786 0.01555054 0.1596032 -0.011007678
-0.073339865 -0.09734972 0.13080485 0.096160114 -0.04736384 0.030531054 0.25337294 -0.0775079
-0.007065928 0.038219407 -0.16466342 0.08006977 -0.18936531 -0.15018906 -0.21126743 -0.06805415
0.019504625 0.20245655 -0.11511394 -0.08860837 -0.04435931 0.16326766 0.06856789 0.14008248
0.053732656 0.13116276 0.18596886 -0.11093882 0.2247233 0.051620267 -0.025803337 -0.0012254007
00000000: 0552 023e f32e 1a3e e18d 2fbe dbc5 f3bd
00000010: 76a4 9ebd 65b4 f63d e5db c0bd 90c3 643e
00000020: 8482 e2bd 3ba0 00bd 9a57 08be 743f 42be
00000030: 80a1 24bc d6df 6fbc a240 dc3d afce fdbd
00000040: b66f 2abe cd26 043e 5ae0 223e f251 763d
00000050: 2391 153e 9ed4 ce3d 2374 d33d 590c dbbd
00000060: 2f55 03be 5e72 89bd 3f2e 54bc 666e 5ebd
00000070: bb35 1ebe 09b7 153d 067c c4bd 2084 d83d
00000080: de59 0cbd 8566 92bc e8c9 34bd 2e4e bcbd
00000090: d029 073e 652e 1b3e bf6e 7c3d 374f 363e
000000a0: 6386 073e 3140 86bd 04a1 473e d881 763e
000000b0: a2ec 30be f4a5 8dbc cf9a 803d c127 663d
000000c0: 9538 493c 7601 8d3d 4b5c 433e d87e d1bd
000000d0: 3da6 d4bc 233c fabd 6c29 03bc e6d5 9d3c
000000e0: 22cd a73d bc6b bb3d ac63 f43d d0e0 e5bd
000000f0: f84e 753d 222c 2a3e f5d5 48be 3692 e9bd
00000100: 52e2 383e 309c e63d b269 0c3e 5631 8dbd
00000110: 11b0 6d3e 73ef 273e 48ba 8c3d adee 9dbd
00000120: b170 50be ea18 a13e aa83 1ebe bbf4 82bd
00000130: ee30 7dbc 1fc9 a33d 5eea 593e f2e0 85be
00000140: 0591 603e 6a1e 263e aa1b 1e3d 21a4 b63d
00000150: 3486 b93c d00c 503e 42ee 87bd 70d4 933c
00000160: e74d 213e baef 7bbe a8c5 3a3e 94df 15bd
00000170: 25c5 7fbe 2b91 6f3b b27b 50be 8475 25be
00000180: 7a61 79bd f058 013e 9294 543e 94a3 f5bd
00000190: c928 da3d 5b52 71be baf1 0d3e f5ea 23be
000001a0: e610 f4bd 94d2 6a3e c209 09be af71 08be
000001b0: 6960 fbbb a5e5 51be 6edc f0bd e81e 003e
000001c0: 17ab 5e3e 7e73 2a3e fdde dd3d 2791 0abd
000001d0: 7704 423e 75f0 ffbd 04b3 91bd 63a3 003e
000001e0: 4ddc 563d 4882 083e 2f15 b6bd 56f1 1bbd
000001f0: 97c0 893d d9d4 71bd 8bd7 7ebc 40e5 c3bb
00000200: a931 72bd 26d2 8a3d b799 f2bd a5ca de3d
00000210: d496 173e efce 463e 5922 a43d d447 13be
00000220: 4a62 133e c1f4 113e b7c9 7d3e 138a 883d
00000230: a253 543d af84 90bd 8ac3 1fbe 34bf 893d
00000240: 5872 203e 5875 dcbd 2fe2 2a3e 7765 bb3c
00000250: 4e95 673e ae1f f63d 9dae e7bd 3d10 d3bd
00000260: 5f28 64bd 271a 643e b4f4 bdbd 2474 9ebd
00000270: 1277 bebd bfca a7bd f578 343e 9840 2abd
00000280: 5714 ecbd d998 1a3d a233 143e 6460 313d
00000290: 0079 f1bc 7afe 48be cc58 593c 5a17 25be
000002a0: e637 643d 6723 a43d 93ca 01be c344 213d
000002b0: b3f2 533d ec0a 77bd b1b1 343e 6ff4 c7bc
000002c0: 3496 883e 4059 91bc 404e 303e 814b 7fbe
000002d0: a2c0 f43d 23c5 4b3d bfd8 0d3c 05db 68be
000002e0: f4f0 f4bb 0dc4 223e 0760 19be 8768 1fbc
000002f0: 4c40 dd3d 99bc 623d 062f 87be c233 09bc
00000300: b98a 22be 5ebc 1b3d 8802 50bd 4452 173e
00000310: 198d ac3d 4688 72bd c2a3 ebbb e0f2 c63d
00000320: 7df7 b23d 7353 dabc b130 44be 6823 13be
00000330: 4c07 b33d cba9 473e 14a8 4fbe 70b6 1bbe
00000340: 0174 403c d8c6 8fbd 12cd f6bc 4a59 23bc
00000350: b128 fabd f5b0 a93d b452 ecbd 7793 283e
00000360: d3fc f4bd 9078 10be ec20 45be a40c 31bd
00000370: a4ea 793d b1c7 7e3c 056f 233e 8c59 34bc
00000380: 3633 96bd 4a5f c7bd b5f1 053e 98ef c43d
00000390: 9600 42bd 431c fa3c 19ba 813e 76bc 9ebd
000003a0: 4d89 e7bb f48b 1c3d 879d 28be 9ffb a33d
000003b0: fbe8 41be 29cb 19be 7d56 58be f95f 8bbd
000003c0: 2ac8 9f3c c550 4f3e dbc0 ebbd 4e78 b5bd
000003d0: 1cb2 35bd a32f 273e 526d 8c3d c871 0f3e
000003e0: c616 5c3d 884f 063e 9f6e 3e3e e433 e3bd
000003f0: dd1d 663e c66f 533d 8561 d3bc a09d a0ba

rnn.bias_ih_l1 f4 [72]
-0.16099666 -0.22966717 0.12222694 -0.1634694 0.041160453 0.049040437 -0.13568921 0.099629685
-0.08286017 0.03502272 -0.18485464 0.1719646 0.17846 0.11665944 0.05587956 0.1519545
-0.0014266617 0.10304174 -0.14533465 -0.11561392 -0.14868492 0.15950872 -0.16216354 0.08982713
-0.09617981 -0.23544824 -0.21558876 -0.10425323 -0.035615824 -0.08630736 -0.19947605 -0.19910285
0.10519841 0.25899872 -0.24663627 0.07688928 -0.22158727 -0.1257759 -0.06662217 -0.27608365
0.064889565 -0.028326292 0.11121479 -0.08723743 -0.11867817 -0.025682474 -0.19317366 -0.014191744
0.18429416 -0.19045793 0.19413538 0.1033634 -0.17408112 -0.15650798 0.0076200375 0.0076382984
0.13407429 0.20410822 0.084179915 -0.101525106 -0.05862623 -0.15942013 -0.05197356 -0.21254116
0.17184938 0.25161457 -0.11616135 -0.06850198 0.13545282 -0.033620697 -0.17053087 -0.19647834
00000000: 4fdc 24be df2d 6bbe 1e52 fa3d 8664 27be
00000010: dd97 283d a0de 483d 1df2 0abe a60a cc3d
00000020: 98b2 a9bd fc73 0f3d 894a 3dbe 7d17 303e
00000030: 38be 363e 25eb ee3d f7e1 643d f699 1b3e
00000040: d3fe baba 8c07 d33d 9bd2 14be fec6 ecbd
00000050: dc40 18be 4156 233e 330e 26be 49f7 b73d
00000060: ecf9 c4bd 5819 71be 4dc3 5cbe b882 d5bd
00000070: e6e1 11bd eac1 b0bd 7343 4cbe 9ee1 4bbe
00000080: 4472 d73d 7b9b 843e 388e 7cbe 2078 9d3d
00000090: c6e7 62be 66cb 00be 3471 88bd d65a 8dbe
000000a0: d2e4 843d 8a0c e8bc 94c4 e33d 8aa9 b2bd
000000b0: 8a0d f3bd 0d64 d2bc 51cf 45be 7d84 68bc
000000c0: 9cb7 3c3e 6707 43be 6dcb 463e 31b0 d33d
000000d0: 5242 32be a143 20be 82b1 f93b b14a fa3b
000000e0: c54a 093e bf01 513e 8566 ac3d 65ec cfbd
000000f0: 0f22 70bd 083f 23be 3ae2 54bd 64a4 59be
00000100: 49f9 2f3e a0d3 803e 00e6 edbd c44a 8cbd
00000110: 25b4 0a3e dbb5 09bd a59f 2ebe 9e31 49be

rnn.bias_hh_l1 f4 [72]
0.069086395 -0.21058026 -0.00016361606 0.16616918 -0.03149055 -0.052590467 -0.13116138 0.23099697
-0.099508 -0.06762133 0.15863612 -0.06541953 -0.026843509 0.13085894 0.02292698 0.109292984
0.029688576 0.11675309 0.10390193 0.16564468 -0.013151085 0.22460137 -0.05296294 0.06295748
-0.07185354 -0.27077302 -0.20987754 -0.080466315 -0.10774059 -0.17771316 -0.123134226 -0.060908306
-0.16486885 0.24098504 -0.056697544 -0.1629649 -0.075267404 0.036513876 -0.11143129 0.011211893
-0.059029877 -0.23814902 -0.07773923 -0.009563146 0.094639264 0.0788363 -0.06334502 -0.102710254
0.20879027 0.067024186 -0.020623282 0.19917256 -0.24004045 -0.17206141 0.2103445 -0.21161203
0.2082623 -0.11243616 0.13374647 -0.1160788 0.13304316 -0.16864385 -0.2168376 -0.16164015
-0.07824558 0.2533082 0.017370038 -0.11821956 0.16594888 -0.21883595 -0.19095743 -0.07642278
00000000: 2b7d 8d3d 5aa2 57be 5a90 2bb9 4128 2a3e
00000010: 3cfc 00bd 1a69 57bd 2b4f 06be 788a 6c3e
00000020: daca cbbd 0d7d 8abd 8271 223e adfa 85bd
00000030: ebe6 dbbc e3ff 053e 5dd1 bb3c 00d5 df3d
00000040: 7535 f33c 3e1c ef3d 89ca d43d c29e 293e
00000050: a677 57bc e7fd 653e abef 58bd daef 803d
00000060: f327 93bd c3a2 8abe 23ea 56be 86cb a4bd
00000070: 19a7 dcbd 70fa 35be cc2d fcbd fd7a 79bd
00000080: 61d3 28be c8c4 763e af3b 68bd 45e0 26be
00000090: cc25 9abd 938f 153d 1736 e4bd 16b2 373c
000000a0: 50c9 71bd 56dd 73be bf35 9fbd beae 1cbc
000000b0: 3bd2 c13d ed74 a13d 09bb 81bd c159 d2bd
000000c0: 1ecd 553e fa43 893d 28f2 a8bc e4f3 4b3e
000000d0: 2acd 75be de30 30be 8c64 573e d3b0 58be
000000e0: b642 553e ee44 e6bd d6f4 083e b9ba edbd
000000f0: 773c 083e f9b0 2cbe ad0a 5ebe ff84 25be
00000100: 383f a0bd 9db1 813e 9c4b 8e3c 191d f2bd
00000110: 81ee 293e 8816 60be 588a 43be 8c83 9cbd

rnn.weight_ih_l2 f4 [72, 24]
0.24478152 -0.092089996 0.2152025 -0.05116154 -0.15233465 -0.106790446 0.04764709 0.12430508
-0.13874038 -0.106632225 0.15487404 -0.042176858 0.034674097 -0.08357773 0.08832968 -0.06837135
-0.067790486 -0.019677965 0.21653925 -0.23084444 0.033108443 0.16140167 -0.049267057 0.013701692
-0.06495488 -0.050152898 0.13160348 -0.08755703 0.117695786 0.26575527 -0.07448529 0.1696881
-0.038231254 0.02037813 0.076764576 0.16300805 0.030032506 0.098698795 -0.21673308 0.21503605
-0.27173996 -0.08900371 0.07025879 -0.10702908 0.23121263 0.060954366 0.06247505 0.104572415
-0.051813852 -0.21119383 0.028195266 0.16870572 -0.22676964 0.06776299 -0.06708065 0.1922248
0.13836007 0.12332871 0.15287064 -0.2077104 -0.10944465 -0.010468794 -0.007859379 0.15538464
-0.0069558173 0.1725561 0.20390375 -0.07493842 -0.010416862 0.20543738 -0.121506356 -0.09992445
-0.028410578 0.1270078 -0.07546371 0.18240009 -0.022544304 0.1397737 -0.08019408 -0.14401108
0.049007673 -0.16300865 0.110953994 0.23309071 0.17937022 -0.22988442 0.20805484 0.061480418
-0.10323099 -0.23616137 -0.13017951 0.13671732 0.014501844 0.15187737 -0.107660286 -0.053223893
-0.018652726 -0.078801185 -0.027565995 0.14262764 -0.05461859 0.04242698 0.07114977 -0.14122774
-0.038875893 -0.09452611 -0.08922583 -0.20310527 0.0836897 -0.0077345227 0.15994859 -0.124903806
-0.10357241 -0.079816446 -0.12040972 -0.040865205 0.14904256 0.08253317 0.15151261 0.11169756
-0.012012265 -0.19320093 -0.055368617 0.007451254 -0.100071244 -0.2328348 0.05248222 -0.15951611
-0.10604476 -0.16359866 0.24638003 -0.17651285 -0.23566161 -0.07360893 -0.10658176 -0.1255925
0.068927735 0.22264794 0.05152215 -0.103883095 -0.0526081 -0.057640914 -0.023615073 -0.0871498
-0.018991107 0.02823922 0.030667571 -0.033116475 -0.19330235 0.06760858 0.047917973 -0.15398702
0.22080374 0.060745537 0.10017005 -0.15574655 -0.04642116 -0.16229728 -0.033749294 -0.13662162
0.12853277 0.059931725 -0.1317644 0.069078214 -0.04964622 -0.30640072 -0.12541157 -0.11862177
-0.14235207 0.22017086 0.07306299 0.25627485 0.07483996 0.15967904 0.033827852 0.025076872
0.053963583 0.20960133 -0.15248094 -0.036814325 -0.09355806 -0.057236727 -0.0040716194 0.03148361
0.08475486 -0.22858718 -0.0338361 -0.0033070957 -0.20490326 0.169575 0.039745748 -0.12879659
0.094819196 -0.16383563 0.21251091 0.11487416 0.029331692 -0.19440292 -0.10823119 -0.09478023
0.15805313 0.018540774 -0.06877409 0.08278628 -0.0851017 -0.21731591 -0.13744636 -0.022131708
-0.10986012 0.07688452 -0.02690669 -0.025929295 0.005187336 0.104264565 0.15489493 0.063677944
-0.14033672 0.042123728 0.23530172 0.10476966 -0.18231332 0.18280098 -0.049878225 -0.07906578
0.01936348 0.04268482 -0.10252652 -0.04718552 -0.27258444 0.20205574 0.043276194 0.031264342
-0.16618444 -0.14347287 -0.13572434 -0.25365284 0.003129005 -0.15194818 0.13248122 -0.07710908
-0.08029434 0.024160037 -0.045622893 0.20164734 0.00401243 -0.17722446 0.005102838 0.09472586
0.18527795 0.008590948 -0.07565381 0.16657555 0.07656463 -0.066553816 0.08395678 -0.26810446
00000000: 02a8 7a3e ae99 bcbd 0b5e 5c3e c38e 51bd
00000010: 9dfd 1bbe f3b4 dabd 9829 433d a993 fe3d
00000020: f511 0ebe ff61 dabd 4d97 1e3e a4c1 2cbd
00000030: 6d06 0e3d cd2a abbd 31e6 b43d 4706 8cbd
00000040: bdd5 8abd af33 a1bc 77bc 5d3e 7c62 6cbe
00000050: b89c 073d 7b46 253e 41cc 49bd 107d 603c
00000060: 1007 85bd 206d 4dbd 10c3 063e 1a51 b3bd
00000070: 7d0a f13d 1311 883e be8b 98bd b8c2 2d3e
00000080: 6098 1cbd 09f0 a63c bf36 9d3d 95eb 263e
00000090: bb06 f63c 9822 ca3d 47ef 5dbe 6932 5c3e
000000a0: 8021 8bbe 9447 b6bd d7e3 8f3d 1032 dbbd
000000b0: 01c3 6c3e 49ab 793d d7e5 7f3d 102a d63d
000000c0: c33a 54bd 3243 58be c2f9 e63c 31c1 2c3e
000000d0: 4d36 68be 53c7 8a3d 9461 89bd 94d6 443e
000000e0: 43ae 0d3e c393 fc3d 1f8a 1c3e 09b2 54be
000000f0: 8424 e0bd 4e85 2bbc a0c4 00bc 271d 1f3e
00000100: a0ed e3bb 8cb2 303e 25cc 503e 5079 99bd
00000110: 7cab 2abc 2d5e 523e 53d8 f8bd 31a5 ccbd
00000120: 4dbd e8bc 550e 023e b88c 9abd 17c7 3a3e
00000130: d5ae b8bc d620 0f3e cb3c a4bd a477 13be
00000140: 45bc 483d bdeb 26be d93b e33d 55af 6e3e
00000150: d4ac 373e d266 6bbe 540c 553e e4d2 7b3d
00000160: c56a d3bd 49d4 71be c74d 05be a0ff 0b3e
00000170: 2499 6d3c be85 1b3e ff7c dcbd 4c01 5abd
00000180: 9acd 98bc 8462 a1bd 15d2 e1bc fb0c 123e
00000190: beb7 5fbd eac7 2d3d f8b6 913d 019e 10be
000001a0: 543c 1fbd e896 c1bd 08bc b6bd d4fa 4fbe
000001b0: 8165 ab3d e171 fdbb 90c9 233e 91cd ffbd
000001c0: c61d d4bd ce76 a3bd 5f99 f6bd 4662 27bd
000001d0: 9d9e 183e 2707 a93d 1f26 1b3e b1c1 e43d
000001e0: 17cf 44bc 77d6 45be 34ca 62bd a629 f43b
000001f0: 27f2 ccbd 3f6c 6ebe 99f7 563d 3158 23be
00000200: ff2d d9bd 6886 27be 0c4b 7c3e c9bf 34be
00000210: 4751 71be 47c0 96bd 8a47 dabd 529b 00be
00000220: fc29 8d3d d2fd 633e e408 533d a9c0 d4bd
00000230: 977b 57bd e118 6cbd 6674 c1bc 987b b2bd
00000240: 3d93 9bbc f055 e73c 8f3a fb3c 24a5 07bd
00000250: 0df1 45be 5e76 8a3d a345 443d c6ae 1dbe
00000260: 601a 623e 50d0 783d f525 cd3d 067c 1fbe
00000270: 1d24 3ebd 4231 26be b33c 0abd 8ae6 0bbe
00000280: 189e 033e f87a 753d 3fed 06be e178 8d3d
00000290: d659 4bbd 8ee0 9cbe e46b 00be f8ef f2bd
000002a0: bec4 11be 7874 613e 0da2 953d 7536 833e
000002b0: b145 993d e782 233e 138f 0a3d 036e cd3c
000002c0: eb08 5d3d bba1 563e f723 1cbe 9eca 16bd
000002d0: 5e9b bfbd 0f71 6abd 386b 85bb f5f4 003d
000002e0: f593 ad3d c212 6abe b997 0abd dcbb 58bb
000002f0: 29d2 51be 12a5 2d3e 70cc 223d 41e3 03be
00000300: 9130 c23d 87c4 27be 769c 593e 2543 eb3d
00000310: 0449 f03c 8f11 47be 50a8 ddbd 231c c2bd
00000320: aed8 213e d2e2 973c 6ed9 8cbd da8b a93d
00000330: cd49 aebd 1088 5ebe bdbe 0cbe 8e4d b5bc
00000340: 58fe e0bd a275 9d3d 6b6b dcbc ac69 d4bc
00000350: 87fa a93b a988 d53d c79c 1e3e 9569 823d
00000360: 6eb4 0fbe ee89 2c3d eff2 703e 7a91 d63d
00000370: 58b0 3abe 2e30 3b3e 1c4d 4cbd 3ded a1bd
00000380: 29a0 9e3c 47d6 2e3d 6df9 d1bd 9b45 41bd
00000390: 3090 8bbe b3e7 4e3e 6142 313d 0a0f 003d
000003a0: 412c 2abe 8dea 12be 52fb 0abe c9de 81be
000003b0: fe0f 4d3b 4e98 1bbe 28a9 073e 5eeb 9dbd
000003c0: 5c71 a4bd 45eb c53c 12df 3abd a47c 4e3e
000003d0: b47a 833b 547a 35be b535 a73b a2ff c13d
000003e0: 81b9 3d3e 0cc1 0c3c 62f0 9abd c892 2a3e
000003f0: ebcd 9c3d 5e4d 88bd 88f1 ab3d fd44 89be

rnn.weight_hh_l2 f4 [72, 24]
-0.15732056 -0.18280298 0.12092515 0.09943838 0.16876577 -0.14730118 0.17611699 -0.11362318
-0.003445924 0.114699155 0.035487108 -0.21524075 -0.17124054 0.012809569 0.16080852 0.13033317
0.23227587 0.1654589 0.054765526 -0.16857986 -0.16520198 0.18335792 -0.20877424 -0.17840478
0.05980257 0.13101044 0.17897852 -0.18877381 -0.090649396 -0.1477123 -0.20446788 0.12247673
0.24993916 -0.22899882 0.019706987 0.07884265 -0.119401515 -0.013021134 0.044317346 -0.0828967
0.07264861 -0.03765315 -0.08264014 -0.0043786396 0.035336252 0.15696535 0.19113465 0.15981093
-0.2538378 -0.14434068 -0.28014594 0.1466441 -0.009239919 0.26968855 0.045025807 0.028417332
-0.11575185 -0.14097491 0.04524384 0.0425349 -0.040089328 -0.06212814 -0.0652491 0.1535369
0.13841315 0.034759637 0.1889358 0.10305362 -0.023774102 -0.19401118 -0.09254737 0.095213674
-0.14470991 -0.13367805 -0.047509458 0.06952572 -0.09259565 0.13769975 -0.008998154 0.11209715
-0.09621327 0.1820604 0.08804737 0.0045473073 -0.014947514 0.16261052 0.030633263 -0.16729324
-0.018115165 -0.028483815 0.1288814 -0.08327082 0.11582577 0.18595365 0.095819205 0.10947293
-0.18819544 0.12689531 -0.15571165 0.19220956 -0.11516503 0.14121585 0.07482444 -0.16615184
-0.041172184 0.099561855 -0.1687967 -0.12509294 -0.089053705 0.0035082125 0.12858148 0.21877718
-0.14873496 -0.19741268 0.14778882 -0.21454172 -0.10981098 -0.099498846 -0.16266215 -0.10752069
-0.10115397 -0.20324834 -0.024147414 -0.09340354 0.09534556 -0.08847553 0.05606116 0.07111499
-0.02807788 -0.037915953 0.11018486 0.2617403 -0.0645242 -0.089875884 0.2808004 -0.104799025
-0.011825659 -0.054313008 -0.04748802 0.0038174614 0.11815498 -0.08421499 0.017077213 -0.09743569
0.18893689 0.100221425 -0.0881469 -0.16065104 0.23330815 0.024903499 0.19513029 0.03516353
-0.060707796 -0.11450118 0.08545872 0.18127541 0.04522443 -0.16611041 -0.1101213 0.20082484
0.05486007 0.17542407 0.138847 0.13732095 -0.019518794 0.0888365 0.16068982 0.08028918
-0.13876113 -0.22745125 0.019596778 -0.01946966 0.11322173 0.009602138 -0.05370831 0.15024467
0.09735648 -0.032431107 -0.013725007 0.12286488 0.02507184 -0.0007557944 0.07066984 -0.17648496
-0.05581513 0.17041151 -0.0021866325 -0.12157779 -0.0032542397 0.15073839 0.14830452 -0.07699631
0.02351789 0.056651138 -0.14058419 0.119931385 0.17203562 0.11251498 0.21777345 -0.17157605
-0.14693333 -0.12573917 -0.14691003 0.10853952 -0.11656345 -0.059974317 -0.052771505 0.1308536
-0.15509193 0.14399515 0.105767615 0.11510561 0.080578536 -0.10794862 -0.08300707 -0.10972857
-0.17607795 -0.056343865 -0.0054739094 -0.1174348 0.16527529 -0.1178296 0.17911957 -0.10503733
-0.073765986 0.106700465 -0.082867086 0.07446823 -0.01985451 0.04945323 -0.11194395 -0.14163363
-0.0037657947 -0.13315065 0.12747522 0.08242321 0.0056864177 -0.08306839 -0.030473508 0.21339127
-0.207982 -0.07530565 0.058153186 0.24942578 -0.05297344 0.22450241 0.20041503 -0.03030733
0.12748031 -0.010806167 0.070402645 0.14724535 -0.157821 -0.059585877 0.23354332 -0.12878345
00000000: a418 21be b430 3bbe 9ba7 f73d 59a6 cb3d
00000010: efd0 2c3e 1fd6 16be 0358 343e 45b3 e8bd
00000020: 03d5 61bb 64e7 ea3d ee5a 113d 1268 5cbe
00000030: ae59 2fbe 3adf 513c fdaa 243e 0f76 053e
00000040: bad9 6d3e 0f6e 293e d151 603d 33a0 2cbe
00000050: b52a 29be 2ec2 3b3e eac8 55be beaf 36be
00000060: 8af3 743d 9a27 063e 2546 373e ec4d 41be
00000070: 64a6 b9bd e541 17be 0760 51be 14d5 fa3d
00000080: 0df0 7f3e ab7e 6abe 8c70 a13c 4178 a13d
00000090: c888 f4bd 9856 55bc 1b86 353d bfc5 a9bd
000000a0: cbc8 943d 303a 1abd 3c3f a9bd b17a 8fbb
000000b0: bfbc 103d 86bb 203e cdb8 433e 7aa5 233e
000000c0: 07f7 81be 0bce 13be 4a6f 8fbe df29 163e
000000d0: 0763 17bc 9e14 8a3e fb6c 383d 77cb e83c
000000e0: 4e0f edbd ba5b 10be 9b51 393d 1339 2e3d
000000f0: b534 24bd 147a 7ebd 52a1 85bd c738 1d3e
00000100: 2dbc 0d3e 1f60 0e3d 6378 413e c70d d33d
00000110: e8c1 c2bc deaa 46be 7a89 bdbd 63ff c23d
00000120: d62e 14be e6e2 08be 4799 42bd 8063 8e3d
00000130: caa2 bdbd 2a01 0d3e fe6c 13bc 3193 e53d
00000140: 770b c5bd 0b6e 3a3e 2e52 b43d 9401 953b
00000150: 6be6 74bc 5f83 263e 9cf2 fa3c eb4e 2bbe
00000160: 4166 94bc e456 e9bc 7cf9 033e e489 aabd
00000170: 1036 ed3d a26a 3e3e dc3c c43d 5833 e03d
00000180: 4eb6 40be d8f0 013e e072 1fbe 95d2 443e
00000190: a5db ebbd e39a 103e 8e3d 993d b523 2abe
000001a0: 2aa4 28bd 16e7 cb3d 0bd9 2cbe 5d18 00be
000001b0: ca61 b6bd 0aea 653b ddaa 033e 2007 603e
000001c0: fa4d 18be 8d26 4abe f455 173e d3b0 5bbe
000001d0: 94e4 e0bd 0dc6 cbbd e890 26be cf33 dcbd
000001e0: d029 cfbd 5520 50be ccd0 c5bc 5b4a bfbd
000001f0: 8844 c33d a932 b5bd 63a0 653d bca4 913d
00000200: 9503 e6bc c24d 1bbd 9aa8 e13d d302 863e
00000210: 4425 84bd d910 b8bd 12c5 8f3e dfa0 d6bd
00000220: 69c0 41bc 5177 5ebd cc82 42bd 602e 7a3b
00000230: 3dfb f13d e978 acbd 83e5 8b3c 5d8c c7bd
00000240: ac78 413e e440 cd3d 5d86 b4bd b581 24be
00000250: 55e8 6e3e 6c02 cc3c 3cd0 473e a207 103d
00000260: bda8 78bd 987f eabd fb04 af3d 43a0 393e
00000270: 403d 393d d918 2abe 4787 e1bd 07a5 4d3e
00000280: f4b4 603d 5ea2 333e e82d 0e3e dd9d 0c3e
00000290: e1e5 9fbc e9ef b53d df8b 243e a76e a43d
000002a0: 6617 0ebe fbe8 68be 6c89 a03c d67e 9fbc
000002b0: cbe0 e73d 4952 1d3c 3ffd 5bbd bdd9 193e
000002c0: d662 c73d 7bd6 04bd dade 60bc 95a0 fb3d
000002d0: 7663 cd3c 8120 46ba 59bb 903d 79b8 34be
000002e0: 689e 64bd 5b80 2e3e 9b4d 0fbb c7fd f8bd
000002f0: 1545 55bb 2a5b 1a3e 24dd 173e 3eb0 9dbd
00000300: 97a8 c03c 060b 683d 4df5 0fbe 969e f53d
00000310: 1b2a 303e 416e e63d 0100 5f3e a2b1 2fbe
00000320: b175 16be c5c1 00be 956f 16be f849 de3d
00000330: d1b8 eebd a1a7 75bd ef26 58bd 7cfe 053e
00000340: 6bd0 1ebe 7773 133e b19c d83d 7dbc eb3d
00000350: 5c06 a53d 2b14 ddbd 9cff a9bd 5fb9 e0bd
00000360: c74d 34be d3c8 66bd 7b5e b3bb a881 f0bd
00000370: ed3d 293e a550 f1bd 1f6b 373e d01d d7bd
00000380: 9f12 97bd c685 da3d 38b6 a9bd cd82 983d
00000390: eda5 a2bc 788f 4a3d df42 e5bd 6808 11be
000003a0: 8dcb 76bb a558 08be dd88 023e 80cd a83d
000003b0: 2155 ba3b c31f aabd 94a3 f9bc 3e83 5a3e
000003c0: 3cf9 54be d939 9abd 0932 6e3d 7969 7f3e
000003d0: aefa 58bd f6e3 653e 9939 4d3e 1447 f8bc
000003e0: 338a 023e 590c 31bc 432f 903d 7cc7 163e
000003f0: d49b 21be 5210 74bd fb25 6f3e cfdf 03be

rnn.bias_ih_l2 f4 [72]
-0.008030726 -0.104948334 -0.07487826 0.06343751 -0.0055793873 0.071810804 -0.10913531 0.130925
0.07032078 -0.14166358 0.08717868 -0.17852417 0.009603096 -0.02873169 0.08468885 0.12606552
-0.08943803 0.24585183 0.04716318 0.15973413 -0.1712193 0.2844824 0.06726736 0.22507115
-0.1260801 -0.19561121 -0.26679707 -0.058897834 -0.1331265 -0.13515383 -0.26814508 0.040451646
0.14982697 -0.20374174 -0.19048588 0.076172456 -0.003362457 -0.18990219 -0.15659155 0.015912345
-0.032687522 -0.18351175 -0.11289019 -0.007038486 0.08605306 -0.05412271 -0.1451101 0.0311896
-0.02778511 -0.011026088 -0.17789896 0.12116371 0.16452388 0.27446714 0.049217574 0.04973264
0.0774466 -0.013051741 0.093296595 -0.08137851 -0.043745685 0.022001216 -0.007344635 0.08306461
-0.20121789 0.16987637 0.086956084 -0.048418727 0.0053719627 -0.009793407 -0.08342882 0.11873543
00000000: 4e93 03bc 27ef d6bd c659 99bd 86eb 813d
00000010: 4bd3 b6bb 8b11 933d 5582 dfbd 3411 063e
00000020: 5704 903d 4210 11be bc8a b23d 0acf 36be
00000030: 4e56 1d3c b95e ebbc 5971 ad3d 5217 013e
00000040: 492b b7bd 95c0 7b3e 2e2e 413d 5891 233e
00000050: 1d54 2fbe ada7 913e 78c3 893d 0d79 663e
00000060: 241b 01be 4e4e 48be a099 88be db3e 71bd
00000070: 5052 08be c465 0abe 504a 89be a0b0 253d
00000080: 3e6c 193e ada1 50be bb0e 43be 4e00 9c3d
00000090: ab5c 5cbb b875 42be 8959 20be 9b5a 823c
000000a0: 5ae3 05bd 81ea 3bbe f932 e7bd 1aa3 e6bb
000000b0: 963c b03d c6af 5dbd be97 14be 5581 ff3c
000000c0: 999d e3bc c4a6 34bc 252b 36be ae24 f83d
000000d0: f378 283e f586 8c3e 5e98 493d 74b4 4b3d
000000e0: 539c 9e3d f8d6 55bc 4912 bf3d c7a9 a6bd
000000f0: ad2e 33bd e53b b43c 44ab f0bb c71d aa3d
00000100: 100c 4ebe 12f4 2d3e 0816 b23d b752 46bd
00000110: 4a07 b03b 8774 20bc bbdc aabd 902b f33d

rnn.bias_hh_l2 f4 [72]
-0.04791422 -0.036090426 0.05636209 -0.14277217 0.18194288 -0.09777847 0.25363126 -0.09602749
0.1452425 -0.09515719 -0.15329067 0.20550214 -0.10334628 -0.035086732 -0.17882638 0.0007954021
-0.049073894 0.16518055 -0.088892214 0.17932123 -0.09189608 0.1173765 -0.11747178 0.22221448
-0.25049448 -0.28534254 -0.026852766 -0.03649021 0.05413174 0.018948054 -0.024188897 -0.17924769
0.058792304 -0.17754428 0.0055729663 0.0054629496 -0.0154922465 -0.10255613 -0.17582648 -0.1649221
-0.25138026 -0.23260495 -0.2412157 0.13314173 -0.047319707 0.0590027 -0.26977777 -0.11750348
-0.1889769 -0.26382577 -0.1822765 -0.06623317 0.02725895 0.23945253 -0.023470586 0.0726152
0.09618956 0.12294124 -0.16745362 0.14873973 0.06850319 -0.22897577 -0.15815346 0.17904301
-0.066021845 -0.0462026 -0.019335609 0.1685863 -0.137358 0.055548042 0.18214153 -0.055032734
00000000: b341 44bd 8ed3 13bd efdb 663d de32 12be
00000010: 3c4f 3a3e 1440 c8bd f5db 813e 10aa c4bd
00000020: 73ba 143e c6e1 c2bd 3bf8 1cbe 276f 523e
00000030: 37a7 d3bd 1bb7 0fbd 431e 37be 8882 503a
00000040: b501 49bd 1725 293e 1f0d b6bd fc9f 373e
00000050: 0334 bcbd 1763 f03d 0b95 f0bd 318c 633e
00000060: d040 80be 6b18 92be 55fa dbbc c276 15bd
00000070: 3eb9 5d3d f338 9b3c cb27 c6bc b58c 37be
00000080: 33d0 703d 2bce 35be 6e9d b63b 8b02 b33b
00000090: 31d3 7dbc f308 d2bd db0b 34be 57e1 28be
000000a0: eab4 80be fe2f 6ebe 4001 77be 4e56 083e
000000b0: 4fd2 41bd d1ac 713d 5020 8abe aaa5 f0bd
000000c0: 2983 41be 2c14 87be b1a6 3abe 42a5 87bd
000000d0: 294e df3c 0b33 753e 6345 c0bc 47b7 943d
000000e0: 08ff c43d 9ec8 fb3d f678 2bbe 3a4f 183e
000000f0: 674b 8c3d a078 6abe fbf2 21be 0d57 373e
00000100: 7636 87bd f03e 3dbd b665 9ebc e3a1 2c3e
00000110: 93a7 0cbe 5886 633d 4f83 3a3e 016a 61bd

fc.weight f4 [24, 24]
-0.04883386 0.17627345 -0.022160342 0.0939688 0.24180801 -0.09406899 -0.048859224 0.2701846
0.16620669 -0.012122241 0.10994536 -0.23876664 -0.002823176 0.0860208 -0.19742832 -0.11223834
-0.004150678 -0.024089962 -0.062065557 -0.13669318 -0.07568423 0.110526145 0.24499334 0.13586302
0.13108067 0.014821367 0.22995245 -0.14949696 0.1585069 -0.22744837 -0.03566925 -0.1204056
-0.09197615 0.04249239 -0.006060308 0.022486014 -0.065407015 0.26412046 -0.12796228 0.032286167
-0.03597252 0.14949551 0.05534058 -0.063201256 0.26016092 0.16804057 0.12474865 0.15891193
-0.17915261 -0.08373591 -0.10475267 0.08872898 0.14300309 -0.0022572381 0.09006496 0.17814799
0.07905898 0.2191314 0.15655503 -0.03084773 0.13135335 -0.05774137 0.16111098 -0.06831603
-0.14252982 -0.12840576 -0.17196994 -0.008034844 -0.084313124 -0.08411667 0.05471598 -0.19525087
0.064624324 0.0028506787 -0.16152714 0.15346347 0.082711935 0.0059244535 0.24073994 -0.22760954
0.07984108 0.19876656 -0.049646888 0.006073439 0.228874 -0.012715327 -0.009144308 -0.06863682
-0.13144426 0.08954182 0.18450291 -0.10567178 -0.30072182 -0.16548601 -0.060045633 0.052913494
-0.15197614 -0.27495578 -0.032114174 0.26000252 -0.1761281 -0.007050065 0.13592707 -0.21679129
-0.16824728 0.18098013 -0.053707995 0.16527067 -0.06388459 0.023001203 0.09014979 0.11748817
0.04898083 -0.09371683 0.21415304 -0.0968315 -0.14443204 0.05048805 -0.19430476 -0.0192062
0.25532362 0.28452012 0.057399914 0.050726756 0.16310439 -0.04182326 -0.2515554 0.11937422
0.09644309 -0.1965965 -0.15298288 -0.27063823 -0.06032899 -0.014724029 0.0006793113 -0.23413827
-0.100938655 0.1868673 -0.026409516 -0.05547151 0.23361014 0.27783453 -0.0941725 0.24940784
0.27637976 0.12938179 0.24669547 -0.069084674 0.27765808 0.12631781 -0.036950883 0.086218104
0.050116368 -0.19108962 -0.1481856 -0.16423148 -0.09917241 0.09269177 -0.21212378 -0.005281885
-0.122442365 0.26062262 0.037489552 0.06660742 -0.021946643 0.02216161 0.24320658 0.10858846
0.12763353 0.14745015 0.18867685 -0.24464698 0.2163989 -0.14625274 -0.17045291 0.25015253
0.048613943 -0.23035012 -0.23036748 -0.10534029 -0.23870964 0.07971366 -0.23619017 -0.0015628586
-0.14593332 0.27748948 -0.21274382 0.06689242 0.038925838 0.09004604 0.17305496 -0.1299401
-0.23153995 -0.16782662 -0.07963768 0.06260689 0.048669796 0.08917847 0.081928805 -0.15292446
0.0050396123 -0.12613449 0.18871254 -0.05016669 0.22005658 -0.09509041 0.087805144 0.27315617
-0.046712786 -0.2897602 0.28310758 -0.07288186 -0.028629286 -0.23333527 -0.05493771 0.07414329
-0.199619 -0.28251263 -0.13133833 0.054979876 -0.024513809 -0.0024313459 0.09668072 -0.058843397
0.049054 -0.105764255 0.07003767 0.026511526 0.17139621 -0.28193074 -0.06298471 0.07417865
0.1225463 -0.22771272 0.23706159 -0.052682605 0.102937244 -0.28660268 0.01325659 -0.01369911
-0.13799866 0.007928196 -0.190357 0.1099038 -0.1121485 0.10415385 0.1090925 -0.24276192
-0.16956264 0.24240333 0.18051241 0.08094856 0.18092157 -0.19798134 -0.08723081 -0.051286343
00000000: 0306 48bd 0781 343e 9b89 b5bc b772 c03d
00000010: 859c 773e 3ea7 c0bd 9c20 48bd a355 8a3e
00000020: 1632 2a3e 5d9c 46bc 082b e13d 3e7f 74be
00000030: 0905 39bb ac2b b03d a62a 4abe 37dd e5bd
00000040: 6902 88bb 5058 c5bc 7438 7ebd 4cf9 0bbe
00000050: 5500 9bbd 885b e23d 89df 7a3e ad1f 0b3e
00000060: 033a 063e 52d5 723c a878 6b3e bb15 19be
00000070: a24f 223e 3ae8 68be eb19 12bd 3697 f6bd
00000080: fe5d bcbd 800c 2e3d 8c95 c6bb 9734 b83c
00000090: 1df4 85bd cc3a 873e 8b08 03be 803e 043d
000000a0: ec57 13bd 5a15 193e ceac 623d a96f 81bd
000000b0: d033 853e d412 2c3e 387c ff3d cfb9 223e
000000c0: c873 37be bc7d abbd 9188 d6bd 8ab7 b53d
000000d0: 676f 123e 2cee 13bb fa73 b83d 6d6c 363e
000000e0: ade9 a13d fb63 603e f64f 203e 61b4 fcbc
000000f0: 7e81 063e 3782 6cbd 47fa 243e 46e9 8bbd
00000100: 56f3 11be cd7c 03be e318 30be 94a4 03bc
00000110: 5cac acbd 5c45 acbd dd1d 603d d8ef 47be
00000120: c259 843d 74d2 3a3b 5f67 25be 8725 1d3e
00000130: e064 a93d eb21 c23b 8884 763e 7a12 69be
00000140: b883 a33d 7689 4b3e 895a 4bbd b303 c73b
00000150: f25d 6a3e f253 50bc 02d2 15bc 7691 8cbd
00000160: 5399 06be b461 b73d 55ee 3c3e 726a d8bd
00000170: 36f8 99be 2a75 29be 69f2 75bd d2bb 583d
00000180: a29f 1bbe 01c7 8cbe 278a 03bd 0d1f 853e
00000190: ed5a 34be 3b04 e7bb 7730 0b3e 89fe 5dbe
000001a0: 0449 2cbe db52 393e eafc 5bbd b73c 293e
000001b0: edd5 82bd 056d bc3c 74a0 b83d a39d f03d
000001c0: 1fa0 483d 9cee bfbd ef4a 5b3e 984f c6bd
000001d0: fee5 13be 8fcc 4e3d d4f7 46be 5256 9dbc
000001e0: c7b9 823e 9fac 913e 2c1c 6b3d dcc6 4f3d
000001f0: d604 273e de4e 2bbd dfcb 80be 797a f43d
00000200: f483 c53d 9850 49be 8ba7 1cbe 1891 8abe
00000210: 881b 77bd 0e3d 71bc cf13 323a f1c1 6fbe
00000220: edb8 cebd 245a 3f3e c558 d8bc 1836 63bd
00000230: 7f37 6f3e 5440 8e3e 83dd c0bd c564 7f3e
00000240: a681 8d3e a97c 043e bd9d 7c3e 447c 8dbd
00000250: 3329 8e3e 7559 013e cf59 17bd 1e93 b03d
00000260: d246 4d3d ffac 43be f7bd 17be 4c2c 28be
00000270: e81a cbbd 2fd5 bd3d fa36 59be aa13 adbb
00000280: 10c3 fabd 5470 853e a58e 193d 7969 883d
00000290: 72c9 b3bc 448c b53c 250b 793e a063 de3d
000002a0: 5db2 023e 2cfd 163e 8134 413e bd84 7abe
000002b0: ac97 5d3e 47c3 15be 358b 2ebe fe13 803e
000002c0: 6a1f 473d e7e0 6bbe 74e5 6bbe a6bc d7bd
000002d0: 4d70 74be ea40 a33d d6db 71be d5d8 ccba
000002e0: 8b6f 15be 1a13 8e3e 84d9 59be e5fe 883d
000002f0: b370 1f3d 0f6a b83d 5235 313e 040f 05be
00000300: cf18 6dbe beda 2bbe 1419 a3bd 0b38 803d
00000310: fb59 473d 34a3 b63d 4aca a73d 3b98 1cbe
00000320: 5523 a53b 6629 01be dc3d 413e 967b 4dbd
00000330: 8356 613e c3be c2bd 2fd3 b33d 20db 8b3e
00000340: e855 3fbd 735b 94be 7af3 903e 1643 95bd
00000350: f787 eabc 71ef 6ebe 5d06 61bd 70d8 973d
00000360: ec68 4cbe 7fa5 90be 8e7d 06be 9432 613d
00000370: 2fd1 c8bc 3757 1fbb 8b00 c63d c605 71bd
00000380: d9ec 483d ee9a d8bd e96f 8f3d b32e d93c
00000390: 7d82 2f3e 3a59 90be 21fe 80bd faea 973d
000003a0: 8ef9 fa3d 862d 69be 46c0 723e b7c9 57bd
000003b0: c3d0 d23d 96bd 92be 2b32 593c 3b72 60bc
000003c0: 854f 0dbe 44e5 013c f2ec 42be 3e15 e13d
000003d0: 1dae e5bd 9d4e d53d e36b df3d 9596 78be
000003e0: d4a1 2dbe 9438 783e 3fd8 383e 5cc8 a53d
000003f0: 8143 393e 9fbb 4abe 11a6 b2bd a111 52bd
