models/generator.pt (torch, 50128 bytes, 14 tensors)

rnn.weight_ih_l0 f4 [72, 24]
00000000: 155d b53d fdbd 78be e4e7 473e 80fc e23c
00000010: 967e 2f3e 1034 963e 275b c4bd 4336 073e
00000020: 2d4e 8b3e 3d87 ba3d 259b 693e 74e0 4ebe
00000030: c9b6 d2bd bc84 543e 38e2 883d 534d c53d
00000040: ad8d 813e ff5e 983e 8080 133e 598d 8bbe
00000050: 612f 393e 68fa 713e 7e97 ae3d 0ac4 79bc
00000060: e6e9 253e 667f 763d ba49 3abd 6487 913d
00000070: 32b8 263d cbe8 193e 7061 c03a e5b0 743d
00000080: b597 48bc fecf 8ebd ceef 023e b424 1c3d
00000090: 4d28 e1bd 6d1d 4e3e 294c 2abd b2fb c2bd
000000a0: 8000 bfbc dc8e e93c f29d afbd 6949 583e
000000b0: e0a4 adbd fb58 f03c dd26 67be 162d b5bd
000000c0: a694 fb3d 62e3 f2bc 4b39 3fbe 18f8 14be
000000d0: 1af7 023c c589 02bd 5f2c 0c3e 10f6 433d
000000e0: 66aa 1b3e 266e c03c 34ff b73d bacd 153e
000000f0: 2077 e5bd 33f8 5cbd a1d1 00be d750 2cbd
00000100: b169 203d faa7 b5bd b28c 4f3d 75cf 44bd
00000110: f2e6 25be 39e2 aebd 8b0e 80bc 8186 173e
00000120: d834 493e 3076 28be b12b e3bd 6831 a2bd
00000130: cbd7 1b3e 2db5 a63c 8ad1 aebd 768e 123c
00000140: 0bf6 ac3c 3e50 03be 6c38 843d ef24 183e
00000150: ac8b 17bd e9c6 043e 6525 36bc 6a26 ad3d
00000160: 4a0d d9bd 2598 14bd de19 bf3d 0e70 ec3c
00000170: d780 f0bd d78f c03d 05b3 923d be36 3b3e
00000180: 468e 67be 4ebc fb3d bed0 0d3e 335d 483e
00000190: 7557 753d 2c87 be3d 8645 99bd 0bbd a93d
000001a0: bd53 0e3e 1d3b 5c3e c40b 7bbc e1d0 193e
000001b0: f6b4 0ebe 2787 31be 0d87 3abe 40a9 28be
000001c0: 88ec dcbd 3f63 c63d 5428 af3c 5887 853c
000001d0: a16b 923d e403 9dbd d6c3 373e 9df4 f93c
000001e0: ea7f 2d3e 4e86 10be e4d3 6f3e 3e5f 643d
000001f0: e09d 963d 070b ddbd 0311 2bbe e812 cfbc
00000200: 459f 683d 8b40 173d c9c2 0ebe c46b 123e
00000210: d8b4 7bbd 8eb3 37bd b3fa 7dbe 1471 0c3d
00000220: d3e0 133e 55a1 063e 02b3 8cbd 4dc2 2c3e
00000230: 015a 173c 6baa b4bc adbb 0ebe a717 e13b
00000240: 5032 b6bd 8b66 82bd 4465 32be 2628 e9bd
00000250: 35bc 62bd 2669 123d e9e8 90bd 5e5d d1bc
00000260: 947f aebd 0c82 c73d ef5b 313d d9d2 5e3d
00000270: 4e04 0c3c 9a91 233d 52e1 bfbc 1be9 bdbd
00000280: 4115 bd3d 35e0 683c 3436 83bc a5e0 533e
00000290: 0292 9a3d 8911 a3bd 53fb 85bb 29fe 86bd
000002a0: eaec e1bd 09a7 283e 4e12 da3c 0efa 2a3e
000002b0: f6ab 413e 9f7b abbd b9de a93d 6abd 293e
000002c0: 90ab 253e a7a7 0bbd dc1b 323e 1902 b13e
000002d0: 883f 133d c9da 8d3e 8a23 4fbc 7843 22be
000002e0: 52b0 0e3e 0846 99bd c559 8b3d 44e4 50be
000002f0: f593 48bc e8d4 0f3e 5973 12bc 9fcc 17be
00000300: ef62 edbc eba4 573e ab67 b13e 2cf6 a23e
00000310: ea94 0e3e 60bb 7dbd 151e 733e da76 873e
00000320: 9e50 813d 2131 d43d e689 d1bc b353 263e
00000330: fd11 5a3d 14a6 ac3d 15f8 0c3e 951a 9dbe
00000340: 75de 0d3e 9586 463d d3e1 a43d f142 0cbe
00000350: 9944 78bd dc6c ff3d eac6 44bd 1543 c1bd
00000360: e328 dfbd c0eb 4c3e 9277 103e aafb c93c
00000370: 0747 f13d a2b8 243e 71ca 3d3e 8950 4bbe
00000380: a611 503e ccb7 f5bc 9118 6cbe 69a7 d33c
00000390: fbf7 f23c 75cc a6bd 800a 3b3e 17b9 ad3d
000003a0: 9995 52be c7fd d9bd 45b8 99bd 78e7 213e
000003b0: d951 cb3d dde3 90bd 80f4 b2bd 32e5 ffbd
000003c0: 669b 503d dd02 4ebd 6873 fa3c aa03 f9bc
000003d0: 88e8 6abc 8b05 18be 1a3b 62bd 687f 1f3e
000003e0: 218b 273e 3beb 0ebe 9ff2 ba3d cde8 953c
000003f0: 5884 2cbe 8820 343e 201b e03d c330 f9bc
0.088556446 -0.24291225 0.19522053 0.027708292 0.17138132 0.29336596 -0.095876984 0.13204293
0.2720808 0.09107826 0.22813089 -0.2020281 -0.1028877 0.20753759 0.06683773 0.09633889
0.25303403 0.29759976 0.14404488 -0.27256277 0.1808448 0.23630679 0.085249886 -0.015244493
0.16202506 0.06018009 -0.045480467 0.07105902 0.040703006 0.1503021 0.0014677476 0.059739012
-0.012243201 -0.06973265 0.1278679 0.03812094 -0.10994015 0.20128413 -0.04157654 -0.09520663
-0.023315668 0.028510503 -0.085750476 0.21121754 -0.08478713 0.029339304 -0.22573419 -0.0884649
0.12284212 -0.02964944 -0.186742 -0.14547765 0.007993484 -0.03186967 0.13688801 0.047842085
0.1520172 0.023490023 0.08984223 0.1462926 -0.11204362 -0.05394764 -0.12579967 -0.042069282
0.039163295 -0.088699296 0.050671287 -0.04804941 -0.1620138 -0.08539242 -0.015631935 0.14797403
0.19649065 -0.16451335 -0.11092318 -0.0791958 0.15219037 0.020350063 -0.0853606 0.008945098
0.021113416 -0.12823579 0.06456074 0.14857839 -0.036998436 0.12966503 -0.011117314 0.084545925
-0.10598238 -0.03627791 0.09331106 0.028862026 -0.11743324 0.09402435 0.071630515 0.18282601
-0.22612867 0.12291776 0.1384916 0.19566803 0.05989786 0.09303126 -0.07483964 0.0828801
0.13899131 0.21506925 -0.015322629 0.15021087 -0.13936219 -0.17336713 -0.1821558 -0.16470814
-0.10787302 0.096868984 0.021381535 0.016299888 0.07149435 -0.07666758 0.17945799 0.030512149
0.16943327 -0.14113733 0.23420674 0.055754893 0.07354331 -0.10793119 -0.16705708 -0.02527757
0.056792516 0.036926787 -0.13941492 0.14298922 -0.061451763 -0.04484897 -0.24802665 0.034287527
0.14441232 0.13147481 -0.068700805 0.16870995 0.009237767 -0.022053918 -0.1393878 0.0068692747
-0.08896315 -0.06367215 -0.17421442 -0.11384611 -0.05535527 0.03574481 -0.07075674 -0.025557216
-0.08520427 0.09741601 0.043300565 0.0544003 0.008545948 0.03993378 -0.02342287 -0.09272977
0.092325695 0.014213611 -0.016017057 0.20691164 0.0754738 -0.07962329 -0.004088798 -0.06591446
-0.11031516 0.16469969 0.026620056 0.16696951 0.18913254 -0.08373188 0.08294434 0.16576162
0.16178727 -0.034095433 0.1739344 0.34571913 0.03594926 0.27705982 -0.0126427505 -0.1584605
0.13934448 -0.074840605 0.068042316 -0.20399576 -0.012242307 0.14046061 -0.008938634 -0.1482415
-0.02897784 0.21059005 0.34649405 0.3182844 0.13923994 -0.061946273 0.23741944 0.26457864
0.06314205 0.10360933 -0.02557845 0.16242866 0.05323981 0.084301144 0.13766511 -0.30684343
0.13854392 0.04846819 0.08050885 -0.13697411 -0.060612295 0.12471935 -0.04804126 -0.09436623
-0.108964704 0.20011806 0.14108112 0.024656136 0.117811255 0.16086057 0.18534257 -0.1985494
0.20319232 -0.029994868 -0.23056246 0.025836663 0.029659262 -0.08144466 0.18265724 0.08482569
-0.2056488 -0.10644107 -0.0750585 0.15810955 0.099277206 -0.070747115 -0.08738041 -0.124948874
0.05092945 -0.0502957 0.030572608 -0.030397255 -0.014337666 -0.14845864 -0.055232145 0.15575945
0.16361667 -0.13956921 0.091283076 0.018299485 -0.1684736 0.17590535 0.10942674 -0.03041876

rnn.weight_hh_l0 f4 [72, 24]
00000000: c748 30be e38f 15be a748 ad3d fb2e a0bd
00000010: 9b7a 46bc 1be3 8f3d 89da 88bd cc9d b8bd
00000020: 4f75 153e da5b ad3d 1cf4 7bbd 9941 33be
00000030: e6e9 6f3d 4174 e73d b3f9 71be f414 463e
00000040: 71a0 fabd 2d9b 163b 6d2d 53bd 482f 663e
00000050: ab75 343e 839c cdbd 57b7 32be c597 a7ba
00000060: 95b6 bcbb 8ac7 f1bd ddac 8c3d dfa8 923e
00000070: 34de 5dbb 3a1a 75bd 5cdd e7bd 13a5 27be
00000080: fe0c e73c 07d7 673e 38c0 8b3e 6c2b 3f3e
00000090: e5c4 42be 0452 57bc ba10 bb3d 0440 9d3d
000000a0: 8c58 02be ebc2 85bd 90bb 8ebd a6de 10be
000000b0: c7cd 933d a4dc 1f3e c2ac d0bc 696a 943e
000000c0: d7d8 61be 7f44 113d 1e65 1a3d 7cd5 2c3e
000000d0: 01ae a03d 8dcb 87be a5cf 4f3e 3964 95be
000000e0: e975 a83d d70a 843e eb45 0e3e 7e40 31be
000000f0: ee67 7cbe cfb1 88be 9da9 013c 6904 433e
00000100: a9a3 1dbe b336 c6be ca50 2b3e 357e 473e
00000110: b152 f33d f20f 8cbe 4d62 a1bd b4c7 183d
00000120: 6b08 0cbb 0a31 b73d a201 b53d bf5c 993e
00000130: 7154 a33d a2ba 4abc 0723 5a3e bb47 06be
00000140: 37a3 41bd ab67 ac3e 002a 503d 92fc 6dbe
00000150: 40b1 1e3d cbcc 69be 57ac 0e3e 08e4 073d
00000160: 96c8 093e 4228 c2be 83ab 4dbc 4c95 a63e
00000170: 0df5 1e3d 3692 46be f7ba 26be dccc 5b3e
00000180: e993 ab3d 4cae df3d 42e3 c03d 4fbd 9c3e
00000190: 3bca 793d bf4f 043e 2d54 893c 4206 a53e
000001a0: cb95 683d ee79 60be f1be 0b3d fe18 043e
000001b0: dca6 e73d 35f7 9d3d f901 40bd fd55 d7bd
000001c0: fe31 c73e ac45 a33d 2f55 da3d 2053 6cbe
000001d0: 6fd6 e53d def2 d0bd c974 673d ebe7 5a3e
000001e0: 60af e03a 56a0 4d3d 631f f13d b401 713e
000001f0: 1e91 113e bb35 09be 61cf 20be 7dcd 273e
00000200: 119a 6cbd 4c6b 033d ecb1 bfbd e5eb 753d
00000210: ff1b 9cbd e4d6 19be 2f05 d8bd 827b abbb
00000220: 72ef 333e 6136 0d3d c6c9 05be fdd7 4bbe
00000230: 61b4 5c3d 399c 94bd edd5 183e 2916 fd3d
00000240: 8b06 23be 80c6 39be 647b 42be 5fdb 503d
00000250: c908 2e3e f0aa 15bd 6bb4 afbe c445 873e
00000260: 91c6 5c39 b882 6abe 78b3 933d 0ca4 33be
00000270: 71d8 ba3a b1ef 0ebe 4f86 17be 262f 063d
00000280: df62 a73e e192 1fbe 70af a93d 4728 d13d
00000290: a26e 5d3e 7bbb 923c 5952 143d 3f6f 773e
000002a0: 7dfa b53c 6691 7abe 8ab9 9dbd 45ff f9bd
000002b0: f84f 4ebe b65b 013d 9e6a 333d f160 343d
000002c0: 5439 2e3d 6b67 eebd 9a66 1cbe ebf9 143c
000002d0: 2783 8f3c 7d0f 21be cd6d 453e c603 82bd
000002e0: 885f 0dbe 91f2 543e b431 dd3b 56e4 113d
000002f0: 4a47 85bd a78f 8abd 112f 463e addc 033e
00000300: 9ba8 36be 2c68 4ebe 3c17 1abe 5b0b 8fbd
00000310: 888c 533e b8e9 4bbd bff7 2b3d 124b babd
00000320: 8f00 a73e e1ef 0ebe 83fb 103e f3d8 983d
00000330: e1e2 1d3d ab82 863c b685 65bd 04e8 903d
00000340: 20b1 9cbd 3bdd 403d 0d78 753e e879 40bc
00000350: 1335 513e 7de3 b4bd 433f 63be c166 ae3d
00000360: 264c 203e 83b9 e8bd 59dd 483d f143 5f3e
00000370: 1204 023e f1e0 5c3e f248 763e 1749 6a3e
00000380: 5610 2d3e 4ac4 123e e84e 123d 1dea 4abe
00000390: 2c6b ca3d 4830 deba 01fb 3b3e 55bd 4e3d
000003a0: b865 eabd b2e9 96bc 831a 0e3e e459 0a3d
000003b0: b690 b93d f484 9b3c 8e4a 633d 2740 a63d
000003c0: 2060 a9be 7da8 8e3e 4332 143e 9781 b43d
000003d0: 6464 74be 4a9e 25be 350e 4c3e 3938 87be
000003e0: 4c60 96be 211c a33e dbfc 7e3e 9292 81be
000003f0: 052d b8bc 2989 eebd 739c 433d c48c b73b
-0.17215262 -0.1460567 0.08461123 -0.07821461 -0.012114192 0.07025739 -0.06682307 -0.09014472
0.14595531 0.08464785 -0.061512098 -0.17505492 0.058572672 0.113014705 -0.23630409 0.1934393
-0.12237633 0.0022980676 -0.051556993 0.22478974 0.17623012 -0.10039618 -0.17452751 -0.001278632
-0.00575907 -0.11805637 0.068689086 0.28644463 -0.0033854367 -0.059839465 -0.11321518 -0.16371565
0.028204437 0.2264062 0.2729509 0.18668908 -0.19020422 -0.013142113 0.0913405 0.07678226
-0.1272909 -0.06531318 -0.069693685 -0.14147434 0.07216983 0.15611511 -0.025473002 0.28987435
-0.22055374 0.035465714 0.03769409 0.16878313 0.078456886 -0.26522484 0.20294054 -0.29178026
0.082256146 0.2578952 0.13893859 -0.17309758 -0.24649021 -0.26698157 0.007913974 0.19044651
-0.15394463 -0.38713607 0.16730037 0.19481738 0.118810065 -0.27355915 -0.078800775 0.037299827
-0.0021367322 0.089449 0.08838202 0.29953572 0.0797509 -0.012373598 0.21302424 -0.131133
-0.047274794 0.33672842 0.050821304 -0.23240879 0.038743258 -0.22832029 0.1393293 0.033176452
0.13455424 -0.3792134 -0.012553099 0.3253578 0.038807917 -0.19391713 -0.16282259 0.21464866
0.08377821 0.10921916 0.09418346 0.3061318 0.060983878 0.12921046 0.016763771 0.32231337
0.05678348 -0.21921512 0.034117643 0.12900159 0.11311123 0.077131666 -0.04687688 -0.10514448
0.3890533 0.07972273 0.10660779 -0.23078585 0.112225406 -0.10202573 0.05650786 0.21377532
0.001714211 0.050201736 0.11773565 0.23535806 0.14215514 -0.13399403 -0.15704109 0.16386981
-0.057764117 0.03208475 -0.09360108 0.06003942 -0.07622527 -0.1502338 -0.10547864 -0.005233229
0.1757181 0.034475688 -0.13065252 -0.19906612 0.05388296 -0.072563596 0.14925356 0.12357742
-0.15920465 -0.18142128 -0.18992382 0.05099046 0.16995539 -0.03653997 -0.34317335 0.26420414
0.00021054807 -0.22901428 0.07211965 -0.17543048 0.0014255178 -0.13958623 -0.14797328 0.032759808
0.3269262 -0.15583374 0.08285415 0.102127604 0.21624234 0.017911663 0.036211345 0.24163531
0.022214169 -0.24469528 -0.077014044 -0.12206892 -0.20147693 0.031581603 0.04380285 0.044037763
0.04253514 -0.11640819 -0.15273514 0.009092788 0.017518593 -0.15728565 0.19280167 -0.06348376
-0.13805974 0.20795657 0.00675031 0.03561815 -0.06507738 -0.06765681 0.19353892 0.1287715
-0.17837755 -0.20156926 -0.15047926 -0.06984588 0.20659077 -0.04978344 0.041984316 -0.0909635
0.32617614 -0.13958694 0.14158444 0.07463255 0.038546447 0.01641973 -0.05603572 0.070755035
-0.076509714 0.04708598 0.23971577 -0.011747815 0.20430402 -0.088324524 -0.22192101 0.085156925
0.15654048 -0.113635086 0.04903922 0.21803261 0.12696865 0.21570183 0.24051264 0.22879444
0.16900763 0.14332691 0.035719782 -0.1981587 0.09883723 -0.0016951645 0.18357469 0.05047353
-0.114451826 -0.018421981 0.13877301 0.033777133 0.090608045 0.018984295 0.055491023 0.08117705
-0.3308115 0.2786292 0.14472298 0.0881378 -0.23866421 -0.16173664 0.19927295 -0.26410082
-0.29370344 0.31857398 0.24901144 -0.25307137 -0.022482404 -0.11647255 0.047756623 0.0056014974

rnn.bias_ih_l0 f4 [72]
00000000: 4a15 6f3d e36c 063e 1e55 d7bd 4c91 6fbd
00000010: 1981 cb3d b9db 723e d5c2 673e 3ac7 dabc
00000020: 0a61 ee3d 3023 6d3d e666 0ebe 8946 e33d
00000030: 04b4 f03d 62f7 a33d 41b5 353e 5bcf 5c3e
00000040: a849 bbbb d6c0 74be aa8b a6bd 266c 1c3e
00000050: 6257 1a3e ecee 833e 6c52 203e 9ad2 0a3e
00000060: 0a38 3b3e b7f4 ecbd e46f 3d3e 6996 6d3e
00000070: d768 ad3e fd3d 1abd 8ef9 913e f305 3ebd
00000080: b1fc ef3d 61e5 e73c 3204 9d3d e228 c83d
00000090: b582 0abd ec5e 3bbd 77d2 d23e 3ea3 b03d
000000a0: 41c2 263e bc1e 523e defb 9c3d e66f 523e
000000b0: c0b8 bdbd 4c95 7a3d 1e59 4d3e b59a 8c3e
000000c0: d96e a1bc fa19 9e3d 130d d53d 966a 9a3e
000000d0: e269 023e 51c3 1abe 05b2 4ebe 594b 763e
000000e0: 0778 463e 4572 f1bc 1c01 873e 5624 01be
000000f0: 7cb4 c7bc 84c8 c83d 426a 77be 1928 1b3e
00000100: f7b9 993e 9c03 923d f1ee 87bd 9b1e 84be
00000110: 1c74 fd3d 050c 24bc c926 98bd 5897 30bd
0.058369912 0.13127474 -0.10514282 -0.058488175 0.09936733 0.2371663 0.22632916 -0.026706327
0.116396025 0.057894886 -0.1390644 0.11097438 0.11753085 0.08006169 0.17744924 0.21563475
-0.0057155676 -0.23901686 -0.081321076 0.1527563 0.15072396 0.2576822 0.15656441 0.135569
0.18283096 -0.11570113 0.18499714 0.23201908 0.3386905 -0.037656773 0.28510708 -0.046392392
0.11718119 0.028307619 0.07666816 0.09773423 -0.03381606 -0.04574482 0.41176197 0.08624886
0.1628504 0.20519537 0.07665227 0.20550498 -0.09263754 0.061177537 0.20053527 0.27461782
-0.019706177 0.077197984 0.10402884 0.30159444 0.12735704 -0.1511357 -0.20185097 0.2405218
0.19381724 -0.029473433 0.26368034 -0.12611517 -0.024378054 0.0980387 -0.24161628 0.15152015
0.30024692 0.07129595 -0.06637371 -0.258046 0.12375662 -0.010012631 -0.07429273 -0.043113083

rnn.bias_hh_l0 f4 [72]
00000000: 328e f5bc 6ab2 1c3e 53d7 373e f93d f2bd
00000010: fa1f 933e bff6 bc3d 0ec4 023e f9d4 9a3d
00000020: d271 f63d 584d 6f3e 5f5d 4d3d b23f 0b3e
00000030: 8591 50bc 34b9 0c3e 5551 6e3e 4fd9 4dbc
00000040: aba0 803e 84e2 97be 0ed5 ddbd 4a3a 49be
00000050: 76f6 2abe 4d70 26bd 4781 4e3e 157c 023d
00000060: d378 153e 0175 c03c 6022 9dbd 6e64 3a3c
00000070: 8c71 6e3e 24be 83be 1915 563e ff36 433e
00000080: 4e08 1f3d 8eb7 d83d fbbf b03c fc96 d83d
00000090: 2851 003e e186 3c3e 5abf ad3e 644e 4d3e
000000a0: df9f 0d3e e221 7a3e c42a fbbd cf86 843d
000000b0: 1fe1 40be 6428 833e 1a8f da3d 0173 873e
000000c0: e303 013e 128d 0dbe 5176 62be 29ee 393e
000000d0: 4af9 173e b87b dc3d b789 9bbd ad79 81bd
000000e0: a17f 4b3c eb52 8f3d 74d9 5d3e 9c22 91bc
000000f0: 2e97 04be 8cdc 1bbe 1309 c5bd cda0 36be
00000100: afdf 0a3e a6e3 cebc 9c67 e23d 622f a53c
00000110: d12d 573e 92b2 073e 64f4 ba3d 0409 133e
-0.02997503 0.15302435 0.17953233 -0.118282266 0.28735334 0.092267506 0.12770101 0.075601526
0.12033428 0.23369348 0.050137874 0.13598517 -0.012730007 0.13742524 0.23273213 -0.012564017
0.2512258 -0.29665005 -0.108316526 -0.19651142 -0.1669558 -0.040634442 0.20166503 0.031856615
0.14596872 0.023493292 -0.07672572 0.011376483 0.23285502 -0.25731003 0.20906486 0.19063948
0.03882628 0.10581885 0.021575918 0.10575673 0.12530959 0.18410827 0.33935052 0.20049435
0.13830517 0.24426988 -0.12264016 0.06471025 -0.18835877 0.25616753 0.10671826 0.2645493
0.12599139 -0.13823345 -0.22115447 0.18157257 0.1484119 0.10765785 -0.075946264 -0.06322036
0.012420566 0.06998237 0.21664983 -0.017716698 -0.12948295 -0.1522085 -0.096208714 -0.17834778
0.13561891 -0.025255036 0.11054918 0.020164195 0.21013571 0.13251713 0.09128645 0.14358908

rnn.weight_ih_l1 f4 [72, 24]
00000000: a907 a73d 5d2f 1abd f2a8 96be 2626 173d
00000010: 6600 3e3e f74c 0b3e 356d 71bd dd8d 8aba
00000020: 61e2 00be 4e9f 0bbb 3f99 503e e0c1 6d3c
00000030: a0af a3bd 05a7 a83d 6505 b5bd f2f4 1e3d
00000040: fbcc c2bb 5b2d 3bbe 8026 c03d 5794 7c3d
00000050: db3d 1a3e f925 953b 568c e9bd 6b6a 2b3e
00000060: f06e 27be dc1f cdbc 8182 1ebe 5a52 ed3d
00000070: 8047 233d 24a5 83bd 343f 2a3e 5bbe d5bd
00000080: 2b2a dc3d 3b2d b5bd 4fd7 763e 6a4e dfbd
00000090: b683 9a3d eb5f 243d 22c9 96bd c021 1b3e
000000a0: 57ef 873d 8d50 01bc 953c 303e cc4e 5c3e
000000b0: 8e05 c1bd 2c9e 97be 43f9 debd 2a34 eb3d
000000c0: 8f6d 183e 6090 1d3e 58ce b93c 40b4 183e
000000d0: 71be a5bd 8522 04be 00f6 3bbe 9a01 5bbd
000000e0: 8609 503c cfe3 3f3e 6b9f 653e 6ea3 c3bd
000000f0: 66f6 373e 6f2d 033d 5741 3d3d c69c 47bc
00000100: c62d d73d bafa 333d bdd3 02be f000 993c
00000110: 5abf ccbc f7c0 e2bd b136 623d 1c23 f8bc
00000120: 8255 183d 3544 debd 5e42 4ebe 8118 933e
00000130: b381 cebc b20e 6abd 7478 ddbd 51fb 9e3d
00000140: edf2 02be bf47 2abe 1114 4a3d d006 62ba
00000150: 84a2 28be a612 07be 6586 ddbd 7f9b 713e
00000160: 0215 0fbd 9cb5 e33c a04a 7c3d 23f3 f2bd
00000170: 32d8 123e f838 173e a7f7 b5bd 7f97 84bd
00000180: bcd1 7ebd 6d42 60bd f648 10bc de89 783d
00000190: 9093 10be 92c1 6ebd 3284 1e3e 51d6 ebbc
000001a0: 6401 133e 60c0 92bd 689d 2fbd 68f7 5ebe
000001b0: c735 263e abbb c13c d457 583e 5cad e03d
000001c0: b6fb 53bd d6ed dcbd d69a ddbd 4b1b 8c3e
000001d0: 37df 9fbc 9f03 6e3d d7e9 0cbe b561 1bbd
000001e0: 87ad 19be f0eb a93d bec3 e63d 9a10 893d
000001f0: 44c9 363c 8f1e 7bbe 2014 fdba 0b0a 85be
00000200: b1ca 59be 6cce 013e f2e3 6dbb f1a2 b83b
00000210: 6361 e03d f108 02be ca67 663e 019c 2b3e
00000220: ca7e 083d 258a 74bd 145b 4cbb 9815 313e
00000230: 2d09 133e 4531 a7be b5ed 46be 596f 1f3e
00000240: b1dd 4bbe acca 013e 0cff 76be 7562 303c
00000250: 282c 143e c794 58be 2e10 85bc 859c f93d
00000260: b977 213e d9c1 64bd 9da3 df3d d6ff 42be
00000270: be03 16be 7872 923d b55f 38be 9813 623e
00000280: 1db9 843d 5288 023e 2a47 a6bd d691 42be
00000290: 9fe9 87bd b960 c13a 8a93 34be 8725 323e
000002a0: 5b34 37bc 6bc2 84bd 6605 31bd f74d 063e
000002b0: c393 a0bd a3b3 19bd b92c acbd 8737 11bd
000002c0: 0ce0 343d 13d7 03be e5e2 42bd 40b6 14bd
000002d0: 16b5 5a3d 7e0b 8bbb 8379 383d f2fd f0bd
000002e0: f3e4 0ebe 5881 f9bd b4b9 723e e2ab c7bc
000002f0: 6526 1abd 3ea2 f73d 0b9a 05bd 8214 713e
00000300: 0474 ab3d ebd5 113c 04d2 f73d cc17 133d
00000310: 53bf 75be 2841 30bd cb7f 893e 3e43 043e
00000320: 104c ab3b ed30 b2bd b370 a73d 034f e23d
00000330: 30f2 173e cf17 09be d9a3 8e3e c8a9 0ebb
00000340: 85c6 90be fa5d a03d 5c24 87bd 599f 3a3e
00000350: cce1 6ebe de4d a0bd 5091 77be b3aa 4fbe
00000360: 751b 853e 4e77 89be 506e 873e 41d6 933d
00000370: a5d6 eabe ea9b 433e 34dc b93e d2a8 02be
00000380: a908 8dbe ad42 8a3c f208 3fbe a70a 71bd
00000390: efc7 0cbd e1cf 2e3e bb22 9b3e 39d0 78be
000003a0: 2685 febd c225 3c3d 4991 853d 425b f03b
000003b0: 6d20 c53d 73b9 773e fff0 99bd 0090 b83d
000003c0: ae34 21be 0ec4 643d 593e e63d 8ef3 643e
000003d0: dd82 bcbc be18 f03c 16ff b53c 945f 4bbd
000003e0: 274b 363e 8153 56bd a074 fcbb 54fc 9abe
000003f0: 758f 85be b0f2 c13c 2a36 46be 7503 bcbd
0.08155758 -0.037642825 -0.2942577 0.036901616 0.1855484 0.13603579 -0.05894204 -0.0010570843
-0.12586357 -0.002130467 0.20370959 0.014511555 -0.07992482 0.082349814 -0.088389196 0.038807817
-0.0059448457 -0.1827902 0.09382343 0.061664905 0.15062658 0.004551646 -0.1140372 0.16739814
-0.16350913 -0.025039606 -0.15479471 0.11587973 0.03986311 -0.064279824 0.16625673 -0.10436698
0.107502304 -0.08846518 0.24105571 -0.10903628 0.07544653 0.040130537 -0.07362582 0.15149593
0.06637447 -0.00789274 0.1721061 0.21514434 -0.094248876 -0.29612863 -0.10887387 0.11484559
0.14885543 0.15387106 0.0226814 0.1491251 -0.080929644 -0.12903793 -0.1835556 -0.053468324
0.012697583 0.18739246 0.22424094 -0.09552656 0.17965087 0.03202575 0.04620489 -0.012183374
0.105067775 0.043940283 -0.12776084 0.018677205 -0.024993587 -0.110719614 0.05522794 -0.030290179
0.03719092 -0.10852853 -0.20142505 0.28729632 -0.02520833 -0.05714292 -0.1081399 0.077627786
-0.12787981 -0.16628931 0.049335543 -0.0008622231 -0.16468245 -0.13190708 -0.10816649 0.23594473
-0.034932144 0.027796559 0.061594605 -0.11862781 0.14340284 0.14767826 -0.088851266 -0.06474208
-0.062211737 -0.05475085 -0.008806458 0.060678355 -0.1411879 -0.05829007 0.15480116 -0.028788717
0.14355999 -0.07165599 -0.042874724 -0.21774065 0.16231452 0.023649057 0.21127254 0.10970566
-0.051753722 -0.10787551 -0.10820548 0.27364573 -0.019515617 0.058108922 -0.13761078 -0.037934978
-0.15007602 0.08296955 0.112678036 0.066926196 0.011156384 -0.24523376 -0.0019308366 -0.25984225
-0.21268727 0.126764 -0.0036299196 0.0056346585 0.10956075 -0.12698723 0.2250053 0.1675873
0.03332404 -0.059702057 -0.0031182216 0.17293394 0.14358969 -0.32654777 -0.19426616 0.1556982
-0.19908787 0.1267497 -0.2412073 0.0107656615 0.1446997 -0.21150504 -0.016243067 0.12188057
0.15768327 -0.05584893 0.10919879 -0.19042906 -0.14649865 0.071507394 -0.1800526 0.22077787
0.0648062 0.12747315 -0.08119042 -0.19000944 -0.066363566 0.0014753557 -0.17634407 0.17397128
-0.011181916 -0.06482395 -0.04321804 0.13115679 -0.07840683 -0.03752483 -0.08406968 -0.035453346
0.04415898 -0.12875013 -0.047579665 -0.03630662 0.053395353 -0.0042433133 0.045037758 -0.11767186
-0.13954525 -0.121828735 0.23703653 -0.024373952 -0.037634272 0.12091492 -0.03261761 0.2354298
0.083717376 0.0089011 0.12100604 0.035911366 -0.23998766 -0.043030888 0.2685531 0.12916276
0.005227573 -0.08700738 0.081757925 0.110502265 0.14838481 -0.13387989 0.2785938 -0.0021768678
-0.28276458 0.078304246 -0.06598732 0.18224849 -0.23328322 -0.07827352 -0.24176526 -0.2027996
0.2599751 -0.26848835 0.2645135 0.072186 -0.45866886 0.19102445 0.36300814 -0.12759712
-0.2754567 0.016877497 -0.18655756 -0.05884805 -0.03437036 0.17071487 0.30299935 -0.2429818
-0.1242774 0.045934446 0.065218516 0.0073350975 0.09625325 0.24191837 -0.075166695 0.09011841
-0.15742752 0.055851035 0.112423606 0.22358534 -0.02301162 0.029308673 0.022216361 -0.049651697
0.17802106 -0.05232573 -0.0077043325 -0.30270636 -0.26086012 0.023675293 -0.193566 -0.09180347

rnn.weight_hh_l1 f4 [72, 24]
00000000: 0e62 18bd 3cb7 bb3d 05fb b8bd 3b75 afbc
00000010: 8f6c 9e3e a391 94be 6a80 fd3c 3ae6 38be
00000020: 92d0 1b3e 9508 abbe 2229 1d3c b8ea 0f3e
00000030: cb2d 0e3e 6045 a5be b0c6 9ebd ab5d e53d
00000040: f4a4 7c3e 1879 673d 6bc0 bd3d ae95 213e
00000050: 466d 2bbd dac2 743e 18ea 0abe 248b 37be
00000060: deee 13be b9cc 6cbd 2f3c 963d 7050 a43e
00000070: 64f8 2d3e e877 d9bd c7ee dbbc af05 173e
00000080: 83fe aa3d e8a8 5fbd 1d5e 7ebe b321 c9bc
00000090: cd0f 2dbe cfb1 0bbe d8c2 1abd 8caf e8bd
000000a0: 18ad 843e 122c 9abd 5f02 653a 9d2a fb3d
000000b0: b2ea 00be 3f1b 823d bdc2 f4bd 1f75 38be
000000c0: f8af 043e 96cf f13d c904 dd3d cf5e cebe
000000d0: 8643 a03e f73e 9e3d da81 d43a f91e 423c
000000e0: 8680 bbbd 064b ddbd 5109 93be ad1d 763e
000000f0: c304 1bbd 2d0f 88be c858 383d 4bc2 9ebd
00000100: 123a 3b3d 3a49 41be 0f39 293e 14e6 51be
00000110: 78d6 97bd b74f 943e 3a17 ec3d 6917 873d
00000120: 4971 873e 3487 333e 7419 afbe a866 3e3d
00000130: 6fc8 63bd 622c 36be e503 35bc 1ae7 4d3e
00000140: ea46 b43d b77b 053e 30fa 003d 8b84 0e3e
00000150: 9cef b63d 644f e2bc 20c9 a43d 151c 603e
00000160: 3f1d 9d3e a602 363c f2c1 aabd 3791 a13a
00000170: 3c9e dc3d ff76 07be 8784 0fbe 244e acbe
00000180: d404 22be d1e1 64be 53e4 12be 6235 a73d
00000190: 1383 4bbe edf2 233e c6b7 e2bd 46bf 0d3e
000001a0: 80d5 1f3e cb0b 383e f5a3 6a3d 95f6 383d
000001b0: a9d2 1dbe 5e01 4e3e 45d7 cb3d 556d 0a3d
000001c0: d6cc 0a3e 08ea 2ebe a530 b43d 6877 3e3e
000001d0: 3d3e 88bd c78d 873b 6e6c e23c 6d6b f4bc
000001e0: f14c d2bd a397 90be f8e3 07bd 40ca df3d
000001f0: a9f4 ca3b ee2d bbbd e8ea 953e 55f6 6b3e
00000200: 93fb ee3d 781a 1abe fa8f 1a3e 41d3 b03d
00000210: 724c e2bd d955 683b 3d60 b3bd 82e9 103e
00000220: 901f f23d c62e 7dbe 7702 5f3c 534f cabd
00000230: 3c8b 8cbe 51a5 f1bc f4cc efbc 7df9 bebd
00000240: b3fe 7a3e df16 903e 27bd 18be b3a0 333d
00000250: 3ec3 5a3e 7090 5fbe 9245 8bbd 6f39 a63d
00000260: eaae e7bb b42c 72be ac9c 943e 33ab 813e
00000270: 4a92 6a3e bc0f 9abd 4491 c9bb 9291 863e
00000280: 0f10 49bd 3dcc 623d 01a1 893d 12f4 20be
00000290: a3fb 0c3e 9361 9fbe 878e 273d 1902 1cbe
000002a0: f2bd 523e 8bbe fb3d 3b9b 45bd f38d 4f3e
000002b0: fcd3 133d a6a7 5abe 9817 193e da51 4cbd
000002c0: 5f7c 48be bc45 28be 7a0f b13d 53b5 573e
000002d0: 8280 183d 77cd 92be 390a 08be e4ad e13d
000002e0: fb83 443e a779 27be c8bb 0dbc eca3 0f3e
000002f0: 594f 2cbe dbdb 273e 5eaf 113e 1e52 1abe
00000300: 9917 07be 07f9 24be d46b 4f3e 7fed 9a3d
00000310: 83c0 a5be 1dbf ce3d 2c6f 893c ed36 7a3e
00000320: 7d3b a9be eaaf 093e e458 7dbe a9c6 77be
00000330: ddd5 9abe f6ec 533d d48a 7dbe 0507 533e
00000340: 727b cfbd fd73 8dbe 6c53 7e3e 2955 873d
00000350: 46e4 5cbe 4aa1 713c ccc9 debd 882b 1a3e
00000360: 7ea5 5e3d 6300 6ebe 72d8 1b3e 69ec 813e
00000370: fda8 03be b9b8 a83e 2edf bb3d 949d b43e
00000380: 321c 05be 98b2 043e 7cf8 52be 11b3 bb3d
00000390: 1478 f3be 98bd e33c ee9e f2bd efa6 a5bd
000003a0: b250 f03d 6a27 e8be 193f f83e 5c54 ccbc
000003b0: e578 5c3e 4e60 1fbe 2668 b1bd f0d1 0e3d
000003c0: 9afe bf3c 42a7 c3bc d6d2 c9bd dade 51be
000003d0: 57d5 213e e348 e3bc 54f2 713e 4a8a 8f3c
000003e0: 8f11 23bd 8524 5ebe 7ade 723d 2d14 223e
000003f0: 4087 babd bb8c 7cbe 4a80 ba3d da50 623d
-0.037202887 0.091658086 -0.09032253 -0.021418205 0.309422 -0.29017362 0.030945022 -0.18056574
0.15216282 -0.33404985 0.009592326 0.14054382 0.13884656 -0.3227949 -0.077527404 0.11199506
0.246723 0.05651197 0.092652164 0.15779755 -0.04185226 0.23902455 -0.13565862 -0.17924172
-0.1444659 -0.057812426 0.07335698 0.3209262 0.16989285 -0.106185734 -0.026847256 0.14748262
0.083493255 -0.05460444 -0.24840589 -0.024552202 -0.16900559 -0.13642047 -0.037783474 -0.11361608
0.2591331 -0.07527937 0.000873601 0.12263987 -0.12589529 0.06352853 -0.11951206 -0.18013428
0.12957752 0.11807172 0.10791928 -0.40306708 0.31301516 0.07726853 0.0016213015 0.011848205
-0.09155373 -0.10805325 -0.28718045 0.24034758 -0.037846338 -0.26574078 0.045006543 -0.07751902
0.045709677 -0.1887559 0.16525672 -0.20497924 -0.074139535 0.28967068 0.115278676 0.06596262
0.26453617 0.17532045 -0.34199107 0.04648462 -0.05561107 -0.17790368 -0.011048292 0.2010769
0.08802588 0.13035475 0.031488597 0.13917749 0.089324206 -0.027625747 0.08046174 0.21885712
0.30686375 0.01110903 -0.083377734 0.0012326603 0.10772368 -0.13228987 -0.14015399 -0.33653367
-0.15822154 -0.22351767 -0.14344911 0.08164479 -0.1987422 0.16010638 -0.11070208 0.13842496
0.15608788 0.17973249 0.057285268 0.045157034 -0.15412392 0.20117709 0.09953169 0.033795673
0.13554701 -0.17081463 0.08798341 0.18600237 -0.06652496 0.004136774 0.027639594 -0.02983638
-0.10268582 -0.2824069 -0.033176392 0.10927248 0.0061937165 -0.0913962 0.29280782 0.23043187
0.11669078 -0.1504916 0.15093985 0.086340435 -0.11049737 0.003545156 -0.0875859 0.14151576
0.11822426 -0.24724874 0.0136114275 -0.09878411 -0.27449977 -0.029497774 -0.029272534 -0.0932493
0.24511223 0.2814245 -0.14915906 0.043854427 0.21363541 -0.21832442 -0.06800379 0.08116423
-0.007070412 -0.23649865 0.2902578 0.25325927 0.22907367 -0.07522532 -0.00615135 0.26282936
-0.04908758 0.055370558 0.06720162 -0.15718105 0.13767867 -0.3112913 0.04090741 -0.15235175
0.20580271 0.122922026 -0.048243742 0.20268993 0.036090836 -0.21353015 0.14950407 -0.049882747
-0.19578694 -0.16432852 0.0864553 0.21065263 0.03723193 -0.28672382 -0.1328515 0.11019495
0.19190972 -0.16355 -0.008650728 0.14027375 -0.16827144 0.16392462 0.14227054 -0.15070388
-0.13192596 -0.16110621 0.20255977 0.0756483 -0.32373437 0.10095046 0.016776644 0.24435015
-0.33053198 0.13446012 -0.2474094 -0.24196877 -0.3024129 0.051739655 -0.2475999 0.20608146
-0.10130967 -0.27627555 0.2483651 0.0660804 -0.21571454 0.014747927 -0.108783334 0.15055668
0.054357044 -0.23242335 0.15219286 0.2537568 -0.12857433 0.32953432 0.091734275 0.35276473
-0.12999037 0.12958753 -0.20602602 0.091650136 -0.4755255 0.027800366 -0.1184672 -0.08088481
0.117341414 -0.4534257 0.4848564 -0.02494257 0.21530493 -0.15564081 -0.08662443 0.03486818
0.023436833 -0.023883466 -0.09854667 -0.20495167 0.15804039 -0.027744716 0.23627597 0.017521996
-0.039811667 -0.21693619 0.0592942 0.15828009 -0.09107828 -0.2466306 0.091065004 0.055252887

rnn.bias_ih_l1 f4 [72]
00000000: 2fd4 4abd e56f ec3c e007 67bb 6d86 743e
00000010: 23b8 32be ee8a 0e3e 111e 9abd 5f01 af3d
00000020: 8620 0dbe 3b66 293d ab33 293b 46a6 7a3e
00000030: 0bd8 e0bd 7148 823d 4b0e 88bd 4340 5f3e
00000040: 81c8 8c3e 9856 c4bd ac57 f3bb 6afb 053e
00000050: 406e acbd 68bb e3bd e9f2 29be 9c09 9c3d
00000060: c37b 4dbd 4e8e 9cbc ab99 6dbe c76b 753e
00000070: 36ce a63c f223 e3bb d517 5fbd f968 123e
00000080: 5cde 5f3e 712b cb3e 000e 9d3d 99fc d83d
00000090: fd76 8abd 344a 7fbe c237 873e 8e21 bc3c
000000a0: edd3 5d3e 15c3 133d 895a 44be 8bd3 b23e
000000b0: e7b5 c33d 98e4 263d 2d55 553e dd7d 813e
000000c0: 685c 663e a705 fc3d 4fa5 0dbe 2e38 aabd
000000d0: cc5f 283e b998 61be 556b 9b3d 7f0d 4abe
000000e0: 5fd6 173e 93c7 c1bd fd0f 4dbd 0b2c 6f3e
000000f0: 5492 abbd 0c9c 8abe 29f1 55bc db50 d2bc
00000100: 8efc 14bc 6f6a ddbd f33b 7a3d 254c 95bc
00000110: a529 883d 8534 11be 2023 313e 1475 d13b
-0.04951876 0.02886195 -0.0035252497 0.23879404 -0.17453055 0.13920185 -0.07525266 0.085451834
-0.13781938 0.04135726 0.002581815 0.24477491 -0.10978707 0.06361473 -0.06643351 0.21801858
0.27496722 -0.09586829 -0.007426223 0.13084188 -0.08419466 -0.11119729 -0.16596569 0.0761902
-0.050166856 -0.019110825 -0.23203151 0.23966895 0.020362 -0.0069317752 -0.054466087 0.14297856
0.21862167 0.3968158 0.07668686 0.10595054 -0.067609765 -0.2493065 0.26409727 0.022965219
0.21662875 0.036074717 -0.19175161 0.3492702 0.095561795 0.040745348 0.20833273 0.2529134
0.22496188 0.123057656 -0.13832591 -0.08311497 0.16442794 -0.22030915 0.07588831 -0.19731711
0.1482787 -0.09461894 -0.050064076 0.23356645 -0.08377519 -0.2707218 -0.013057985 -0.02567332
-0.009093417 -0.10811316 0.06109233 -0.018224785 0.06648568 -0.14180191 0.17298555 0.0063921306

rnn.bias_hh_l1 f4 [72]
00000000: fda0 1d3d 3e7f 39bd 198a 0a3e 013d cfbd
00000010: 009d 643d bfc7 b23d 127d 17be cd02 093d
00000020: 0438 c2bd 83cc 8cbd a2f4 f23d 06d2 953e
00000030: e383 39bb 86ed 96b9 25e6 9fbd 29c6 203e
00000040: bbff e83d d122 473e 67e0 873e 8704 0b3c
00000050: f9f9 49be f577 533d c3fa 14bd 9b37 d0bd
00000060: 06d7 4a3c d575 783e f304 90be 86f2 a9bd
00000070: 9586 a93e bbe2 11bc 4882 57be 265f 863e
00000080: 7d6b 6c3e 77c5 893e a2fd 9ebd 9c7e d1bd
00000090: 5821 4abe c6ca b7be cd48 8f3e 831f 3a3e
000000a0: 7038 583d 1013 1f3e 4096 d3bd d8ac 353e
000000b0: 6ae0 8d3e 29a0 873e c385 a23e d5e7 af3e
000000c0: f6db 033e f931 fb3d 1e6e fabd 45a8 553e
000000d0: d066 533e 3e82 64be 57d2 d6bd 2591 01be
000000e0: 37f7 173e 00df bdbd 739e 843e 5c67 503e
000000f0: 9bca 973d e9a6 27be 1eeb f43d e9cb 3e3e
00000100: ab7d 2bbe 0d83 e43c f62b 973c 5fab 4b3d
00000110: e9b9 edbd c5eb 423d f04f 70bd 8168 dcbd
0.03848361 -0.045287363 0.13529243 -0.101190574 0.05581379 0.08729505 -0.14793804 0.033449937
-0.094833404 -0.06874945 0.11863066 0.29261798 -0.002830737 -0.00028787198 -0.078075685 0.15700592
0.11376902 0.19446875 0.26538393 0.008484966 -0.19724263 0.05162807 -0.036371958 -0.10166856
0.012380367 0.242637 -0.28128776 -0.08298211 0.3311049 -0.008904154 -0.21045792 0.26244467
0.23087879 0.26908466 -0.0776322 -0.10229227 -0.19739282 -0.3589689 0.2798523 0.18176083
0.052788198 0.15534616 -0.10331392 0.17741716 0.27710277 0.2648938 0.31742677 0.3435656
0.12876877 0.12265391 -0.122280344 0.20864971 0.20644689 -0.22315308 -0.10489338 -0.12653024
0.14840399 -0.092710495 0.25902137 0.20351928 0.07411691 -0.16372265 0.119589075 0.18632473
-0.16747157 0.027894521 0.01845358 0.04972398 -0.11607725 0.04758813 -0.058669984 -0.1076212

rnn.weight_ih_l2 f4 [72, 24]
00000000: 1f56 85be 7e59 fdbd a4b9 5c3d 2c49 4e3e
00000010: 1161 23be 86bd 5d3c 2d6c 183e 59d0 673e
00000020: 4211 d9bd 16c1 393e daca 11bd b577 fc3d
00000030: 803f 57be 264e 8c3e 0e80 93be c32b 8d3d
00000040: cb30 f23c 82fe b4bd 63bd 893c 725e fb3b
00000050: c510 643e d8d3 b0bd c5eb 9ebe b184 2cbe
00000060: d60c 6fbb 3928 09be 3750 37bd a71d 0b3d
00000070: 4843 d7be 90c3 8e3e 3e17 a53d 2789 733e
00000080: 28fc c6be a6bf d63d 7021 94be 55d9 6dbc
00000090: 8022 81be d957 1abc b994 fbbd db74 c5bd
000000a0: a196 7e3d 2559 0cbe 3e2c a13e edca 863e
000000b0: 574e 51bc a3eb 96be 98c9 7ebe e3e6 21bc
000000c0: 7011 6abe 1d23 533d 6af1 4abd 0ab0 803e
000000d0: 8b3c e6bd c38b 93bd abda 843d 3525 c5bb
000000e0: d9c7 8c3d 8036 52bc e404 2fbc e01a 51bd
000000f0: 9ac4 bfbe 9567 36be 2c1b abbc 3443 26be
00000100: db33 bd3d d961 a03c 066c 053d ac4a 293d
00000110: bfb0 f43c 4383 c0be 6cca 613d 7cdd 24be
00000120: efb5 f5bd 477a 2f3d e84c 033e 410d fe3c
00000130: 21e6 abbd f4c2 f1bc 535d 2ebe f87c b73e
00000140: 6f05 33be 50fa 543e 637c 6ebe f5c7 b03d
00000150: 648f 46bd 5282 7ebe b496 8dbd e27f aabd
00000160: 3d63 5c3e 0628 8bbe 5ea1 843e bda1 a03c
00000170: a951 363e 79cc 5bbe 10f0 10be f678 223e
00000180: 8d79 673d d0a4 ecbd e150 38be b3e4 483e
00000190: 793a 323e 9fa4 053e d6f4 0c3e 9d91 7cbe
000001a0: 3c33 28be 9983 3a3e 136d 513e ca02 113e
000001b0: 2a2e 0f3c e13d acbe 1184 2e3e d85e 8f3d
000001c0: 954e c63e aa2f 863e 0268 dbbc 5ab2 9c3e
000001d0: 01f8 3dbe c2fe 0f3c 9c4e 1cbe ddca 8bbc
000001e0: 5a8f f9bd f004 51be 30e4 37be 650e 1a3e
000001f0: 1482 d1bd 6613 adbd 7606 c13d 7d07 48bc
00000200: 75d0 4bbe 8d50 d8bd b957 f9bc 718c 833e
00000210: b49a cbbe 6926 6dbe 79eb 66bb 1db8 7a3e
00000220: 8643 bb3e 95c9 88bd 9e99 303e 0f7f 0b3e
00000230: 71ba 92be ce96 8cbe 880e 50be 875d 92bd
00000240: 1a6e d13d abcf a63c a1d3 453e 6153 053e
00000250: a7e0 27be f575 6b3e 978a 6e3e 7bd7 803e
00000260: cef4 6abe 5979 313e f85e 80be 0f8b 19bc
00000270: b63a b7be ef4f 12be 2f40 debd 84ec 033d
00000280: 2a72 453d 784e 2aba c606 5c3e 8e45 4d3e
00000290: 90f7 d6bd 0033 17be 7b1f bdbd 1942 82be
000002a0: 6cbe dbbd 63d8 153e 3028 f93d 5e56 b53d
000002b0: 3ea6 47be e645 443e f844 53bd a540 e13c
000002c0: 2e97 a9bd c92d 8dbc f2ba 9ebc 5011 5dbe
000002d0: 1a56 7ebe 1d32 6b3d c26a 3e3e 85b8 12be
000002e0: 35a3 46be f81c f63c e971 32bd 471e 9abd
000002f0: 49ef 463e 3138 d13d bcd3 8fbd b713 6e3e
00000300: 945f a0bd deee 563d 321f 33be 6b39 d83d
00000310: 14c3 7cbc 6565 79bd db21 31be 4de8 75bd
00000320: 153c 8d3e 7b3a e2bd 090d 743e 897e 153d
00000330: 19a5 683e b20d 9b3d 9a26 4b3e 5a07 133e
00000340: 62ac 8f3d 7817 0b3d 5212 99be cc3c 1a3e
00000350: e94f ed3b f9e8 f7bd 39d9 41be a1e7 43be
00000360: 4dd3 3ebe c47a 6abe 647b 3bbd 19e2 4a3d
00000370: b14b cd3c 6cd3 703e 2256 883d 1561 f0bd
00000380: 286a 89be bd43 1b3e deb1 1ebe e628 39bd
00000390: 05a1 2ebe 5001 563e 3c68 10bd adf1 71bd
000003a0: 9504 2b3e 7eaf f2bc 7843 f73a ea9a 9b3d
000003b0: 810a 463e c1ea 86bd dc0c 07be 7e62 363d
000003c0: 1a5c c83e 8474 b2be 94f1 fcbe 3609 8a3e
000003d0: 1e2b 953d 4976 19be a64e a83e 7f32 18be
000003e0: ca47 973d 3287 20be 93fc bd3c 7c11 133f
000003f0: 55ac 913d 229b a3be 9478 033d bf1a 033e
-0.26042268 -0.12370585 0.05388798 0.201451 -0.15954997 0.013533955 0.14885016 0.22638072
-0.10598995 0.18140063 -0.035593845 0.1232752 -0.21020317 0.27403373 -0.28808635 0.068931125
0.029564282 -0.08837606 0.01681394 0.007671171 0.22272022 -0.08634156 -0.31039253 -0.16847493
-0.0036476157 -0.1339425 -0.044754233 0.033963826 -0.4204352 0.27883577 0.08061074 0.23782788
-0.38864255 0.10485773 -0.2893176 -0.014517148 -0.25221634 -0.009420359 -0.12284226 -0.09641429
0.06215537 -0.13705881 0.31479067 0.26326695 -0.012775025 -0.29476652 -0.2488159 -0.009881708
-0.22858214 0.05154716 -0.049546637 0.25134307 -0.112420164 -0.07204392 0.0648702 -0.0060163983
0.068740554 -0.012830377 -0.010682318 -0.05105102 -0.37454683 -0.17812951 -0.02088698 -0.16236573
0.09238406 0.019577907 0.032573722 0.04133098 0.029869435 -0.37600145 0.055124685 -0.16100115
-0.11997592 0.042841222 0.12822306 0.03101218 -0.08393503 -0.029511906 -0.17027788 0.3583753
-0.17482542 0.20798612 -0.23289637 0.08631889 -0.04847659 -0.24854401 -0.0691351 -0.08325173
0.21522231 -0.27178973 0.25904363 0.019608373 0.17804588 -0.21464719 -0.14154077 0.15866455
0.056512404 -0.11554873 -0.17999603 0.19618492 0.17405118 0.13051079 0.13765272 -0.24664922
-0.16425794 0.18214263 0.20451765 0.1416122 0.008739034 -0.3364096 0.17042567 0.07000512
0.38731828 0.2620824 -0.026782993 0.3060482 -0.18551637 0.008788766 -0.15264362 -0.017064506
-0.12185545 -0.2041204 -0.1795814 0.15044554 -0.102298886 -0.084509656 0.094250605 -0.012208817
-0.19903739 -0.10562239 -0.030437337 0.25693086 -0.39766467 -0.23159184 -0.0035235567 0.24484296
0.36574954 -0.06679074 0.172461 0.13622688 -0.28657869 -0.27458805 -0.20318043 -0.07146745
0.10226078 0.020362696 0.19319011 0.13020088 -0.16394292 0.22994216 0.23295055 0.251644
-0.22944948 0.17331447 -0.25072455 -0.009371533 -0.3578698 -0.14288305 -0.10852086 0.03220798
0.04820458 -0.0006496678 0.21486959 0.20046064 -0.104964375 -0.14765549 -0.0923452 -0.25441054
-0.107296795 0.14633326 0.12165868 0.08854364 -0.1949701 0.19167289 -0.051579446 0.027496645
-0.08280788 -0.017233746 -0.019376252 -0.21588635 -0.24837533 0.05742084 0.18595412 -0.14328201
-0.19398196 0.03004311 -0.043565664 -0.07525306 0.19427218 0.10215796 -0.07022807 0.23249708
-0.0783073 0.052473895 -0.17492369 0.105578266 -0.01542737 -0.060887713 -0.17298071 -0.060035992
0.275849 -0.110463105 0.23833098 0.036497626 0.2271923 0.075709715 0.19838944 0.14358273
0.07015301 0.03395793 -0.2989679 0.15062255 0.007242192 -0.12104983 -0.1893052 -0.19131328
-0.18635292 -0.22898394 -0.04577197 0.04953203 0.025060507 0.23518151 0.066570535 -0.11737267
-0.26838803 0.15162559 -0.15497538 -0.04520502 -0.17053612 0.20898938 -0.035255656 -0.05906837
0.16700967 -0.029624697 0.0018864712 0.07597907 0.19339944 -0.065877445 -0.13188499 0.044527523
0.39132768 -0.3485452 -0.4940306 0.26960152 0.072836146 -0.14986528 0.32872504 -0.14863013
0.073867396 -0.15676573 0.023191726 0.57448554 0.07112948 -0.31954294 0.032097414 0.12803172

rnn.weight_hh_l2 f4 [72, 24]
00000000: 76c8 513e 701c e4bd e897 4c3d b264 0bbe
00000010: a229 483e abcc 22be 8b94 693e d8f7 c5bd
00000020: 35a9 32be b50b 24be cccb 0abe 1ddf 4f3e
00000030: caeb 5dbe 1330 6c3e 6da8 603e 47dc c13d
00000040: bec6 a73e 38e8 623e fa53 f43c 8c66 113c
00000050: bf3c 0ebe 540b 65be 521a 7a3d 5230 22bc
00000060: 2264 1abd c3db e43d c0f5 7e3d e09e 5cbe
00000070: e15d 8a3d d9dd f03d 5ce6 a73d 0965 b4be
00000080: 1816 9abe 0100 3f3c 713a 8d3d d37e 563e
00000090: f4cb 61be ea84 313e b481 8b3e dc35 92bc
000000a0: 4942 32bc 4334 e6bd b2eb bcbd 958f 1ebe
000000b0: 2b56 143c 93e8 cfbd 00fa a33c 4875 e33d
000000c0: 0afe 0c3e ffe8 83be 21eb 073e 46dc 353e
000000d0: 09c4 70bc 55c0 c93c e41d 723d 5279 9dbc
000000e0: 3cee 4ebe bc26 1d3e 476d 58bd 05e9 26bc
000000f0: a1c3 0b3e 569a 9fbc a3ea 303e 9d82 f93d
00000100: 734e bc3d 0095 473e 1b14 903e f3e2 95bd
00000110: 47f5 90bd 2f1e 483e bd6f b2bd 11ef 52be
00000120: e785 693c 9914 2cbe 018f 263c d9dd 93bd
00000130: b104 be3d 921f 9d3e 2593 f2bd acd0 873d
00000140: 5741 90bd be9b 853e 1991 dcbd c57d 863e
00000150: b86f 393c 4d3b d2bd f520 61be cf84 ba3d
00000160: 2528 4e3e b203 ac3e 8528 b63e 7d2f 0f3e
00000170: afc7 b9bd a712 44bd a67c 68bd 4e07 4cbe
00000180: f5aa ae3b 0d19 1e3c af13 6ebe 2666 ea3c
00000190: b199 843e 94b3 cb3c 9663 123d 7a5d b7be
000001a0: 3a6f 1e3e 89c5 03be fdf4 363e fc48 32bd
000001b0: d81c 0fbe 3304 cb3d a7c3 843e fca4 783e
000001c0: da13 01be 478b 47be 1635 943c 3261 afbb
000001d0: c99b 43be 43ff 19be a278 f93d 632d b03c
000001e0: b1dc cd3c ed5f a5bd 070b 253e 9d99 803c
000001f0: 61ec e53c d753 323d 6014 46be 64a8 83bc
00000200: 63d4 0abe 9102 303e f0da 2ebc 74d1 863e
00000210: 555a 6e3d 9065 caba 5b7f 903d 80c2 833e
00000220: 66cc 23be 3ac1 cd3d f6e8 323e 5eb6 3f3e
00000230: d13e 68be 6ba8 e23c 1b58 0bbe d5de 88be
00000240: 0372 913e 3582 11be 7b29 643d 8d3c 04be
00000250: 2782 013e 055e 0b3e 307f 2a3e 251f 1dbe
00000260: b523 a4be dfa7 073e 503b e23d f713 a73d
00000270: 6065 bc3d eab0 4fbe e04d 7a3c 0929 783e
00000280: 7de3 37bd f176 843e 957c a43e bbba eb3d
00000290: 53bd 593d 7036 ab3d a629 2abe cae3 59be
000002a0: 018f 2ebd ec00 263e edee 94be 5bd4 3d3e
000002b0: 2508 2d3e ace9 63be 7acc 853e 0f5a ba3d
000002c0: ac5b 5bbd fdeb d43d 9c77 0e3c 66e1 a4bd
000002d0: 524d 8a3c 19df 8f3d 290b 033d 0b86 73be
000002e0: cbf8 823c 13c6 a03e 9179 abbd bb44 8cbd
000002f0: d80b 9ebd fbde 8cbe 033a 49be c01c f1bd
00000300: 1176 a53d 1425 9d3d c2e1 5d3c 0903 cabd
00000310: fb11 003e 3bba 04bc 1584 173e 7f95 87be
00000320: 45cf 6d3e 5fd3 00be c4af a9bd 4f1c 83be
00000330: 8ed7 023d 538f 7e3e 84bf e43d d23c 683d
00000340: 5156 4b3e 33fb 74bd 598a 8b3c cf68 fdbc
00000350: e470 abbd fec9 3ebe 05a6 843e 9326 ba3c
00000360: 71d8 aebc 8c5f 1abe e0a0 c6bd c95e 913b
00000370: 24cb 9d3e 57e2 17be 9ee4 be3c a9e3 c8bc
00000380: 48cf 65be b36a ba3c 2387 f23d 518c 363d
00000390: 0e35 06bc cd58 663e 9b5a a63b 7086 bc3d
000003a0: 5d31 7d3e cf06 a23e 763a 17bc 5b05 40bd
000003b0: 2605 4c3d 5df3 78be 986d 453c 6bac 493e
000003c0: 709b 623e 2d9a 373e 4180 4abe 17d4 23bd
000003d0: 4a25 993d 0b99 8abd 586e d13d 4a72 f7be
000003e0: 84cb dcbd eed6 d23d 8a55 57be d00f 67be
000003f0: 79ff 70bc e3b3 943e 3038 7a3e c0eb 003f
0.20486626 -0.111382365 0.049949557 -0.13612631 0.19547132 -0.15898387 0.22810571 -0.09666413
-0.1744736 -0.16020091 -0.13554305 0.20299955 -0.21671978 0.23065214 0.2193925 0.09465843
0.32768816 0.22158897 0.0298252 0.008874547 -0.1389036 -0.22367603 0.061060257 -0.009899216
-0.03769315 0.11174729 0.062246084 -0.21544981 0.06756187 0.11761064 0.081982344 -0.35233334
-0.3009498 0.011657716 0.068959124 0.20946817 -0.22050458 0.17335859 0.27247393 -0.017847948
-0.010880061 -0.11240437 -0.09224643 -0.1548446 0.009053747 -0.10151782 0.02001667 0.11106354
0.13768783 -0.257637 0.13273288 0.17759809 -0.014695176 0.024627844 0.059110537 -0.01922289
-0.20208067 0.15346807 -0.05283859 -0.010187392 0.13648845 -0.019482773 0.17277007 0.12183116
0.091946505 0.19490433 0.2814034 -0.07318678 -0.07078033 0.19542764 -0.08712719 -0.20599009
0.014253116 -0.16804732 0.010165931 -0.072200485 0.092782386 0.3068815 -0.11844472 0.06631598
-0.070437126 0.26095384 -0.10769863 0.2626783 0.01131814 -0.10265217 -0.21985228 0.091073625
0.20132501 0.3359657 0.3557779 0.13982959 -0.0907129 -0.04786935 -0.0567595 -0.19924662
0.0053304383 0.009649527 -0.23249696 0.028613161 0.25898507 0.024865903 0.035739504 -0.35813504
0.15472117 -0.12868322 0.17866893 -0.043526635 -0.13975847 0.0991291 0.2593052 0.24281687
-0.12605229 -0.19486724 0.01809172 -0.0053521628 -0.19102396 -0.15038781 0.12181212 0.021506017
0.025129648 -0.08074937 0.16117488 0.015698249 0.028066816 0.043536987 -0.1934371 -0.016071506
-0.13557582 0.17188479 -0.010672316 0.26331675 0.058191616 -0.0015441645 0.07055541 0.2573433
-0.1599594 0.10046621 0.1747168 0.18721911 -0.22680213 0.027668199 -0.13607828 -0.26732507
0.28407297 -0.14209826 0.05570362 -0.12913723 0.12647305 0.13610084 0.1665008 -0.15343912
-0.32058492 0.13247631 0.11046469 0.08158105 0.09199023 -0.20282331 0.015277356 0.24234404
-0.044894684 0.25871995 0.321263 0.115102254 0.05315907 0.083599925 -0.1661745 -0.21278301
-0.042616848 0.16211289 -0.29088536 0.18538038 0.16897638 -0.22257107 0.26132566 0.090992086
-0.053554222 0.10396574 0.008695509 -0.08050804 0.016882572 0.070249744 0.031993065 -0.23781602
0.015987774 0.3140112 -0.08372796 -0.06849047 -0.07717103 -0.2751387 -0.19651036 -0.11773062
0.0807916 0.07673088 0.013542594 -0.0986386 0.12506859 -0.008101041 0.14796479 -0.26481244
0.23223598 -0.12580632 -0.08285478 -0.25607535 0.03194385 0.24859361 0.11169341 0.056698628
0.19857146 -0.059809875 0.017033743 -0.030933766 -0.083711416 -0.18631741 0.25907913 0.022723472
-0.021343442 -0.1507551 -0.09698653 0.004436348 0.30819046 -0.14832436 0.023302373 -0.02452262
-0.22442353 0.022755956 0.118421815 0.04456741 -0.00819136 0.22494812 0.005076719 0.092053294
0.24725862 0.3164582 -0.009230247 -0.046880107 0.049809597 -0.24311586 0.012050055 0.19694678
0.22129607 0.17929907 -0.19775487 -0.039997187 0.074778154 -0.06767472 0.102261245 -0.48329383
-0.10781005 0.10294901 -0.21028724 -0.22564626 -0.014709347 0.29043493 0.24435496 0.50359726

rnn.bias_ih_l2 f4 [72]
00000000: 1fb1 a03d 7ebd 87bd a490 ff3b 293f 4b3e
00000010: 3f0e b23d 1190 c63d 2c24 813d e003 c4bd
00000020: 5022 8c3e a334 23be cfd9 cc3e d7ab 25bc
00000030: f735 333e d5c2 e7bd 2b83 b0bc b624 83bc
00000040: 48e1 763e 14a2 dcbd 9421 a63d 6cae 5fbc
00000050: 71c8 17be 4cf5 813d 5a37 b4bc fc2d 833e
00000060: 0c3e 10be 9574 cd3e d795 48be 02ed fc3e
00000070: 9532 c83d bd64 803e 948b ca3b a932 913e
00000080: 23be dd3d 5035 c4bb a87a 4d3d c4f8 993e
00000090: 93e5 b1be 2d24 86bd 9e35 a7be 33c7 023d
000000a0: 9b14 1dbb e59f fe3c 107c 073e 5140 663e
000000b0: 0191 cb3d fdd4 80be c464 3ebd cb4f 69be
000000c0: 4a56 733e cfe6 14bd 4d4e ea3d 4cf5 383e
000000d0: 9828 afbb 9674 883d 491e 3dbd 22a4 c4bc
000000e0: 5747 4bbd 068a 4f3d a80d 323e 82fc 1ebe
000000f0: b2e4 203e 5473 4dbd 11a7 49be bf5c 933d
00000100: 63ce f63c 1707 2bbe 49e2 153e 24d5 15be
00000110: 5dfb a23d d9a2 303e dcd4 0d3d 9f81 b33d
0.07846283 -0.0662794 0.007799225 0.19848312 0.086941235 0.09695447 0.06305727 -0.095710516
0.27369928 -0.15938048 0.40009925 -0.010111771 0.17501055 -0.11316458 -0.02154692 -0.016008716
0.24109375 -0.107731014 0.08111873 -0.013652425 -0.14822556 0.06345615 -0.02199905 0.2562102
-0.14086169 0.40128008 -0.1958841 0.49399573 0.09775273 0.25076857 0.00618119 0.28358963
0.10827281 -0.0059878007 0.050165802 0.30072606 -0.34745464 -0.06549869 -0.32658094 0.031928252
-0.002396858 0.031082103 0.1323092 0.22485472 0.09939767 -0.25162497 -0.046482816 -0.22784345
0.23763385 -0.03635293 0.11440716 0.18062323 -0.0053454153 0.06662862 -0.04617146 -0.024004046
-0.04962858 0.05066874 0.17388022 -0.15526012 0.1571224 -0.050158814 -0.19692637 0.07195424
0.03012771 -0.16701923 0.14637102 -0.14632088 0.079581 0.17249621 0.034626827 0.08764958

rnn.bias_hh_l2 f4 [72]
00000000: a3c7 36bd 8110 933e 7736 113e bf89 033c
00000010: 2cd6 313e 53e2 ef3d c0f2 c1bd 62f4 1f3d
00000020: 30ee 943d 7540 423d cf24 7d3d 34ec 96bd
00000030: bc9e 7f3e 9724 fc3d 0516 a23e 729c 82bc
00000040: e26d 163e b71e 093e b921 b9bb f15a 0d3c
00000050: 5a86 de3d 1a7d 3b3b fa0d 7bbd b723 223e
00000060: 72f5 0dbd 4954 663d 8635 85be dee9 b23e
00000070: 8632 a5bd 0e04 c53d 9e2d 15be 9ef3 243e
00000080: 5a89 2cbd 874e c43d e13f 76be 137c 453d
00000090: 810a a8be 1436 9e3d ce45 2ebd 08c8 2fbb
000000a0: f440 26be 8bad 4bbe fd3f 113e c69f 8c3d
000000b0: 418f b03e f28c 03bd 4374 4c3c ba97 9dbe
000000c0: bcd2 593d 9ebd 9ebd 9c69 633e 85e4 293e
000000d0: f7ce 433e 2dd1 6b3e f302 80be 0273 4c3e
000000e0: da3d 03be 73c4 513e e43f 523e 08eb 733e
000000f0: 015c d6bd 5a85 eabd db6b cebd 90a5 473b
00000100: 2a3e e8bd c378 a83d 7949 65bd 4c11 8d3e
00000110: cdb3 73be 7fed e6bc 91ff d7bd be4e 63be
-0.044623982 0.2872353 0.14180933 0.008028447 0.17366856 0.1171309 -0.09470129 0.03905142
0.07271993 0.047424752 0.06180268 -0.07369271 0.24962896 0.123116665 0.31657425 -0.01594374
0.14690354 0.13390623 -0.005649772 0.008627639 0.10865469 0.0028608502 -0.061292626 0.15833937
-0.034657903 0.056232724 -0.26017398 0.34944052 -0.08066277 0.09619914 -0.14568183 0.16108558
-0.042123176 0.095852904 -0.24047805 0.04821403 -0.32820514 0.07725158 -0.04254704 -0.0026822109
-0.16235715 -0.1989042 0.14184566 0.06866412 0.34484294 -0.032116838 0.012478891 -0.3077982
0.053179488 -0.0775101 0.22208256 0.1659108 0.1912192 0.23029013 -0.2500225 0.19965747
-0.12816563 0.20485096 0.20532185 0.23820126 -0.10466767 -0.11451216 -0.100791655 0.0030463673
-0.11339982 0.082261585 -0.055978272 0.2755226 -0.23799057 -0.028189419 -0.10546792 -0.22198007
