models/recovery.pt (torch, 47806 bytes, 13 tensors)

rnn.weight_ih_l0 f4 [72, 24]
0	0xbd59da11	-0.05318648
1	0xbd9eeabc	-0.07759616
2	0x3e42d2bf	0.19025706
3	0x3cd9b813	0.026577031
4	0x3e0325be	0.12807366
5	0x3b824a6a	0.003976156
6	0xbc365540	-0.011128724
7	0xbdb3a089	-0.08770854
8	0xbde77e54	-0.11303392
9	0x3e0d334f	0.13789104
10	0x3b434838	0.0029797684
11	0x3e61bbcf	0.220443
12	0x3d86dc44	0.06584981
13	0xbd4b629c	-0.049654588
14	0x3dadc067	0.084839635
15	0x3c2f7620	0.010709316
16	0x3e4ecd5e	0.20195529
17	0xbdf8c909	-0.121477194
18	0x3e11ce6e	0.14238903
19	0x3e19f1d4	0.15033656
20	0x3de077bc	0.109603375
21	0xbe10374e	-0.14083597
22	0x3e351e5f	0.17687367
23	0x3e0064e9	0.12538494
24	0x3e35f6a0	0.17769861
25	0x3e572c56	0.21013007
26	0x3e2a0bef	0.16606115
27	0x3d7076c2	0.058707006
28	0xbe26f0f3	-0.16302852
29	0x3e8e9722	0.2784968
30	0x3e316a75	0.17325766
31	0x3e905ebd	0.2819728
32	0xbc47473f	-0.0121629825
33	0x3d94a055	0.072571434
34	0xbd170e5b	-0.036878925
35	0xbd7975ad	-0.06090324
36	0xbe0dd697	-0.13851391
37	0x3d5f894b	0.054574292
38	0x3d46eee2	0.04856766
39	0xbe068cac	-0.131396
40	0x3dc115e8	0.094280064
41	0x3e847890	0.25873232
42	0xbdabc6cc	-0.08387527
43	0x3dae9754	0.08524957
44	0x3d731081	0.05934191
45	0xbda61eb2	-0.081113234
46	0x3caefeb3	0.021361684
47	0xbb9a233e	-0.004703908
48	0x3e084f97	0.13311611
49	0x3e0a4add	0.1350512
50	0x3cfef652	0.031123314
51	0x3d3a4052	0.045471497
52	0xbe4dcd34	-0.2009781
53	0xbc8d6077	-0.017257912
54	0x3df76bbd	0.12081096
55	0x3e5ac926	0.21365795
56	0xbe815203	-0.25257882
57	0xbe40cfb1	-0.18829228
58	0xbe5c648d	-0.21522732
59	0xbc1564a4	-0.009118233
60	0xbe1cc3af	-0.15309022
61	0xbde25267	-0.11050873
62	0x3e00e0c0	0.12585735
63	0xbe0a5ece	-0.13512728
64	0x3e6e442b	0.23268192
65	0x3e73c51e	0.23805663
66	0xbdbf0826	-0.09327726
67	0xbd997198	-0.074923694
68	0x3d95e12f	0.07318341
69	0xbe2d2085	-0.16906936
70	0xbe448c2f	-0.19194101
71	0xbdb4c3e3	-0.08826425
72	0xbe0ea186	-0.13928804
73	0xbc904181	-0.01760936
74	0xbdb575c3	-0.08860352
75	0x3d4c133a	0.049823023
76	0x3e1525c8	0.14565194
77	0xbb5da24e	-0.0033818665
78	0x3d1e1dc4	0.038602605
79	0x3dc0bac4	0.09410623
80	0xbe176221	-0.14783527
81	0xbd599769	-0.05312291
82	0xbe02adf6	-0.12761673
83	0xbdb2c455	-0.087288536
84	0x3e28d83a	0.16488734
85	0xbdf1a57e	-0.11799143
86	0x3e59867b	0.21242706
87	0xbe0d3bca	-0.13792339
88	0xbb8e2cf3	-0.0043388545
89	0x3e5df4fa	0.21675482
90	0x3e565c55	0.2093366
91	0xbe5ec484	-0.21754652
92	0xbe2ec066	-0.17065582
93	0x3e02a9f4	0.12760144
94	0x3dc194d8	0.09452218
95	0xbd60c756	-0.0548776
96	0x3dcedd41	0.101007946
97	0x3ce627f1	0.028095217
98	0xbe2a1f75	-0.16613562
99	0x3e328843	0.17434792
100	0x3db86526	0.090036675
101	0xbd901ed8	-0.07037133
102	0x3cab56bb	0.02091538
103	0xbe5f5eda	-0.21813527
104	0x3bb19108	0.0054189004
105	0xbdf9dffd	-0.122009255
106	0xbd64bfa8	-0.05584684
107	0xbcd31c53	-0.025770342
108	0xbdebdb21	-0.11516405
109	0xbdefc66f	-0.1170777
110	0x3e04632b	0.12928455
111	0x3e2ad3b6	0.16682324
112	0xbcc656bc	-0.02421128
113	0x3d7e2987	0.062051322
114	0xbe5b2b96	-0.21403345
115	0xbcec5af0	-0.028851956
116	0x3e2dd847	0.16977035
117	0x3dfef938	0.124498785
118	0xbe41330d	-0.1886713
119	0x3e5cf515	0.21577866
120	0xbe095bf2	-0.1341398
121	0xbd88f33b	-0.066870175
122	0x3e87b7ce	0.2650742
123	0xbcfafc17	-0.030637784
124	0x3e620488	0.22072041
125	0xbd6d9990	-0.058007777
126	0xbe293ea2	-0.16527799
127	0x3d4ffca5	0.05077805
128	0x3e87551d	0.26432124
129	0x3de8c25d	0.11365197
130	0x3e28a3e5	0.16468771
131	0xbe50dc42	-0.20396522
132	0xbd0ee1bf	-0.034883257
133	0x3e170057	0.14746223
134	0xbd957331	-0.07297362
135	0x3e13f799	0.1444992
136	0x3bc23728	0.0059269853
137	0xbe547660	-0.20748281
138	0xbde7909c	-0.11306879
139	0xbdea0985	-0.11427597
140	0x3e35acdf	0.17741726
141	0x3d92f0b4	0.07174817
142	0xbe3b3441	-0.18281652
143	0x3e62ee77	0.2216128
144	0xbd8a6f1c	-0.06759474
145	0xbd9a6ac6	-0.07539897
146	0x3cf52e86	0.02992941
147	0xbe41f3ca	-0.18940654
148	0xbdac3c53	-0.084099434
149	0x3e8200a8	0.25391126
150	0x3d992916	0.0747854
151	0x3e83012f	0.2558684
152	0xbdf194f5	-0.117959894
153	0xbe45844f	-0.19288753
154	0x3e11c2a1	0.14234401
155	0x3de4164f	0.111370675
156	0xbe3ec7f9	-0.18630971
157	0x3dbef78b	0.09324559
158	0x3d668cbb	0.056286555
159	0xbe61e8e9	-0.22061504
160	0x3e5caebe	0.21551034
161	0x3e416898	0.18887556
162	0x3e4905a8	0.19631064
163	0x3cb9562a	0.022624094
164	0xbda5a340	-0.08087778
165	0x3c833e68	0.016020969
166	0xbe09f16d	-0.13471003
167	0x3d986094	0.07440296
168	0x3c950026	0.018188547
169	0xbd13395c	-0.035943374
170	0xbe0cc4c0	-0.13746929
171	0x3d64132d	0.05568235
172	0x3cd34f6e	0.025794711
173	0x3de3dee1	0.11126495
174	0xbda163e7	-0.07880383
175	0x3e48de3e	0.19616029
176	0xbe12ffbc	-0.14355367
177	0x3ca8ed6f	0.02062103
178	0x3c375dd6	0.011191806
179	0x3e4c3814	0.19943267
180	0xbe260728	-0.16213667
181	0x3e7bd3b8	0.24592483
182	0x3e5e45d5	0.21706326
183	0xbc76b6e8	-0.015058257
184	0xbdd2a2b3	-0.10284939
185	0xbd06e83f	-0.03293633
186	0x3e7ed394	0.24885398
187	0x3e0016df	0.12508725
188	0xbd051a88	-0.032496005
189	0x3e68abaa	0.22721735
190	0x3e5e4a6b	0.21708076
191	0xbdf86e82	-0.12130453
192	0xbde232c8	-0.11044842
193	0x3e03fc3b	0.12889187
194	0xbc6d6b50	-0.014490917
195	0xbd9b668c	-0.07587919
196	0x3cbc5842	0.022991303
197	0xbdcc67ea	-0.099807575
198	0xbd11cde5	-0.035596747
199	0x3e1e3bd6	0.15452513
200	0x3cbfe91f	0.02342659
201	0xbe507f18	-0.20360982
202	0xbe1d9dbe	-0.15392205
203	0x3d48a238	0.04898283
204	0x3e5962d1	0.21229102
205	0x3e24c177	0.16089426
206	0x3dd1447e	0.10218142
207	0x3db1b41b	0.086769305
208	0x3d1d1174	0.038346723
209	0x3d98eb0c	0.07466707
210	0x3e819002	0.25305182
211	0xbd92c1ff	-0.07165908
212	0x3e2b1984	0.16708952
213	0x3df69fe4	0.120422155
214	0xbdfa2a14	-0.12215057
215	0x3d1119b7	0.035424914
216	0x3d60c022	0.054870732
217	0xbd3bcb54	-0.045848206
218	0x3dc546ec	0.09632668
219	0xbdcda108	-0.1004048
220	0xbb8a26db	-0.0042160577
221	0x3da94841	0.082657345
222	0x3dd747b6	0.10511725
223	0x3e08e470	0.13368392
224	0xbe1bed3f	-0.15227221
225	0x3d68c510	0.05682856
226	0x3e4b3e48	0.19847977
227	0x3d51f9dc	0.051263675
228	0xbdcdd16c	-0.1004971
229	0x3e2aa7f8	0.16665637
230	0xbdefdd00	-0.11712074
231	0x3e67656c	0.22597283
232	0x3e3f7e30	0.1870048
233	0x3e30c1db	0.1726145
234	0x3e068dfa	0.13140097
235	0xbdde7a1b	-0.108631335
236	0x3e210da3	0.15727858
237	0xbb1e8826	-0.0024190038
238	0x3d981acd	0.07426987
239	0x3e4d64f3	0.2005804
240	0xbdf6c04b	-0.12048396
241	0xbe031d08	-0.12804043
242	0x3e4405ed	0.19142886
243	0x3df2b242	0.11850406
244	0x3e345ac8	0.17612755
245	0x3c7faed5	0.015605648
246	0xbdadbbd2	-0.084830895
247	0x3cae7686	0.02129675
248	0x3e2d97a6	0.1695238
249	0x3e7839f3	0.24240856
250	0x3e04c86b	0.12967078
251	0xbd6e566c	-0.058187887
252	0x3cb83adc	0.022489004
253	0xbdfb300a	-0.12265022
254	0x3dd857c7	0.10563617
255	0x3e2cbffc	0.16870111

rnn.weight_hh_l0 f4 [72, 24]
0	0xbd851ff5	-0.06500236
1	0xbe4c12dd	-0.19929071
2	0xbe6a2a8b	-0.22867791
3	0x3e8b2b3e	0.2718143
4	0x3e674a49	0.22586931
5	0x3def681b	0.116897784
6	0xbb54acc4	-0.003245161
7	0xbb06c954	-0.0020566778
8	0xbe369507	-0.17830287
9	0x3d05bf19	0.032652948
10	0xbdaf6ca9	-0.08565647
11	0x3c07841f	0.008271246
12	0x3e12a662	0.14321283
13	0xbe5a6907	-0.21329127
14	0x3e1740ea	0.14770856
15	0xbc77786a	-0.015104393
16	0x3e0fc07a	0.14038268
17	0xbdab7605	-0.0837212
18	0xbce9079f	-0.028446017
19	0x3d886929	0.06660683
20	0xbe2a8bec	-0.16654938
21	0x3dd548f6	0.10414307
22	0xbe696127	-0.22790967
23	0xbe4bd23e	-0.1990442
24	0xbd84b617	-0.064800434
25	0x3c8fc935	0.017551998
26	0xbe7ba5f1	-0.2457502
27	0x3e8bf8bc	0.27338207
28	0x3e4eafc0	0.20184231
29	0x3e8b5c6c	0.2721895
30	0xbe19323e	-0.14960572
31	0x3e823d12	0.25437218
32	0xbe1d673c	-0.15371412
33	0x3d3fca31	0.046823684
34	0xbe1ff29f	-0.15619896
35	0xbc361e1c	-0.011115577
36	0xbce23116	-0.027611297
37	0xbd88d41b	-0.06681081
38	0xbe165b7e	-0.14683339
39	0xbe4e67f9	-0.2015685
40	0xbd578650	-0.052618325
41	0xbc6fec6d	-0.014643771
42	0xbd6fa0a2	-0.0585028
43	0x3e1cc32a	0.15308824
44	0xbea55ce8	-0.32297444
45	0x3d13f64d	0.036123563
46	0x3c62b889	0.013837942
47	0xbca5f9a4	-0.02026064
48	0xbd9f50c0	-0.07779074
49	0x3e46e919	0.19424857
50	0x3e1aaebb	0.15105717
51	0x3d16027e	0.03662347
52	0x3e01f700	0.1269188
53	0x3df6b0ed	0.12045465
54	0x39ca5574	0.0003859211
55	0xbde060a7	-0.10955935
56	0xbd9bbda0	-0.076045275
57	0x3e2b5e5e	0.16735217
58	0xbdbfb602	-0.09360887
59	0x3e82dfe3	0.25561437
60	0x3df477c5	0.11936907
61	0xbd866f45	-0.06564192
62	0x3df4dfb2	0.11956729
63	0xbe66460d	-0.2248766
64	0x3d9a98ff	0.07548713
65	0xbbab62cd	-0.005230284
66	0x3d5b3efd	0.053526867
67	0x3d9c8f16	0.07644479
68	0xbd757a53	-0.05993111
69	0x3de69c9a	0.11260338
70	0x3e12af7f	0.14324759
71	0x3d5ab896	0.05339869
72	0x3d87ba7a	0.066273645
73	0x3e1dc87c	0.1540851
74	0x3bcfeb6a	0.006345202
75	0x3c4bd46b	0.012440781
76	0x3d8e7515	0.069559254
77	0xbd982247	-0.07428413
78	0xbe1c8a7b	-0.15287201
79	0x3db0e8d5	0.08638159
80	0xbdb41f4f	-0.08795034
81	0xbd79965a	-0.060934402
82	0x3df125a3	0.11774757
83	0xbd1e9027	-0.038711693
84	0xbe326d66	-0.17424545
85	0x3d7288ea	0.059212603
86	0xbdb1cbb6	-0.08681433
87	0xbdf628e0	-0.12019515
88	0xbc57eaa0	-0.013178498
89	0x3dc7b007	0.097503714
90	0x3d818452	0.06324066
91	0xbd5471b7	-0.05186626
92	0xbda0718a	-0.07834156
93	0x3d5e3f56	0.05425962
94	0x3d9ff775	0.078108706
95	0x3d627a57	0.055292454
96	0xbd8a1ff2	-0.06744374
97	0xbe59a764	-0.2125526
98	0xbd205222	-0.039140828
99	0x3cf0acda	0.029379297
100	0xbe2884f3	-0.16456966
101	0xbce29c3c	-0.027662389
102	0xbd662936	-0.056191646
103	0xbe1ee608	-0.15517437
104	0x3d052e23	0.032514703
105	0xbdf92fb1	-0.121672995
106	0x3e33d36f	0.17561124
107	0xbe259d38	-0.16173255
108	0x3e37b145	0.17938717
109	0x3e3d9d18	0.18516958
110	0xbe000b52	-0.12504318
111	0x3d41558f	0.047200736
112	0x3b09f448	0.0021050144
113	0xbd70fb5f	-0.058833476
114	0xbe081953	-0.1329091
115	0xb9a956e1	-0.00032298922
116	0x3d75ad3e	0.05997967
117	0x3e06eca4	0.13176209
118	0xbe149a98	-0.14512098
119	0xbda1ffc8	-0.079101145
120	0x3db25968	0.08708459
121	0xbe4b6b22	-0.19865087
122	0xbe219283	-0.15778546
123	0x3db37ba0	0.08763814
124	0x3df692cf	0.1203972
125	0x3e06b8f8	0.13156497
126	0x3d957c63	0.072991155
127	0x3c6a54fc	0.014302488
128	0xbe19e658	-0.15029275
129	0x3ce104e5	0.027468154
130	0xbc6307dd	-0.013856855
131	0x3cad95fc	0.021189682
132	0x3e00b23d	0.12567993
133	0xbd1508ec	-0.03638546
134	0xbdb750c9	-0.089509554
135	0xbe06309d	-0.13104482
136	0xbcc50377	-0.024049504
137	0x3e1c8179	0.15283765
138	0x3e3bfe40	0.18358707
139	0xbe461d28	-0.1934706
140	0xbc18a5e4	-0.009316895
141	0x3d070530	0.03296393
142	0x3e2e8dee	0.1704633
143	0xbdbb80f3	-0.091554545
144	0xbdcfe1d1	-0.10150493
145	0xbe1ac63b	-0.15114681
146	0x3dfa0638	0.122082174
147	0x3e44d755	0.19222768
148	0x3e123a72	0.14280108
149	0x3e348fd8	0.17632997
150	0xbe0866d5	-0.13320477
151	0x3e005253	0.12531404
152	0xbe39843b	-0.18116848
153	0xbe1eb602	-0.15499118
154	0x3da60067	0.081055455
155	0x3d3a6425	0.04550566
156	0xbe55cca3	-0.20878844
157	0x3d3a0b82	0.04542113
158	0xbe13b4a8	-0.14424384
159	0x3ca3fbd6	0.020017546
160	0x3d89da9a	0.06731148
161	0xbdd8cb3e	-0.1058564
162	0x3d25406c	0.04034464
163	0xbe323745	-0.17403896
164	0xbc9835e4	-0.018580385
165	0xbe3ab172	-0.18231753
166	0xbe668784	-0.22512633
167	0xbe16e26e	-0.14734814
168	0x3d6f1d67	0.05837765
169	0x3e607faa	0.219237
170	0xbc9f84f5	-0.019472579
171	0x3e245e64	0.16051632
172	0x3ac5d901	0.001509458
173	0xbdf09b47	-0.11748367
174	0x3e1ae12d	0.1512496
175	0x3db9e1f6	0.09076302
176	0x3dd19939	0.10234303
177	0x3e2c9fe9	0.16857876
178	0x3e23c14f	0.1599171
179	0xbe016cb7	-0.12639128
180	0x3deb408e	0.11486922
181	0xbdc3b567	-0.09556084
182	0x3df8d9b1	0.12150896
183	0x3c8b0eb6	0.016974788
184	0x3e060639	0.13088311
185	0x3e136c27	0.14396726
186	0xbcfb1156	-0.030647915
187	0xbe19b7d4	-0.15011531
188	0xbc8ab836	-0.016933542
189	0x3e2d0aec	0.16898698
190	0xbdb909cc	-0.09035072
191	0xbe5860fe	-0.2113075
192	0xbd261305	-0.040545482
193	0x3e2f09ef	0.17093633
194	0xbdac2bb8	-0.08406776
195	0x3e545f64	0.20739514
196	0x3d5e2145	0.054230947
197	0x3e2616b6	0.16219601
198	0xbd3ab118	-0.045579046
199	0xbd2c01b3	-0.041993808
200	0xbcc8548d	-0.02445438
201	0xbe4da1c4	-0.2008124
202	0x3d4d82d1	0.050173584
203	0x3dabff5b	0.083983146
204	0x3dd56650	0.10419905
205	0x3d19cfd6	0.037551723
206	0xbccfc503	-0.025362497
207	0x3c43f3ce	0.011959983
208	0x3d2bb40a	0.041919746
209	0x3da95fbf	0.08270215
210	0xbe27c101	-0.16382219
211	0x3ddffcc9	0.10936887
212	0x3dcf9ca3	0.10137298
213	0xbe25f8bf	-0.1620817
214	0xbe33aa5e	-0.17545459
215	0xbde4e609	-0.11176688
216	0x3e3a928e	0.18219969
217	0xbd87854f	-0.066172235
218	0x3d89b9cf	0.06724893
219	0xbe046ed9	-0.1293291
220	0xbc84a6de	-0.01619285
221	0xbcf4a296	-0.029862683
222	0x3c3be2d6	0.011467656
223	0x3d865756	0.06559627
224	0xbe5d3d5c	-0.21605438
225	0xbc9deaa7	-0.01927693
226	0x3db38f06	0.08767514
227	0xbd7c1a34	-0.061548427
228	0x3e128d33	0.14311676
229	0x3e25e3c5	0.16200168
230	0xbd989bdd	-0.074516036
231	0xbdc0ec67	-0.0942009
232	0xbd3100f0	-0.043213785
233	0x3c10af97	0.008830926
234	0xbda13334	-0.07871094
235	0x3e318fca	0.17340007
236	0x3e2b684f	0.1673901
237	0xbe0ac986	-0.13553438
238	0x3de08082	0.10962011
239	0x3db8090b	0.089861
240	0xbd83dc99	-0.0643856
241	0xbe48d44f	-0.1961224
242	0xbe564788	-0.20925725
243	0xbd499683	-0.049215805
244	0xbe1f2ac7	-0.15543662
245	0x3da8a139	0.08233876
246	0xbe6bc00b	-0.23022477
247	0x3e203504	0.15645224
248	0x3e18f015	0.14935334
249	0x3da9c655	0.08289782
250	0xbe87239c	-0.26394355
251	0xbdccc970	-0.09999359
252	0x3dfa3a8d	0.12218199
253	0x3d0e549b	0.034748655
254	0xbe186f38	-0.14886177
255	0xbe0c56b7	-0.13704954

rnn.bias_ih_l0 f4 [72]
0	0x3e3a0ffd	0.18170162
1	0xbdaf37ed	-0.08555589
2	0xbe1b5996	-0.15170893
3	0x3d0fdfee	0.035125665
4	0xbdc5f250	-0.09665358
5	0x3e3491d7	0.17633758
6	0xbde26542	-0.1105447
7	0xbddc1498	-0.107461154
8	0xbdbbd24c	-0.0917097
9	0x3dd2327b	0.10263535
10	0x3d76a1be	0.060212843
11	0xbc51a0df	-0.012794702
12	0xbdf928af	-0.12165963
13	0xbe2473c9	-0.16059794
14	0x3d00c73e	0.031440012
15	0x3d6e081c	0.058113202
16	0xbe640857	-0.22268806
17	0xbb29e201	-0.0025922062
18	0xbdbe133c	-0.092810124
19	0x3df575fa	0.11985393
20	0x3e0d66fa	0.13808814
21	0xbd2e5c92	-0.04256875
22	0xbdbdee17	-0.09273928
23	0x3d572d73	0.052533578
24	0x3b24ec6d	0.0025165335
25	0x3d23b109	0.039963756
26	0x3d3c13d0	0.045917332
27	0x3cc0187e	0.023449179
28	0xbe4e4025	-0.20141657
29	0xbe1714fd	-0.147541
30	0x3c97c7a1	0.018527808
31	0x3d536217	0.051607218
32	0xbe2d4fec	-0.16925019
33	0xbbe4eb25	-0.006986039
34	0x3e025c60	0.12730551
35	0xbdfab529	-0.12241585
36	0xbc902760	-0.0175969
37	0xbe95cdb4	-0.29258502
38	0x3e00bf3c	0.1257295
39	0xbdd005bf	-0.10157346
40	0xbe385f14	-0.1800502
41	0xbd9533a1	-0.07285238
42	0x3e0bdf98	0.13659513
43	0xbdb044e3	-0.08606889
44	0xbe1b76ec	-0.15182084
45	0xbdeb0692	-0.114758626
46	0x3d83f2b1	0.06442774
47	0xbe18956c	-0.1490075
48	0x3c85dace	0.016339686
49	0x3de4474e	0.11146413
50	0xbdda2f57	-0.106535606
51	0x3cf19b94	0.02949313
52	0xbbcadb73	-0.006190711
53	0x3dc8eeb4	0.09811154
54	0x3ddf393d	0.10899589
55	0x3d544bd8	0.051830143
56	0xbce32043	-0.027725345
57	0xbe08acd2	-0.13347176
58	0x3de5f991	0.11229242
59	0xbba5c77c	-0.005059181
60	0xbe4c3552	-0.19942215
61	0x3d27f4bf	0.041004892
62	0x3d32c3b7	0.04364368
63	0xbddcd672	-0.1078309
64	0xbceb0fff	-0.028694151
65	0xbc977863	-0.018490022
66	0xbbcae933	-0.0061923503
67	0x3c43f1da	0.011959517
68	0xbdf733d6	-0.12070434
69	0xbb3026d5	-0.0026878614
70	0xbc7077d0	-0.014677003
71	0x3cb02ab4	0.021504737

rnn.bias_hh_l0 f4 [72]
0	0x3bbe95f3	0.005816215
1	0xbdd245a5	-0.1026719
2	0xbb88ca7c	-0.0041745286
3	0xbd1969c6	-0.03745439
4	0xbd8388df	-0.064225905
5	0x3d7c70c2	0.06163097
6	0xbabdc431	-0.0014478025
7	0x3e1e5959	0.15463771
8	0xbdf0a31e	-0.11749862
9	0xbe25b423	-0.16181998
10	0x3b27607d	0.002553969
11	0xbd02d698	-0.031942934
12	0x3cdb1fbb	0.026748529
13	0x3df07192	0.11740412
14	0x3deb1676	0.114788935
15	0x3e31b97c	0.17355913
16	0x3d75f0ba	0.060044028
17	0xbe816a44	-0.25276387
18	0x3e4991d4	0.19684535
19	0x3b751025	0.0037393656
20	0xbde94d05	-0.113916434
21	0xbbb10b62	-0.0054029683
22	0x3e1fd09e	0.15606925
23	0xbcfb99fb	-0.030713072
24	0x3e6da026	0.23205623
25	0xbdcbfa2c	-0.09959826
26	0xbd652c09	-0.0559502
27	0xb6c3c2c0	-5.8341247e-06
28	0xbe4a6c35	-0.1976784
29	0xbe2a909a	-0.16656724
30	0xbdcc65e0	-0.099803686
31	0x3e185e9f	0.14879845
32	0xbe841527	-0.25797388
33	0xbc605e9b	-0.013694431
34	0x3d949ae3	0.07256105
35	0x3e1ca58c	0.15297526
36	0x3dd89d14	0.10576835
37	0xbbed8519	-0.0072485325
38	0x3dd92086	0.106019065
39	0xbe29f349	-0.16596712
40	0xbd33a908	-0.043862373
41	0xbde0f8fd	-0.10984991
42	0x3dc6e312	0.09711279
43	0x3df11f65	0.11773566
44	0xbd3d0944	-0.046151415
45	0xbe2f362e	-0.17110512
46	0xbe23a989	-0.15982641
47	0x3dc58d48	0.09646088
48	0x3e3bd23f	0.18341921
49	0xbdcd532c	-0.100256294
50	0xbd3d4ebf	-0.046217676
51	0x3e3d939e	0.18513343
52	0xbe1f6c85	-0.1556874
53	0xbe5d2038	-0.21594322
54	0x3da33f12	0.07971014
55	0x3e38ede9	0.18059506
56	0xbe0ca48a	-0.13734642
57	0xbe40afd1	-0.18817069
58	0x3e4eb5ff	0.20186614
59	0x3d3bc914	0.04584606
60	0xbd2f9895	-0.042870123
61	0xbc980c32	-0.018560503
62	0xbd046492	-0.032322474
63	0x3e614927	0.22000562
64	0x3e03b768	0.12862933
65	0xbd613576	-0.054982625
66	0x3d9a8eb4	0.0754675
67	0xbded0964	-0.11574057
68	0x3d560115	0.052247126
69	0x3df3049a	0.11866112
70	0x3d63aa8b	0.055582564
71	0x3ced90b9	0.028999673

rnn.weight_ih_l1 f4 [72, 24]
0	0x3d112259	0.035433147
1	0x3c4bbc99	0.012435102
2	0xbdb6accd	-0.08919678
3	0xbde6ee36	-0.11275904
4	0x3e4467ee	0.19180271
5	0xbe1cd9ee	-0.15317509
6	0x3e58ca39	0.21170892
7	0xbd1dd002	-0.03852845
8	0xbe4a4038	-0.1975106
9	0x3d5126de	0.051062457
10	0xbe43cd5e	-0.1912131
11	0xbd8d8cb7	-0.06911605
12	0xbe6c1818	-0.23056066
13	0xbe11f5b5	-0.14253886
14	0xbe65f86b	-0.22458045
15	0x3dac571f	0.084150545
16	0xbcb617df	-0.02222818
17	0xbc8072f1	-0.015679808
18	0xbda70694	-0.081555516
19	0xbca715cc	-0.020396136
20	0x3e0fe00e	0.14050314
21	0x3dbd7eb0	0.09252679
22	0x3e58097d	0.2109737
23	0xbdbfff8f	-0.09374916
24	0xbd0a4458	-0.033756584
25	0xbe67bcf7	-0.22630678
26	0xbce9abf5	-0.028524378
27	0xbe2d52ca	-0.16926113
28	0x3d4ed175	0.050492723
29	0x3e47cb09	0.19511046
30	0xbb9e27db	-0.0048265285
31	0x3e05c679	0.13063993
32	0xbe034531	-0.12819363
33	0xbdd22e39	-0.102627225
34	0xbdbfcfc6	-0.093658015
35	0x3d34d6e0	0.044150233
36	0xbe7b4afa	-0.2454032
37	0xbda0a3fe	-0.07843779
38	0xbe74fc8b	-0.23924462
39	0x3e053684	0.13009077
40	0xbd7da9e1	-0.061929587
41	0xbe081af1	-0.13291527
42	0xbdb3ff53	-0.087889336
43	0x3d8aa5e8	0.06769925
44	0xbdf75250	-0.12076247
45	0x3e669c9a	0.22520676
46	0x3da71563	0.08158376
47	0xbd0cc041	-0.034363035
48	0x3e3bdc74	0.18345815
49	0x3daf2782	0.085524574
50	0x3e5ee867	0.21768342
51	0x3da0db43	0.07854321
52	0xbc226aff	-0.009913205
53	0x3e0b82e4	0.1362415
54	0xbc23bcd0	-0.009993747
55	0x3e1277b7	0.1430348
56	0x3e3044d4	0.17213756
57	0xbdbe1326	-0.09280996
58	0x3cbc06c9	0.022952454
59	0x3e0f8c52	0.14018372
60	0x3e676a21	0.22599079
61	0xbb1a9503	-0.0023587353
62	0x3e48ac01	0.19596864
63	0x3db6d008	0.089263976
64	0xbd91e63e	-0.07123993
65	0xbe631c19	-0.22178687
66	0xbde0d58a	-0.10978229
67	0x3e303d71	0.17210938
68	0xbde62be8	-0.11238843
69	0xbe15d5ca	-0.14632335
70	0x3e22cdcd	0.1589882
71	0x3e380cad	0.17973585
72	0x3df555d3	0.1197926
73	0x3c28582f	0.010274931
74	0xbdb9d01a	-0.09072895
75	0x3e2a7eae	0.16649887
76	0x3b06d8c4	0.002057598
77	0x3e08d04a	0.13360706
78	0xbe16a676	-0.14711937
79	0x3d09dd29	0.03365818
80	0xbe5d82ae	-0.21631882
81	0xbd8f018c	-0.06982717
82	0xbe2c9cf1	-0.16856743
83	0x3c4ab625	0.012372528
84	0x3e4a72a8	0.197703
85	0xbe0eb078	-0.13934505
86	0xbdbbef6f	-0.09176528
87	0xbd787ec5	-0.06066777
88	0x3e4372cf	0.19086765
89	0xbe24a1d4	-0.16077358
90	0xbe2ac842	-0.16677955
91	0x3b8c5b91	0.0042833765
92	0x3e0db224	0.13837487
93	0x3e1d3474	0.1535204
94	0xbca158e4	-0.019695707
95	0xbe700976	-0.23441109
96	0xbd3cc3e9	-0.046085272
97	0xbd548864	-0.051887885
98	0xbdb70bd3	-0.08937802
99	0xbde89130	-0.11355817
100	0x3e4bc1f6	0.19898209
101	0xbdd157bf	-0.10221814
102	0xbda99d76	-0.082819864
103	0x3e2ae319	0.16688193
104	0xbe536394	-0.20643455
105	0x3c82aff2	0.015953038
106	0x3d79482d	0.060859848
107	0xbe32d7c1	-0.17465116
108	0x3e26f77a	0.16305342
109	0xbbe5452a	-0.0069967704
110	0xbdddd8a6	-0.10832338
111	0xbe3ef2f5	-0.18647368
112	0xbda4a3b2	-0.08039035
113	0x3e349f30	0.1763885
114	0xbdc5a6f7	-0.09650987
115	0xbe19263d	-0.14955993
116	0xbe303ec8	-0.17211449
117	0xbbb3b1b2	-0.0054838294
118	0xbe183647	-0.14864455
119	0xbd6a8a9b	-0.05726109
120	0x3e15e29d	0.14637227
121	0xbb876cdb	-0.0041328496
122	0x3db85230	0.09000051
123	0x3c9bd435	0.019022087
124	0x3db0dadb	0.08635493
125	0x3e3c4430	0.18385386
126	0xbde9a1e9	-0.11407835
127	0x3ca897e1	0.020580234
128	0xbdd6b555	-0.10483805
129	0x3dcbfc22	0.099602
130	0xbde36f10	-0.11105168
131	0xbd41ac7c	-0.047283635
132	0xbe05a9b7	-0.13053022
133	0x3aadc101	0.0013256372
134	0x3e0ccc62	0.13749841
135	0x3de63f8f	0.112425916
136	0x3e1957fa	0.14974967
137	0x3da378ca	0.07982023
138	0xbe029f23	-0.12756018
139	0xbd530fb6	-0.051528655
140	0xbe4da886	-0.20083818
141	0xbd6589b2	-0.05603952
142	0xbe512c8e	-0.20427153
143	0xbe550676	-0.20803246
144	0x3e3f373c	0.18673414
145	0x3e2d46f2	0.16921595
146	0xbc3bb464	-0.011456583
147	0x3e826cc8	0.25473619
148	0x3e275382	0.1634045
149	0xbdfcecb3	-0.12349834
150	0xbe68d7b2	-0.22738531
151	0xbd395612	-0.0452481
152	0xbe0e1fcf	-0.13879322
153	0x3d9af9ef	0.07567202
154	0x3cfd9cdc	0.030958585
155	0x3e1c54ed	0.15266772
156	0xbbf29377	-0.007402833
157	0xbd1d42d1	-0.0383938
158	0x3db81c9f	0.08989834
159	0xbd500cc0	-0.05079341
160	0x3e17e926	0.14835033
161	0x3de4c592	0.11170496
162	0xbd5be2a2	-0.05368293
163	0x3db63b06	0.088979766
164	0xbe60e79b	-0.2196335
165	0xbd7e963f	-0.062155005
166	0xbd1ead5d	-0.03873955
167	0xbd99dd55	-0.07512919
168	0x3c823904	0.015896328
169	0xbdb3b4e1	-0.08774734
170	0x3c0ee2f8	0.008721106
171	0x3d407098	0.046982378
172	0xbbaacaab	-0.005212148
173	0x3e2bec92	0.16789463
174	0xbde2f8c8	-0.110826075
175	0x3c773f59	0.015090787
176	0x3e02afa2	0.12762311
177	0xbe44a6c9	-0.19204248
178	0xbd54855a	-0.051884986
179	0xbe07466d	-0.13210459
180	0x3e7bbf3e	0.24584672
181	0xbe83869b	-0.25688633
182	0xbaec2e5f	-0.0018019191
183	0x3bbddfb0	0.005794488
184	0x3e4694b6	0.19392666
185	0x3d797a30	0.060907543
186	0xbe3f9335	-0.18708499
187	0x3dbed2e4	0.09317568
188	0xbd977561	-0.07395435
189	0xbcb33d49	-0.021879809
190	0x3d8b4c51	0.068016656
191	0x3e0c92d1	0.13727881
192	0xbe3f39c6	-0.18674383
193	0xbdaf8d0a	-0.08571823
194	0x3c7298a0	0.014806896
195	0x3dcd7d65	0.10033683
196	0xbe52cfe8	-0.20587122
197	0xbd4a2fd6	-0.049362026
198	0x3e12f265	0.14350279
199	0x3d3a0b40	0.045420885
200	0xbda1bb91	-0.078971036
201	0x3e5b0ab9	0.21390809
202	0x3e4c97bc	0.19979757
203	0x3e70698b	0.23477761
204	0x3d525a26	0.051355503
205	0x3e65bd82	0.22435573
206	0x3cd6a1f6	0.026200276
207	0x3e4edc88	0.20201313
208	0xbd8172f4	-0.06320754
209	0xbe0ec474	-0.13942128
210	0x3e667dfa	0.22508994
211	0xbe116e49	-0.14202227
212	0xbdf1fb94	-0.11815563
213	0xbdf2427e	-0.11829089
214	0x3d6e48cd	0.058174897
215	0x3d0f5830	0.03499621
216	0xbceca8a5	-0.02888901
217	0xbe3a719a	-0.18207398
218	0xbdc9e7f6	-0.09858696
219	0xbd9b3bb8	-0.0757975
220	0xbda9c4f7	-0.08289521
221	0x3e170cd5	0.14750989
222	0x3dcfe8bf	0.10151815
223	0x3cb719f5	0.022351244
224	0xbc4f11b6	-0.0126385
225	0x3e0f50ea	0.1399571
226	0xbd180dc7	-0.037122514
227	0xbe4f6db4	-0.20256692
228	0x3e1cc868	0.15310824
229	0x3b0f3ef3	0.002185759
230	0x3d8cd2ce	0.06876145
231	0x3e1d86a6	0.15383396
232	0x3e2af97c	0.16696733
233	0xbe38e907	-0.18057643
234	0xbe4897ed	-0.19589205
235	0xbd8f0f9b	-0.069853984
236	0xbdde8a84	-0.108662635
237	0xbc398f81	-0.011325718
238	0xbe6c58d7	-0.23080765
239	0x3df03167	0.11728173
240	0x3e16ed23	0.14738898
241	0x3bf1d95c	0.0073806476
242	0xbd9a347c	-0.07529542
243	0x3e579328	0.2105223
244	0xbe659cee	-0.22423145
245	0xbd9c5f3c	-0.07635352
246	0x3c00fde9	0.007873037
247	0x3cd33b5c	0.02578514
248	0xbdb79d85	-0.08965591
249	0xbdb55b5f	-0.08855318
250	0xbe57b289	-0.210642
251	0x3d1a4e15	0.03767212
252	0xbdb71794	-0.08940044
253	0x3d6fc943	0.058541548
254	0xbe0a1596	-0.13484797
255	0x3bc7f6a7	0.0061024013

rnn.weight_hh_l1 f4 [72, 24]
0	0x3e21c2fc	0.15797037
1	0xbd90c56a	-0.07068904
2	0x3dd939f3	0.10606756
3	0x3dc3c3d1	0.095588334
4	0x3e727e75	0.23681052
5	0xbe47de5f	-0.19518422
6	0x3cabed1f	0.020987092
7	0x3e01dbfd	0.12681575
8	0x3d70a5f9	0.058752034
9	0x3d0eaf36	0.034835063
10	0x3e394ccf	0.18095706
11	0x3ba87d03	0.0051418557
12	0x3dc6e009	0.097107
13	0xbd44c7df	-0.048042174
14	0xbe1146db	-0.14187185
15	0x3ddcc319	0.107793994
16	0xbdcf234e	-0.10114156
17	0x3e46b438	0.19404685
18	0x3e3a3cbc	0.18187231
19	0x3c6edcae	0.014578981
20	0x3d9ee3dc	0.077583045
21	0x3db999bb	0.09062525
22	0xbe1b4fc2	-0.15167144
23	0x3e0429d8	0.12906587
24	0xbcbda5d6	-0.023150366
25	0xbbe87fdb	-0.0070953197
26	0x3db8e7f0	0.090286136
27	0xbe4ef0fe	-0.20209119
28	0xbe0a5297	-0.13508068
29	0xbe15aff2	-0.14617899
30	0xbc984410	-0.018587142
31	0x3e217d2b	0.15770404
32	0x3dcc3383	0.099707626
33	0xbdefb194	-0.11703792
34	0x3d740cb7	0.05958244
35	0xbd15a25e	-0.0365318
36	0x3e473b90	0.19456315
37	0xbdbf91ab	-0.09353956
38	0xbdf5c124	-0.11999729
39	0x3e85b15b	0.26111874
40	0x3cc97941	0.024593951
41	0xbe4e1786	-0.20126161
42	0xbe02dcce	-0.12779543
43	0xbe5680d6	-0.20947585
44	0xbda659e6	-0.081226155
45	0xbe53f194	-0.20697623
46	0xbbd4ebfa	-0.006497857
47	0x3d678b96	0.056529604
48	0xbe189295	-0.14899667
49	0xbd87ae3f	-0.06625032
50	0xbd920988	-0.07130724
51	0x3d339f81	0.043853287
52	0xbe489194	-0.19586784
53	0x3c0fc186	0.008774167
54	0x3e4188ae	0.18899795
55	0x3e453ec7	0.19262229
56	0x3e7538ba	0.2394742
57	0xbe020e2f	-0.12700723
58	0xbe7c45d5	-0.24636014
59	0x3d57897d	0.052621353
60	0xbce813c1	-0.028329732
61	0x3dc8717d	0.09787271
62	0xbdc96aab	-0.098347984
63	0x3dd76cf2	0.105188265
64	0x3de7effe	0.11325072
65	0xbd0dbd0c	-0.034604117
66	0x3d9e2c01	0.07723237
67	0xbd119ce1	-0.035550002
68	0xbe6516b7	-0.22371946
69	0x3e372596	0.17885432
70	0xbe3e1c82	-0.18565562
71	0xbdb9f60a	-0.09080131
72	0x3e3ee955	0.18643697
73	0x3e038874	0.12845021
74	0x3e0fe402	0.14051822
75	0x3e1212f5	0.14265044
76	0xbdb8dd1f	-0.090265505
77	0x3e475093	0.1946433
78	0x3ccc6a6e	0.024953093
79	0x3d782216	0.060579382
80	0xbdb646ed	-0.08900247
81	0xbd99f93d	-0.075182416
82	0xbdaa75f7	-0.08323281
83	0x3e1af826	0.15133724
84	0x3d569772	0.052390523
85	0x3cac41e7	0.021027518
86	0xbd93f724	-0.07224873
87	0xbe50aa07	-0.2037736
88	0xbd2eb330	-0.042651355
89	0xbe1c9046	-0.15289411
90	0xbd86f4de	-0.065896735
91	0xbc9a6008	-0.01884462
92	0x3ce50758	0.027957603
93	0x3e6d98ce	0.23202822
94	0x3daef2e7	0.08542424
95	0xbd3abb7d	-0.04558896
96	0x3e5deba4	0.21671921
97	0xbd6a59d7	-0.057214584
98	0xbe2077ae	-0.15670654
99	0xbc9c946d	-0.019113744
100	0x3e3a99d9	0.1822275
101	0x3c07d323	0.008290085
102	0xbe176ddf	-0.14788006
103	0x3e44b66e	0.19210216
104	0x3e2ff6df	0.17184018
105	0x3e0bf099	0.13666
106	0x3da3a349	0.079901285
107	0x3e43ab0a	0.19108215
108	0x3dbaca2e	0.09120594
109	0x3e47d483	0.1951466
110	0xbe22cbfb	-0.15898125
111	0xbe37af72	-0.17938021
112	0x3d821c6e	0.06353079
113	0x3db05da8	0.086116135
114	0xbc33a0a5	-0.010963594
115	0x3d8a6811	0.0675813
116	0xbe4d4118	-0.20044363
117	0xbd81ca32	-0.06337394
118	0x3d291b7a	0.04128597
119	0xbdb189d3	-0.08668866
120	0xbdce9620	-0.10087228
121	0xbe4af518	-0.19820058
122	0xbd5dd654	-0.054159477
123	0x3db72692	0.089429036
124	0x3caec4fd	0.021334166
125	0x3e0e25f0	0.1388166
126	0x3d970617	0.073742084
127	0xbdfbcf5c	-0.1229541
128	0x3d80aed1	0.062833436
129	0x3dfbe510	0.122995496
130	0x3d98736f	0.07443892
131	0xbdffb4ee	-0.124856815
132	0xbcd2e3e6	-0.025743436
133	0x3e2fcb3f	0.17167376
134	0xbd9c35c7	-0.07627445
135	0xbca587d6	-0.020206373
136	0xbc8fb25f	-0.017541109
137	0x3d33868c	0.043829486
138	0x3cd64d7a	0.02615999
139	0x3e2525ca	0.16127697
140	0xbe50a722	-0.20376256
141	0xbd2794d1	-0.040913407
142	0xbd8e125b	-0.06937095
143	0xbcd9c11d	-0.026581341
144	0xbe196a71	-0.1498201
145	0xbd08c7f3	-0.03339381
146	0xbdb5cdc0	-0.08877134
147	0xbe6fe663	-0.2342773
148	0x3e21cc73	0.15800647
149	0xbd6c3967	-0.05767193
150	0xbd41e40f	-0.047336634
151	0xbe0d7f2d	-0.13818045
152	0x3e46b8ee	0.19406483
153	0x3d4a8808	0.049446136
154	0xbd3a22fc	-0.04544352
155	0xbcccae0a	-0.024985332
156	0x3cb7b463	0.022424882
157	0x3cee363b	0.029078593
158	0x3dd92039	0.10601849
159	0x3e1775e8	0.14791071
160	0xbe05e123	-0.13074164
161	0xbdcb9bec	-0.09941849
162	0xbe315e3c	-0.17321104
163	0xbe2f77a0	-0.17135477
164	0xbddeb8cb	-0.1087509
165	0x3e5dc2c2	0.21656325
166	0xbe24169c	-0.1602425
167	0x3e27bc44	0.16380411
168	0x3e893cf2	0.2680431
169	0xbe346485	-0.1761647
170	0x3e137371	0.14399506
171	0x3e277a80	0.16355324
172	0x3e496a2e	0.1966941
173	0xbd7d0140	-0.06176877
174	0xbd86516b	-0.06558498
175	0x3e46b9aa	0.19406763
176	0x3e49970e	0.19686529
177	0xbdc48d54	-0.09597269
178	0xbe4541f3	-0.19263439
179	0xbe4dbc82	-0.20091441
180	0x3e35ed1a	0.17766228
181	0x3e2bdd3b	0.16783611
182	0xbdd212ef	-0.102575175
183	0x3e11189a	0.14169541
184	0x3e1fae91	0.15593936
185	0xbdcea29e	-0.100896105
186	0x3dd38505	0.10328106
187	0x3d1eb709	0.038748775
188	0xbe6ebc97	-0.23314129
189	0xbc451c90	-0.012030736
190	0x3e4c5c30	0.19957042
191	0x3e68683c	0.22696012
192	0xbe1b3099	-0.15155257
193	0x3cc1899f	0.023625193
194	0x3e520ab3	0.20511894
195	0x3ab30397	0.0013657686
196	0xbe317760	-0.17330694
197	0x3e7334fd	0.23750682
198	0x3d14f6e6	0.036368273
199	0xbd9facd3	-0.077966355
200	0x3e81acc6	0.25327128
201	0xbe252104	-0.16125876
202	0x3c3451a5	0.011005794
203	0xbd5d2fd8	-0.054000705
204	0x3e713f6b	0.23559348
205	0x3d862a72	0.065510646
206	0xbe1de4fe	-0.15419385
207	0x3e564c13	0.20927458
208	0x3e924835	0.28570715
209	0xbdd510dc	-0.10403606
210	0xbd800fb4	-0.06252995
211	0x3d6bcdb8	0.057569236
212	0x3d0190eb	0.031632345
213	0x3e0934b4	0.13399011
214	0xbe138415	-0.14405854
215	0x3d047876	0.032341443
216	0xbd948eb8	-0.07253784
217	0xbe682be6	-0.22672996
218	0xbe19d2fb	-0.15021889
219	0xbdcc382f	-0.09971654
220	0x3df44904	0.11927989
221	0xbe0be13c	-0.13660139
222	0x3d6f54de	0.058430545
223	0x3e65fb94	0.2245925
224	0xbd506a2b	-0.0508825
225	0x3dff5280	0.124669075
226	0xbd26c758	-0.040717453
227	0x3d6b9bc1	0.057521585
228	0x3e6a2f41	0.22869588
229	0x3e045f58	0.12926996
230	0xbdea3903	-0.11436655
231	0xbe0c619e	-0.13709113
232	0x3e53eb29	0.20695175
233	0x3d85e3c0	0.065375805
234	0x3e38200f	0.1798098
235	0x3dd55993	0.104174756
236	0xbe84dea0	-0.259511
237	0xbdb65aef	-0.08904063
238	0x3dc65c36	0.096855566
239	0x3d8d3ef2	0.068967715
240	0x3e3a9a67	0.18222962
241	0x3c140a8d	0.009035719
242	0x3def3ecc	0.116818994
243	0x3daa0924	0.08302525
244	0xbdb0e4c9	-0.08637387
245	0x3d8e5cd6	0.06951301
246	0xbb83e9a0	-0.004025653
247	0x3e47ac8e	0.19499418
248	0x3e2b1754	0.16708118
249	0x3c90d9f6	0.017682057
250	0xbd9cd8f0	-0.07658565
251	0x3e156366	0.14588699
252	0x3d17fc45	0.037105817
253	0xbdebfc62	-0.115227476
254	0xbdb3266b	-0.08747562
255	0xbcf20e1e	-0.029547747

rnn.bias_ih_l1 f4 [72]
0	0x3d93bb77	0.072134905
1	0x3e70899c	0.23489994
2	0xbdf7e13e	-0.121035084
3	0x3d59cf23	0.053176057
4	0x3cdd42e5	0.027009437
5	0xbe0f84f1	-0.14015557
6	0xbdcf2d15	-0.101160206
7	0xbe070308	-0.1318475
8	0x3d0f66a9	0.035010014
9	0xbdcf6a13	-0.10127654
10	0x3b5f7734	0.003409815
11	0xbe68a5d8	-0.22719514
12	0x3d51a727	0.0511848
13	0x3df39a0a	0.11894615
14	0x3cae5e35	0.021285156
15	0x3dad1010	0.08450329
16	0xbd827baa	-0.06371243
17	0x3dd4a9d8	0.103839576
18	0x3d97389e	0.07383846
19	0xbbb71761	-0.005587504
20	0x3e71010f	0.2353556
21	0xbcabacf7	-0.0209565
22	0x3d9419b7	0.07231467
23	0x3e02cea3	0.12774138
24	0xbce9045a	-0.028444458
25	0x3db61308	0.08890349
26	0x3db98dd7	0.09060257
27	0xbe137745	-0.14400966
28	0xbde2fab1	-0.11082972
29	0x3c046ba8	0.008082308
30	0xbe82e027	-0.2556164
31	0x3daf2f20	0.0855391
32	0x3e32e157	0.17468773
33	0x3c45260e	0.012032999
34	0xbdf7596e	-0.12077604
35	0x3cde97c5	0.027171979
36	0x3d1b77e4	0.037956133
37	0xbe5ecfc5	-0.21758945
38	0x3d02379c	0.031791314
39	0xbcf9cf22	-0.030494276
40	0xbcc8d060	-0.024513423
41	0xbdf2590e	-0.11833392
42	0xbdb741c4	-0.08948091
43	0xbe5520f8	-0.20813358
44	0x3cabd10a	0.020973701
45	0x3d75c8d7	0.06000599
46	0xbda55dee	-0.08074556
47	0xbdf1be0a	-0.11803825
48	0x3d536588	0.0516105
49	0x3d982e10	0.07430661
50	0xbe2a94f1	-0.16658379
51	0x3c755803	0.014974597
52	0xbe609512	-0.21931866
53	0xbddc23d3	-0.107490204
54	0xbe5372ec	-0.20649308
55	0x3df8246d	0.12116323
56	0xbdf97ee8	-0.121824086
57	0x3dfa43e7	0.122199826
58	0x3e24e968	0.16104662
59	0xbd007f03	-0.031371128
60	0x3e2d7868	0.16940463
61	0xbe53de99	-0.20690383
62	0x3e3cc0fa	0.1843299
63	0x3d389570	0.04506439
64	0xbc8f7220	-0.017510474
65	0xbe5583cd	-0.2085106
66	0x3df12802	0.11775209
67	0xbe0cb5c4	-0.13741213
68	0x3cd2e6d9	0.025744842
69	0xbdc62821	-0.09675623
70	0x3dc8f7dc	0.098129004
71	0xbe47809c	-0.19482654

rnn.bias_hh_l1 f4 [72]
0	0x3de0f133	0.10983505
1	0x3dd6fca1	0.10497404
2	0x3cbcb8ca	0.023037333
3	0xbdaec481	-0.08533574
4	0x3cbfba4a	0.02340426
5	0x3e4e1c57	0.20127998
6	0x3e03a04f	0.12854122
7	0x3d1d8bfe	0.038463585
8	0xbe647f4e	-0.22314188
9	0xbe2cdf35	-0.16882022
10	0xbe5bd25e	-0.21466967
11	0x3d810623	0.062999986
12	0x3e01ac8b	0.12663476
13	0x3c7d8be5	0.015475248
14	0xbe506fee	-0.20355198
15	0x3e18620f	0.14881156
16	0x3d453920	0.04815018
17	0xbdceaa2a	-0.1009105
18	0xbdd1b4be	-0.10239552
19	0xbda7756c	-0.08176693
20	0x3d2d4da2	0.042310365
21	0xbdb7d38c	-0.08975896
22	0xbe2f30d6	-0.17108473
23	0x3e21bf30	0.15795588
24	0xbd3e6987	-0.046487357
25	0x3dec205f	0.11529612
26	0xbe7d5205	-0.24738319
27	0xbdf7f349	-0.1210695
28	0x3d91417c	0.07092568
29	0x3db9192d	0.09038005
30	0x3d2da29c	0.042391405
31	0x3d443081	0.04789782
32	0x3c4ad4ca	0.012379834
33	0x3d2735e2	0.04082287
34	0xbe1ce509	-0.15321745
35	0xbe700877	-0.23440729
36	0xbe332d6c	-0.17497796
37	0xbe81d51d	-0.25357905
38	0xbe622d19	-0.22087516
39	0xbe25d97f	-0.1619625
40	0xbdcb6312	-0.099310055
41	0xbe62af3d	-0.2213716
42	0xbe852647	-0.26005766
43	0xbe24f47d	-0.1610889
44	0xbe86a934	-0.26300967
45	0xbe863e7e	-0.26219553
46	0x3d785440	0.060627222
47	0xbdb73db1	-0.089473136
48	0xbdafc92c	-0.08583292
49	0xbe31af58	-0.17352045
50	0x3e363eae	0.17797348
51	0x3de1e111	0.11029256
52	0x3df2f605	0.11863331
53	0xbd149341	-0.036273245
54	0x3c0f6f04	0.0087544955
55	0xbe08054e	-0.13283274
56	0x3e141c57	0.14463936
57	0xbdc1f8fa	-0.09471317
58	0x3e277a72	0.16355303
59	0xbd418be6	-0.04725256
60	0xbdafbbe2	-0.08580758
61	0xbe801fca	-0.25024253
62	0x3d745a4d	0.05965643
63	0x3e936062	0.28784472
64	0x3e0d5cb4	0.13804895
65	0xbcaad94b	-0.020855566
66	0x3e4519a5	0.19248064
67	0x3ca6c291	0.020356448
68	0xbd981034	-0.074249655
69	0xbdf1ca0c	-0.118061155
70	0x3e14299f	0.14469002
71	0xbc1a64d8	-0.009423457

rnn.weight_ih_l2 f4 [72, 24]
0	0xbe35cdf0	-0.1775434
1	0xbe3c0753	-0.18362169
2	0x3d34c44d	0.04413252
3	0x3d8aa36e	0.06769453
4	0xbe71522f	-0.23566507
5	0x3d524f3b	0.05134509
6	0xbe4c2a58	-0.19938028
7	0x3d252a19	0.04032335
8	0xbd744fc2	-0.059646375
9	0x3cf28a88	0.029607072
10	0xbe50f255	-0.20404942
11	0xbdcb4d19	-0.099268146
12	0x3d169528	0.03676334
13	0xbe3f2088	-0.18664753
14	0xbd968b6b	-0.073508106
15	0xbd926907	-0.071489386
16	0xbc8bb1ca	-0.01705255
17	0x3d72e02e	0.059295826
18	0x3d8fecbe	0.07027577
19	0xbe2fa75b	-0.17153685
20	0x3df5edda	0.12008257
21	0x3e003291	0.1251929
22	0x3e0d572a	0.13802782
23	0x3dcedb4b	0.101004206
24	0x3da9f4cd	0.08298645
25	0xbe51cb0e	-0.20487615
26	0xbe598cc0	-0.21245098
27	0x3d506a58	0.050882667
28	0xbe002ea1	-0.12517788
29	0x3da8e902	0.08247568
30	0xbda29d29	-0.07940132
31	0x3dcfb149	0.10141236
32	0xbd82611a	-0.06366177
33	0xbdbc8332	-0.09204711
34	0x3a132e0c	0.00056144665
35	0x3dd0e64e	0.10200177
36	0x3baa91b6	0.0052053584
37	0xbdb8dbc0	-0.09026289
38	0xbdc85945	-0.09782652
39	0xbdf39c33	-0.11895027
40	0xbdc35364	-0.0953739
41	0x3e3b267c	0.182764
42	0x3d5eca3b	0.05439208
43	0x3d96d32c	0.073644966
44	0x3e2353b4	0.15949899
45	0xbdd9c08c	-0.106324285
46	0xbdfd3e5e	-0.12365411
47	0x3e51cedf	0.20489071
48	0x3df54a7f	0.119770996
49	0x3e6acd59	0.22929896
50	0x3e132632	0.14370039
51	0x3d64205f	0.055694934
52	0xbd4cb13a	-0.049973704
53	0xbd3c6761	-0.045997027
54	0x3b4b0342	0.0030977284
55	0xbd3ed7f3	-0.046592664
56	0x3e21984d	0.15780754
57	0xbe01def3	-0.12682705
58	0x3dd1ac6b	0.10237964
59	0xbbcc0c3b	-0.006227044
60	0xbe00b1f4	-0.12567884
61	0x3e2f8fa7	0.17144643
62	0xbcbe0571	-0.023195954
63	0xbe905ebc	-0.28197277
64	0x3d744cc6	0.05964353
65	0xbe0237f0	-0.12716651
66	0xbe04cb5f	-0.12968205
67	0x3b582efd	0.0032986992
68	0xbe40a903	-0.18814473
69	0x3d103dae	0.035215072
70	0x3e6db939	0.23215188
71	0x3d1fc59c	0.039006814
72	0x3da49b68	0.08037454
73	0xbe38cf7d	-0.180479
74	0xbca9b935	-0.020718196
75	0x3e1fd388	0.15608037
76	0x3e306bbd	0.17228599
77	0x3e2ea515	0.17055161
78	0xbd94633e	-0.072454914
79	0xbd2b33e5	-0.041797537
80	0x3e7125be	0.23549554
81	0xbde5af88	-0.112151206
82	0x3dc461f8	0.095889986
83	0xbd3320ed	-0.043732572
84	0xbd4d2d56	-0.050092064
85	0xbdb05af0	-0.08611095
86	0xbdf789ae	-0.12086807
87	0x3da154b6	0.078774855
88	0x3dc29a43	0.09502079
89	0x3c16d2aa	0.0092055
90	0xbe003946	-0.12521848
91	0x3db05290	0.086094975
92	0x3dc85228	0.09781295
93	0x3e13b76a	0.14425436
94	0x3e013ceb	0.12620895
95	0x3c52faec	0.012877207
96	0xbe88e25d	-0.267352
97	0xbc8f4e7f	-0.017493485
98	0xbe101ce1	-0.14073516
99	0xbd3b9262	-0.0457939
100	0x3d875ebb	0.06609865
101	0xbdacf0d1	-0.084443696
102	0x3d0013ca	0.031268872
103	0x3cd59414	0.026071586
104	0x3c7869b7	0.015161923
105	0xbe05453c	-0.13014692
106	0xbdb93c44	-0.09044698
107	0x3d1b3429	0.03789154
108	0xbe260ee6	-0.16216621
109	0xbe298a50	-0.16556668
110	0x3d995b28	0.0748809
111	0x3c51bb6f	0.012801035
112	0x3dbb7de1	0.09154869
113	0x3b435aa1	0.0029808658
114	0xbe053a7d	-0.13010593
115	0xbd8ea9b5	-0.06965963
116	0x3de6e201	0.112735756
117	0xbe9ca442	-0.3059407
118	0x3c83dd37	0.016096694
119	0xbe2237be	-0.15841576
120	0x3dc3efba	0.095672086
121	0xbe487963	-0.19577555
122	0xbd774e53	-0.06037743
123	0xbc0eac88	-0.008708127
124	0x3d9b37d8	0.07579011
125	0xbe30188c	-0.17196864
126	0x3d5d91aa	0.054093994
127	0x3e593b0f	0.21213935
128	0xbe42b7ed	-0.19015475
129	0xbca77f98	-0.020446584
130	0xbd4e4cb9	-0.050366137
131	0xbe267b8c	-0.16258067
132	0xbe3c02e3	-0.18360476
133	0xbe4d4ea6	-0.20049533
134	0x3d8151cd	0.063144304
135	0xbd2dfd7c	-0.04247807
136	0xbcd1f366	-0.025628757
137	0xbe7f0cc1	-0.24907209
138	0xbe116743	-0.14199547
139	0xbdc08cd7	-0.09401863
140	0xbe0ca924	-0.13736397
141	0x3e037688	0.12838185
142	0x3d173066	0.03691139
143	0xbc2a5b88	-0.010397799
144	0xbca22e84	-0.019797571
145	0xbd99880c	-0.07496652
146	0x3d0bac0a	0.034099616
147	0x3c691ea4	0.014228497
148	0x3d94bb08	0.07262236
149	0x3e3106e5	0.17287786
150	0xbd1a904d	-0.037735272
151	0x3de876e3	0.11350801
152	0x3dbd4b73	0.092429064
153	0xbe099be8	-0.1343838
154	0xbdfd8e63	-0.12380674
155	0xbd509162	-0.050919898
156	0x3df5ad2c	0.119959205
157	0x3e253504	0.16133505
158	0xbc91a958	-0.017780945
159	0x3da0dad7	0.078542404
160	0x3e935658	0.28776813
161	0xbd8d59db	-0.06901904
162	0xbe619f52	-0.22033432
163	0x3e5616ff	0.2090721
164	0x3c53360f	0.012891307
165	0xbdcf9bb1	-0.10137118
166	0xbd8b7a05	-0.06810383
167	0xbd139b5a	-0.036036827
168	0x3e679f88	0.2261945
169	0xbe5a0dbf	-0.21294306
170	0xbdc3640b	-0.09540566
171	0x3e89221e	0.26783842
172	0x3cb1e41e	0.02171522
173	0xbdd759dc	-0.10515186
174	0xbd025e11	-0.03182799
175	0xbe6e17a5	-0.23251207
176	0xbc2a5618	-0.010396503
177	0xbd1e3666	-0.038626097
178	0xbe20b226	-0.15692958
179	0xbe0ba4f9	-0.13637151
180	0x3ddcd8b4	0.1078352
181	0x3d3a85b6	0.045537673
182	0x3e37e53a	0.17958537
183	0xbdddfd6f	-0.10839354
184	0xbdf154d8	-0.11783761
185	0x3c632917	0.013864777
186	0x3deaf2be	0.11472081
187	0x3e0569b4	0.13028604
188	0xbb4c730c	-0.0031196503
189	0xbe1f78d0	-0.1557343
190	0x3d7a711c	0.061143026
191	0xbc9aca82	-0.018895391
192	0x3dbdf6e3	0.092756055
193	0xbe39fd1c	-0.1816296
194	0x3e36d732	0.17855528
195	0xbe1582ff	-0.14600752
196	0xbe79903a	-0.24371424
197	0x3e419dc7	0.18907844
198	0xbdf69981	-0.12040997
199	0xbd3a7dd7	-0.045530166
200	0xbcfc56ab	-0.030803045
201	0xbe4b302b	-0.19842593
202	0xbcccd11b	-0.025002053
203	0x3e3f89ee	0.1870496
204	0x3e7e2b99	0.24821319
205	0xbe917558	-0.2840984
206	0x3db33fcb	0.08752402
207	0xbcf4bda4	-0.029875584
208	0x3ea32db8	0.31870818
209	0xbe0eb7f1	-0.13937356
210	0xbcbccee8	-0.02304788
211	0xbdac2388	-0.084052145
212	0xbe90b536	-0.28263253
213	0xbe8c6412	-0.27420098
214	0x3ca65655	0.020304838
215	0x3debbe26	0.11510877
216	0x3cc2547e	0.02372193
217	0xbe87bebd	-0.2651271
218	0x3dc56f79	0.09640402
219	0xbdf396c7	-0.11893993
220	0x3dea5411	0.11441816
221	0xbcb6a34a	-0.02229466
222	0x3cb94fa3	0.022620982
223	0xbdb75096	-0.089509174
224	0x3cd8f15d	0.026482278
225	0x3d53973f	0.05165791
226	0x3e54f393	0.20796041
227	0xbe75607f	-0.23962592
228	0x3d8825a2	0.06647803
229	0xbe34e13a	-0.17664042
230	0x3d14f1ed	0.03636353
231	0x3d7372e2	0.059435733
232	0xbe2390cd	-0.15973206
233	0x3e346a34	0.17618638
234	0xbe130f0f	-0.14361213
235	0xbd5e5965	-0.054284472
236	0x3d6767ca	0.056495465
237	0x3d933f87	0.07189851
238	0x3e729e7b	0.23693268
239	0x3dc81d3c	0.09771201
240	0x3e80b2c5	0.2513639
241	0x3cc5de91	0.02415398
242	0xbd7fd6b6	-0.062460624
243	0x3d546873	0.051857423
244	0xbd8fe8ee	-0.0702685
245	0xbe46db24	-0.19419533
246	0x3dc72973	0.09724703
247	0x3e0e214e	0.13879892
248	0x3e4a9232	0.19782332
249	0xbdee776c	-0.11643872
250	0xbdd69477	-0.10477536
251	0xbda4780b	-0.08030709
252	0xbe10f137	-0.14154516
253	0xbd468e3a	-0.04847548
254	0x3e00c47d	0.12574954
255	0xbc890438	-0.016725644

rnn.weight_hh_l2 f4 [72, 24]
0	0xbdd6af88	-0.10482699
1	0x3d5d1646	0.05397632
2	0x3e10d703	0.1414452
3	0x3cd30d74	0.02576325
4	0x3cbca834	0.023029424
5	0x3c316e2d	0.010829491
6	0xbd777292	-0.060411997
7	0x3dcf6b13	0.10127845
8	0xbe008c92	-0.12553623
9	0x3df650d2	0.12027134
10	0xbc1eba78	-0.009688012
11	0xbd50d276	-0.05098196
12	0xbe435e28	-0.19078887
13	0xbe1d6a96	-0.1537269
14	0x3e003bcc	0.1252281
15	0x3dd647d2	0.104629174
16	0x3da6e583	0.08149245
17	0x3dd0db85	0.1019812
18	0xbe408d48	-0.18803895
19	0xbd747d96	-0.05969008
20	0x3bd4b710	0.0064915493
21	0xbdd87444	-0.10569051
22	0x3df45108	0.11929518
23	0x3da2ffed	0.0795897
24	0x3cd7bee3	0.026336139
25	0xbdc0ebd2	-0.09419979
26	0xbb196d5c	-0.002341113
27	0x3e59558a	0.21224037
28	0xbdcd9e9d	-0.10040019
29	0x3d90b456	0.07065646
30	0x3e560ec4	0.2090407
31	0xbd1c5c69	-0.038174067
32	0xbd8078e5	-0.06273059
33	0xbe5fcfec	-0.2185666
34	0xbd9fc48a	-0.07801159
35	0xbdc4cd0f	-0.09609424
36	0x3dfa79d3	0.122302674
37	0xbdbf7bcf	-0.093497865
38	0x3d88f1cb	0.06686743
39	0xbdbbd852	-0.09172119
40	0x3e75bf6f	0.23998807
41	0x3d343b83	0.044002067
42	0xbde91e17	-0.11382692
43	0x3d1cbb12	0.03826434
44	0x3d7fb4ad	0.062428165
45	0xbe7b1ade	-0.24521968
46	0xbd84d5f4	-0.06486121
47	0xbdfcda29	-0.12346298
48	0x3e502fa7	0.20330678
49	0xbdd2bf27	-0.10290366
50	0xbe6af6aa	-0.22945657
51	0x3c686f83	0.014186743
52	0x3e001237	0.12506948
53	0xbdd422d4	-0.103582054
54	0xbd2e34ef	-0.04253095
55	0x3dc6eaa0	0.0971272
56	0x3e7aad9f	0.24480294
57	0x3e688b80	0.22709465
58	0x3e061ddc	0.13097328
59	0x3e15388f	0.14572357
60	0x3e41dd1d	0.18932004
61	0x3dbd797f	0.09251689
62	0x3e4afdfc	0.1982345
63	0xbdefbf86	-0.11706452
64	0x3e1a38a9	0.15060677
65	0x3dea043d	0.1142659
66	0x3d594afd	0.05305003
67	0xbe0abc1e	-0.13548324
68	0x3e288d9b	0.16460268
69	0x3e1c3a07	0.1525651
70	0xbe494467	-0.19655
71	0x3e10bd72	0.14134768
72	0x3ded03ee	0.11573015
73	0x3d94f80c	0.07273874
74	0x3d8d387c	0.06895539
75	0x3c912e05	0.01772214
76	0xbd22e4ce	-0.039768986
77	0xbd360d0c	-0.044446036
78	0x3e0424fd	0.12904735
79	0x3e27f691	0.16402651
80	0x3e3a4aca	0.18192592
81	0x3e29362a	0.16524568
82	0xbda7d2c4	-0.08194497
83	0xbd7b65e8	-0.061376482
84	0xbcb8e42b	-0.022569736
85	0x3cb48058	0.022033855
86	0xbdf52717	-0.119703464
87	0x3d9620f7	0.07330506
88	0x3e0eda55	0.13950475
89	0xbe1ee5c4	-0.15517336
90	0xbd8f6631	-0.07001913
91	0x3d105baa	0.035243668
92	0x3d80e9a5	0.06294564
93	0x3e31c87b	0.17361633
94	0xbde811e3	-0.113315366
95	0x3dc9d6b1	0.09855402
96	0xbe3bb6a1	-0.18331386
97	0x3e6d6b58	0.2318548
98	0xbe3fc69a	-0.18728104
99	0x3e751e62	0.23937371
100	0x3da81793	0.082076214
101	0xbd850ee3	-0.0649698
102	0x3d3a79cf	0.045526322
103	0x3da59d5d	0.08086655
104	0x3d86e522	0.06586672
105	0xbe45aae3	-0.1930347
106	0x3daad119	0.083406635
107	0xbe36ed8f	-0.17864059
108	0xbdfdc456	-0.12390964
109	0xbe396344	-0.18104273
110	0x3e4229d0	0.18961263
111	0xbddef869	-0.10887224
112	0xbdd7af16	-0.10531442
113	0x3d1726e6	0.03690233
114	0xbd0fd713	-0.03511722
115	0xbd9de9b9	-0.07710595
116	0xbe29d85e	-0.16586444
117	0x3cf790a9	0.030220347
118	0x3e291833	0.16513138
119	0xbe517aba	-0.20456973
120	0x3de63a96	0.11241643
121	0xbd565595	-0.05232771
122	0xbe6c6264	-0.23084408
123	0xbd5e3532	-0.05424995
124	0xbe1b4d1b	-0.15166132
125	0xbdcdab04	-0.10042384
126	0xbe1624c1	-0.14662458
127	0x3c76e4e0	0.0150692165
128	0xbdc2919e	-0.095004305
129	0x3e00bdab	0.12572353
130	0xbdcff38f	-0.10153877
131	0x3c33ebfe	0.010981558
132	0xbcb44b73	-0.022008633
133	0xbdd72217	-0.10504549
134	0x3e2e5dd8	0.17027986
135	0x3e384c35	0.1799782
136	0x3cbdbb99	0.023160743
137	0x3da0939f	0.078406565
138	0xbe23fdee	-0.16014835
139	0xbe894a9a	-0.2681473
140	0x3e824797	0.25445244
141	0x3d7773a5	0.06041302
142	0x3c6eaea2	0.014568003
143	0xbdd9814e	-0.10620366
144	0xbcd5f052	-0.02611557
145	0x3d6a6da6	0.057233475
146	0x3e2c1984	0.16806608
147	0xbd823938	-0.0635857
148	0x3dc050d9	0.093904205
149	0x3e32a832	0.17446974
150	0x3d304dd2	0.043042965
151	0xbde116fa	-0.109907106
152	0xbde44454	-0.11145845
153	0xbdbfaf95	-0.093596615
154	0xbb4f2b6b	-0.0031611572
155	0x3e1a5b37	0.15073858
156	0xbe770ce2	-0.24126008
157	0xbe8b999e	-0.27265638
158	0x3d419bfa	0.04726789
159	0x3db202c3	0.08691933
160	0xbdf6e88c	-0.120560735
161	0x3ca80385	0.02050949
162	0xbdc44db8	-0.09585136
163	0xbe16c95e	-0.14725253
164	0x3d879d17	0.066217594
165	0x3e0c21e1	0.13684799
166	0x3d3c8142	0.046021707
167	0xbdec9fb6	-0.115539
168	0x3e17091a	0.14749566
169	0xbe0fb59e	-0.14034125
170	0xbc9607ff	-0.01831436
171	0xbc6c26d7	-0.014413557
172	0x3c013dd5	0.007888277
173	0xbda93a1c	-0.082630366
174	0xbe2e46cd	-0.17019196
175	0xbd8d3a44	-0.06895879
176	0xbc3bb7ec	-0.011457425
177	0x3d4c79fc	0.04992102
178	0xbe14280d	-0.14468403
179	0x3e487393	0.19575338
180	0xbe2b6a59	-0.16739787
181	0xbe1dce2d	-0.15410681
182	0xbded8add	-0.11598752
183	0xbe3c2a5c	-0.18375534
184	0xbde05045	-0.1095281
185	0x3a62001a	0.0008621231
186	0x3d29fc59	0.041500423
187	0x3e72dfc0	0.23718166
188	0xbd7fb957	-0.062432613
189	0xbb74865e	-0.0037311534
190	0xbd61ada2	-0.05509723
191	0x3e3f493b	0.18680279
192	0xbe0d4440	-0.13795567
193	0xbd37ca31	-0.04487056
194	0xbdd8a534	-0.10578385
195	0x3d35dcff	0.04440021
196	0xbe7ca08e	-0.24670622
197	0xbca894c8	-0.020578757
198	0x3e00947b	0.12556641
199	0xbe203441	-0.15644933
200	0x3dbabb63	0.091177724
201	0x3df68447	0.12036949
202	0x3dbd1339	0.09232182
203	0x3da9fe1d	0.083004214
204	0x3bdcaddc	0.006734593
205	0xbd1ecf6d	-0.038772035
206	0xbd481648	-0.048849374
207	0xbcd94fac	-0.026527248
208	0xbdaf1b4a	-0.08550127
209	0xbd2b2688	-0.041784793
210	0xbd862270	-0.06549537
211	0x3d37765b	0.044790607
212	0x3d2fe372	0.042941518
213	0x3e28c004	0.16479498
214	0x3db713f9	0.08939356
215	0x3e08cc76	0.13359246
216	0x3bdac36c	0.006676128
217	0xbd839184	-0.06424239
218	0x3d4ea2d8	0.05044827
219	0x3d1d57f3	0.038413953
220	0xbe240277	-0.16016565
221	0xbe0203f7	-0.12696825
222	0xbe216917	-0.15762745
223	0xbcf9f16f	-0.030510632
224	0x3e0c75ce	0.13716814
225	0x3dddd881	0.108323105
226	0x3e1bc9d6	0.15213713
227	0x3e226f9f	0.15862893
228	0x3e06634b	0.13123815
229	0x3d12bb48	0.035823137
230	0xbd891296	-0.06692998
231	0xbdf4d9cc	-0.11955604
232	0x3df969ca	0.12178381
233	0xbc2eb674	-0.010663617
234	0xbd288394	-0.041141108
235	0xbdf5a21e	-0.11993812
236	0x3dab0bad	0.08351836
237	0x3e12d829	0.14340271
238	0xbe353878	-0.17697322
239	0xbe420af0	-0.18949485
240	0x3ca79a7d	0.020459408
241	0x3d672c9f	0.05643904
242	0xbcd11f6d	-0.02552768
243	0x3e260964	0.1621452
244	0xbdefd517	-0.117105655
245	0xbd939903	-0.07206919
246	0x3de69b40	0.1126008
247	0xbd901cee	-0.07036768
248	0xbd267310	-0.040637076
249	0xbe25d201	-0.16193391
250	0xbe79f05a	-0.24408093
251	0xba225001	-0.0006191731
252	0x3dd06b2b	0.10176691
253	0xbe045835	-0.12924273
254	0xbc8599f8	-0.01630877
255	0x3d08840b	0.03332905

rnn.bias_ih_l2 f4 [72]
0	0xbe0f2488	-0.1397878
1	0x3e1bc8aa	0.15213266
2	0xbd8cc1db	-0.068729125
3	0x3e1c1711	0.15243174
4	0xbd1086ad	-0.035284687
5	0x3d777c02	0.060420997
6	0x3c661e5e	0.014045326
7	0xbe0e5a8e	-0.13901731
8	0x3e465a39	0.19370355
9	0xbbf6f84b	-0.007536923
10	0xbde2d520	-0.110758066
11	0x3df6550a	0.12027939
12	0x3e215478	0.15754879
13	0xbd840fce	-0.06448327
14	0x3da3a1e5	0.07989863
15	0x3d6d5fff	0.057952877
16	0x3e1cf55a	0.15327969
17	0x3e2cab61	0.16862251
18	0x3d5f4322	0.054507382
19	0x3d6948e6	0.056954287
20	0x3e289b93	0.16465597
21	0x3dbfe8e4	0.09370592
22	0x3e452ead	0.19256087
23	0xbde47b84	-0.11156371
24	0xbda3b686	-0.07993798
25	0x3dedb530	0.116068244
26	0xbd07d808	-0.033165008
27	0xbe5d7f77	-0.21630655
28	0x3c377cdc	0.011199202
29	0x3d68fa21	0.056879167
30	0xbe79964c	-0.2437374
31	0x3de17d5e	0.1101024
32	0x3bfd8bb7	0.0077376026
33	0xbe1f8a9e	-0.15580222
34	0xbe4e4726	-0.20144328
35	0xbdf045c7	-0.11732059
36	0x3d0f7392	0.035022326
37	0x3da03897	0.07823294
38	0xbe1ea8a0	-0.15494013
39	0x3ddd71e4	0.108127385
40	0xbe74bfd7	-0.23901306
41	0xbdbbd92f	-0.09172284
42	0xbe8dfd4e	-0.2773232
43	0x3d421dac	0.04739158
44	0xbd68e4fc	-0.056859
45	0x3d29f635	0.041494567
46	0xbe1db128	-0.15399611
47	0xbe8f28dc	-0.2796086
48	0xbda50207	-0.08057027
49	0xbcce65f6	-0.025195103
50	0xbd5c180a	-0.053733863
51	0xbc9e8860	-0.019352138
52	0xbd9fe0f8	-0.07806581
53	0x3e6866ec	0.22695512
54	0xbe094d29	-0.1340834
55	0x3c6b890e	0.014375938
56	0xbd844d0c	-0.06460008
57	0xbe3b6c87	-0.18303119
58	0x3dfc1178	0.123080194
59	0xbe078350	-0.13233685
60	0xbdcdff25	-0.100584306
61	0x3dcf80a6	0.101319596
62	0x3c8ef721	0.017451825
63	0xbe578aee	-0.21049091
64	0x3dfbf3d3	0.12302365
65	0x3e2517b1	0.16122319
66	0xbe0b9e33	-0.13634567
67	0xbc724b49	-0.014788457
68	0xbaceb63d	-0.0015770864
69	0xbc3b12a0	-0.011418015
70	0x3d15cf24	0.036574498
71	0x3e62816f	0.22119687
