models/supervisor.pt (torch, 19302 bytes, 6 tensors)

rnn.weight_ih_l0 f4 [72, 24]
000000 9c 21 bf 3d ac 64 1b be e2 e9 4e 3d 07 bd 8f 3d
       0.09332582 -0.15175122 0.050516017 0.07018476
000010 9b cd ad bd 22 5e 20 bd 5c 10 83 3d 8d ba b3 bd
       -0.08486482 -0.039152272 0.06399605 -0.08775816
000020 c8 df a9 3d 2a cb 62 3e 85 ae ca 3d 66 6f 48 3e
       0.08294636 0.22147813 0.09896568 0.19573745
000030 f2 d3 95 3d 55 c2 85 3e 21 e6 56 3e e0 3f 98 bc
       0.07315816 0.26124826 0.20986225 -0.018585145
000040 f5 79 b8 3d 64 46 b3 3d 28 e2 ef bd 8d 5c a9 bd
       0.090076365 0.0875366 -0.11713058 -0.08269606
000050 69 e0 75 bd f3 e2 d5 bc 76 91 25 3d 90 72 65 3e
       -0.060028467 -0.026109194 0.040421925 0.22406983
000060 88 7a 4e 3e 79 4a 99 3d 4d c9 16 3c a2 a5 97 3d
       0.2016393 0.07484908 0.009203267 0.07404639
000070 43 7b 09 be e4 44 5d 3b 85 a5 86 bd a1 98 3b 3d
       -0.13425927 0.0033762986 -0.06574539 0.045799855
000080 57 1c e1 bd fc 3e 6c 3e fb 8b 08 be 00 05 6c 3e
       -0.109917335 0.23070902 -0.13334648 0.23048782
000090 81 88 a4 3c 8c bd c0 3d 31 33 87 3e cb 1d 90 bd
       0.020084621 0.09411153 0.26406243 -0.070369326
0000a0 fb a5 23 3e fd 86 d6 ba 14 89 f3 bc 2b 6d 77 3e
       0.15981285 -0.0016367134 -0.02972845 0.24162738
0000b0 2f 0f 0a 3e e7 0e f2 3c b9 de dc bd f6 5d 2e bd
       0.13482355 0.029548122 -0.107846685 -0.042570077
0000c0 f5 8b 0f bc f6 21 5e be 97 ce c8 ba d6 b4 06 bd
       -0.008761396 -0.21692643 -0.0015320358 -0.032887302
0000d0 fa 43 52 bd 3b aa 20 3e 25 56 a8 3d 4c e5 12 be
       -0.05133436 0.15689938 0.08219556 -0.14345282
0000e0 d7 6e ff bc 4a 71 df bd 78 2b 31 3c 04 f8 fc bd
       -0.031180782 -0.1091028 0.010813586 -0.12351993
0000f0 dc 11 0b bd 8d 4d 20 be b7 a6 d5 bd e7 eb 5c be
       -0.03395258 -0.15654583 -0.10432189 -0.21574365
000100 85 aa 67 3d 0d 7c 01 be 1a 42 ea 3c eb a3 e3 bb
       0.056559104 -0.12644978 0.028595973 -0.006947031
000110 96 bb 19 be cb d9 a0 bc 21 0e 31 be 7d 95 d2 bd
       -0.15012965 -0.019635102 -0.17290546 -0.10282419
000120 29 b8 60 bd 1e 2a 62 3d 24 31 4e 3c 04 7d 0f 3e
       -0.05486313 0.055215947 0.012584958 0.14012533
000130 67 2d 9c 3d c3 bf ec 3d 75 80 0b 3e 6b fa a8 3c
       0.07625847 0.11560013 0.13623221 0.020627221
000140 4a 4c 21 3d fe 06 31 3e 1e 07 d6 bd 43 07 10 3e
       0.039379396 0.17287824 -0.10450576 0.1406527
000150 64 4b 6d 3d d8 28 a9 3d bd 48 ca 3c ab e2 c4 bd
       0.057933226 0.082597435 0.024692887 -0.09613546
000160 26 f7 4d 3e 50 4a fe bd 4d 1f 98 3d c0 b3 12 bd
       0.20113811 -0.12416518 0.07427845 -0.035815954
000170 b0 f3 6b 3e ed d1 27 3e de 3e 80 3e 54 2a 22 bd
       0.23042178 0.16388674 0.25047964 -0.03959115
000180 d4 70 07 3c e2 c5 2f 3e 76 e6 44 bd 87 ac 1a 3e
       0.008266646 0.1716533 -0.048071347 0.15104876
000190 22 76 3e 3e be 2a da bc 11 90 22 3e f1 8c 83 3e
       0.18599752 -0.02663171 0.1587527 0.25693467
0001a0 e2 10 1a 3d b9 6a 4c 3e d5 37 61 3e b0 c8 ba 3b
       0.037613757 0.19962586 0.21993954 0.0057001933
0001b0 9e 05 d1 3c 0c 1a 89 3c 5d 34 9a bd 3f b2 a0 3e
       0.025515374 0.016736053 -0.07529519 0.3138599
0001c0 77 21 cd 3c 7b 00 80 3e 1f 57 25 be 94 40 7b bc
       0.025040371 0.25000367 -0.16146515 -0.015335221
0001d0 e7 0d 06 bd f5 ce 57 3e df bc 8b 3e 0f 69 20 be
       -0.032728102 0.21075042 0.27292535 -0.15665077
0001e0 54 a9 99 bd 29 00 06 be f8 53 0e 3e 84 d2 88 3d
       -0.07503 -0.13085999 0.13899219 0.06680778
0001f0 c4 2c 5c bd 01 64 af 3c 35 02 28 be 91 88 a2 3d
       -0.05375363 0.02140999 -0.16407092 0.07936204
000200 f4 71 11 be 58 60 21 be 28 3e 2b be 5a 5f ce bc
       -0.14203626 -0.15759408 -0.1672293 -0.025191952
000210 f6 53 3d 3e c1 ae 73 3e 76 55 3b 3e 0a fd d3 3d
       0.1848906 0.23797132 0.1829432 0.10350998
000220 cb ea f7 3d 94 cf 0c be e8 a9 c3 3d 09 4f dd bc
       0.1210533 -0.1375106 0.095538914 -0.027015226
000230 38 58 06 be 30 a2 3d 3d e5 a9 a7 3d bf 67 1b be
       -0.1311959 0.046297252 0.08186702 -0.15176295
000240 2d 94 87 3e 54 d2 05 3e 74 7e 00 3e bb 20 69 3e
       0.26480237 0.13068515 0.12548238 0.22766392
000250 dd 93 7e 3c 94 81 94 bd a9 9c 65 3e 5b ea 02 bd
       0.015538183 -0.072512776 0.22423042 -0.03196178
000260 20 91 39 3d 68 e7 bd bb a4 cd c8 3c 36 2b 88 3e
       0.045304418 -0.005795408 0.02451212 0.26595467
000270 12 6b 82 bd 8a 19 3c 3e 33 3c 22 3e e4 87 1c 3e
       -0.06368078 0.18369117 0.15843277 0.15286213
000280 1f 79 54 3d 0f e6 69 3e 64 b2 b9 3d 58 da 3f 3e
       0.051873323 0.22841667 0.090672284 0.18735635
000290 e1 37 2f 3e e8 2e 61 3d 8d 25 70 bc f2 a1 14 3e
       0.1711116 0.054976374 -0.01465739 0.14514902
0002a0 4e 3b 28 bb 98 e8 51 be 1d a1 4a 3d 86 ec 53 be
       -0.0025670114 -0.20498884 0.049470056 -0.20695695
0002b0 3a 88 cd 3c 1f d3 80 bd e0 77 ba bd e5 b0 c9 3d
       0.025089372 -0.06290268 -0.091048956 0.09848193
0002c0 4a 6b 8e 3d b5 22 1e 3d 56 b3 87 3d 63 a8 ec bd
       0.069540575 0.038607318 0.066260025 -0.11555555
0002d0 23 75 24 be 11 ff 8b bd f0 86 35 be 20 3b 87 3d
       -0.16060309 -0.068357594 -0.17727256 0.06603074
0002e0 30 ff a3 3b 22 d9 4e be 9a fa 37 be 7b 01 77 3d
       0.005004786 -0.20200017 -0.1796669 0.060304146
0002f0 f4 8d 3e 3d 0f 99 14 3e fe 57 24 3e 69 cf d1 3d
       0.046522096 0.14511512 0.16049191 0.102446385
000300 6f 49 56 3e e1 ae 39 3e 82 02 91 3d 97 fb 2a 3e
       0.2092645 0.18133117 0.070805565 0.16697536
000310 4b 9f 3b 3e ff eb 0b 3d 34 91 69 3d 03 f3 15 be
       0.18322484 0.03416061 0.057023242 -0.14643483
000320 60 27 22 3e fa 9a 57 3e ed 4d 25 be cc 7c 63 3d
       0.15835333 0.21055213 -0.16143008 0.055538937
000330 9e f7 ea 3d 37 9c 23 3e 40 50 43 3e 44 77 c8 bd
       0.114730105 0.1597756 0.19073582 -0.09788373
000340 b8 6e 26 3e 08 fa 31 be 54 50 59 be 4c ec c3 bd
       0.16253173 -0.17380536 -0.21222049 -0.095665544
000350 35 59 10 3e e6 56 bf 3c 0a e6 fc 3c e3 9d db 3d
       0.1409653 0.023356866 0.03087141 0.10723474
000360 8e e3 43 3e cc 46 1c 3e e0 40 55 3e 18 73 c0 bd
       0.19129774 0.15261382 0.20825529 -0.093969524
000370 af 72 a7 3d 4b 11 9f 3e 51 03 9c 3e f1 c6 e2 3d
       0.08176171 0.3106788 0.3047128 0.11073101
000380 7d 0b a5 bd e1 e0 90 3e 9b 03 33 3e d0 80 d1 bc
       -0.08058832 0.2829657 0.17481844 -0.025574118
000390 4a 26 45 3e ff 63 77 3e 96 b5 26 3e 3c 5c d6 3d
       0.19252887 0.24159239 0.16280207 0.10466811
0003a0 3d b5 1b 3e e3 2d 9a 3e 54 db 32 bc 68 d3 84 3e
       0.15205856 0.30113134 -0.01091655 0.2594254
0003b0 70 15 c6 3d 8a ff bd bd 71 35 90 3d a8 5c 96 bd
       0.09672058 -0.09277256 0.07041443 -0.073418915
0003c0 a8 87 09 3e b8 69 52 be 01 c8 40 3e 8c 80 a9 3d
       0.13430655 -0.20548141 0.18826295 0.082764715
0003d0 49 f9 0a bc b8 15 f5 bd 1c 22 4a 3d b4 a3 de 3c
       -0.008482286 -0.11967033 0.049348935 0.02717767
0003e0 97 63 fb 3d e3 63 2b bd f0 45 dd bc 3d 1f f2 bd
       0.12274855 -0.041843306 -0.027010888 -0.118223645
0003f0 e1 fd 44 bd cf 1b 66 3d c2 f8 4b bc 12 0d 0d bd
       -0.04809368 0.056178864 -0.012449445 -0.034436293

rnn.weight_hh_l0 f4 [72, 24]
000000 64 94 9b 3d a3 f2 97 bb d2 3a ce bd e7 64 9f 3d
       0.07596663 -0.004637079 -0.10069813 0.077829175
000010 88 e9 5a bd 60 de ab 3d 13 a2 26 3d b9 54 bf bd
       -0.05344537 0.08392024 0.04068191 -0.093423314
000020 e7 4d 20 3d 55 4b 54 3e 21 21 82 3e f9 cd 9b 3d
       0.039136793 0.20731862 0.254159 0.076076455
000030 72 2d 4a bd 89 35 ad 3d 84 77 9a bc 8b 9b 41 bd
       -0.049359746 0.08457477 -0.018855818 -0.047267478
000040 bc c8 00 be 8e 48 ce 3c e3 4b b4 3d c3 84 8f 3e
       -0.12576574 0.025181081 0.08803537 0.28030977
000050 18 d6 a1 3d 41 d0 8f 3d 40 9f 1d be 60 4f 55 3d
       0.07902163 0.07022143 -0.1539278 0.05207765
000060 b6 25 6d bd 27 8d 66 3e 21 dc 51 be 33 2a af bd
       -0.057897292 0.22514783 -0.20494129 -0.08552971
000070 95 e4 44 be ca a6 41 be 3f 82 3e be f6 28 1d bd
       -0.19227822 -0.18911281 -0.18604372 -0.03836914
000080 f2 fb f1 bd 07 b3 39 3d 41 7c 64 be a6 fd 31 3e
       -0.11815633 0.04533675 -0.22313024 0.17381915
000090 a5 c2 ee 3b 48 3e 41 3e 30 e4 d8 3a dd f0 70 3e
       0.007286387 0.18871415 0.0016547497 0.23529382
0000a0 0b ab 38 3d 75 25 42 be 99 e2 96 3c 5c d2 1c be
       0.045084994 -0.18959601 0.018418597 -0.1531462
0000b0 5a f8 96 bd 5b 7b 76 3e 4d 22 bc 3d 0d 19 69 3d
       -0.07371588 0.24070494 0.0918623 0.056908656
0000c0 5d f7 4e be b2 1d 91 3e 63 f0 0e be 6b 77 d1 3d
       -0.20211549 0.28342968 -0.13958888 0.10227855
0000d0 30 3a 44 be a6 1d 27 be 00 df 0a be 13 96 31 bd
       -0.19162822 -0.16319904 -0.1356163 -0.043356013
0000e0 31 4a 1b 3e 43 24 3b be 90 55 49 3e dd 8a c8 3d
       0.1516502 -0.18275551 0.19661546 0.09792111
0000f0 bd 06 c4 bd da c2 c2 bd dc 5f 36 3e 36 54 8e be
       -0.09571598 -0.09509821 0.17810005 -0.27798623
000100 34 e1 43 3e 2d fd b1 bd c0 3e 3d bd ec 6c d9 bd
       0.19128877 -0.086908676 -0.04620242 -0.10616478
000110 86 40 2a be a0 de 0b be 9c e8 d1 bd 8c 4d f0 bd
       -0.16626176 -0.13659143 -0.10249445 -0.11733541
000120 69 8d ad bc 7b da 03 3e ce 07 18 be 09 6b 0e 3e
       -0.021185594 0.12876312 -0.14846727 0.13908018
000130 16 a6 5d be 4a 95 5f be 7f 27 8a 3e f4 49 4d 3e
       -0.21645388 -0.21834293 0.26983258 0.20047742
000140 99 31 96 3c ed 1a b9 bc f3 df 8d 3d bd c2 8e bd
       0.018334197 -0.022595847 0.069274805 -0.06970737
000150 04 eb f2 bd ed e0 0a 3e 6f b1 30 3e 20 ca 44 3e
       -0.11861232 0.13562365 0.17255186 0.1921773
000160 0d e7 12 be b4 7e 9e 3d 26 2e f5 bd 1b cb 6c 3d
       -0.14345951 0.077390105 -0.11971693 0.057810884
000170 84 d1 2d bd fd 05 9f bd 03 30 1c bd 11 73 7f bd
       -0.042436138 -0.07764814 -0.038131725 -0.062365595
000180 1d 18 08 bc 16 ba 93 3e d9 03 5d bd ef 2b 27 3e
       -0.00830653 0.2885291 -0.053958748 0.16325353
000190 a1 6c 03 be de 70 15 be 7a 0a 4c bd b3 c9 49 3e
       -0.12834407 -0.14593837 -0.04981468 0.19705848
0001a0 ef e2 be 3d cc d5 79 3e 19 ef 00 be 19 bc 01 3e
       0.09320628 0.24397963 -0.12591209 0.1266941
0001b0 a1 1e fb 3c 95 dc 8e 3d 90 04 ce 3c b2 c9 0d 3d
       0.030654253 0.069756664 0.02514866 0.03461618
0001c0 68 7c ec 3c f5 84 83 be 22 9d cc 3d 4d 8f c7 bd
       0.028867915 -0.25687376 0.09990908 -0.09744129
0001d0 34 2e 17 be 1a 27 4a 3d 56 5d 01 be 7c 78 b9 3d
       -0.14763719 0.049353696 -0.12633261 0.09056184
0001e0 72 e9 37 3e 58 0a 23 3e 37 02 4e be 56 74 0a be
       0.17960146 0.15921915 -0.20118032 -0.13520941
0001f0 29 02 b4 3d 20 33 33 be e0 b7 8b ba 2a 58 68 3e
       0.087894745 -0.17499971 -0.0010659657 0.22689882
000200 ca cd d0 bc 47 6f 88 3d 59 6c 58 3e 09 67 89 be
       -0.025488753 0.066618495 0.21135081 -0.26836422
000210 a8 38 65 be c8 b2 01 3e f3 4c 10 3d 85 3d 85 be
       -0.22384894 0.12665856 0.035229634 -0.26023498
000220 c4 9c 34 be ba 5b 42 3e ae 01 4e bd c5 d7 ba 3d
       -0.17637926 0.18980303 -0.05029457 0.09123186
000230 1b 92 fd 3d 66 b2 ae 3c f2 b9 45 be 87 48 1a 3e
       0.12381383 0.021325301 -0.19309214 0.1506673
000240 87 b3 9a 3e 38 85 e7 bc 42 20 4f 3e e0 77 14 bc
       0.30215093 -0.028261766 0.20227149 -0.009061784
000250 91 eb 71 be 58 53 88 bc 37 1d 65 3e 92 43 4c 3e
       -0.23625018 -0.016641304 0.22374426 0.19947651
000260 17 63 aa 3d 23 fd 9a 3d e3 13 26 bd 09 fd 7d be
       0.08319681 0.07567813 -0.04054631 -0.24803557
000270 d5 93 69 bd d3 4a 5f 3e 3e 6e 55 be f5 b2 0c bd
       -0.05702575 0.21805887 -0.20842835 -0.034350354
000280 00 b7 b1 bc d0 12 ea bd e3 24 14 3e 5f 19 bc 3c
       -0.021693707 -0.114293694 0.14467196 0.022961317
000290 74 3d 36 bd 70 5f 7d 3e e2 1c 08 be be 9d 42 be
       -0.0444922 0.24743438 -0.13292268 -0.19005486
0002a0 d8 3a 09 be f8 8e 2d 3e bb d3 20 3e fc dc 15 3e
       -0.13401353 0.1694907 0.15705769 0.1463508
0002b0 79 1d 35 3c 25 e6 49 3e e4 16 85 be 6a c4 25 3e
       0.01105439 0.197167 -0.25994027 0.16188207
0002c0 a3 ea 94 3c 86 a2 53 be 30 9d 5d 3d 14 51 44 3c
       0.01817829 -0.20667467 0.054104984 0.011982221
0002d0 59 9a 03 bd 55 63 23 bd 35 ad da bd 5b bf ec b9
       -0.03212962 -0.039889652 -0.10677568 -0.00045156
0002e0 c7 a4 75 bd 54 21 a3 bd 36 22 0e 3e a2 5d a4 bd
       -0.059971597 -0.07965341 0.13880238 -0.080256715
0002f0 4a 5a fa 3d c8 df 48 be a5 2f 51 be c7 c9 5c 3e
       0.122242525 -0.19616616 -0.20428331 0.21561347
000300 70 04 d1 3d 30 52 4f be 5c 2f 18 3e 12 51 59 3e
       0.102059245 -0.20246196 0.14861816 0.21222332
000310 5f dc 07 3e be d7 d2 3d eb 54 2b be 3e ed 20 3d
       0.13267659 0.10295056 -0.16731612 0.03928875
000320 f9 26 1d be 3a c3 22 be 12 30 65 bd 0f 43 ef bd
       -0.15346898 -0.15894786 -0.055954047 -0.11682712
000330 f7 74 5a 3e fe 0c 12 be 61 84 b8 bd f8 ea 05 3d
       0.21333681 -0.14262769 -0.09009624 0.032694787
000340 1d b7 39 be b4 4b ce bd 74 a4 d6 3d 7a 3e 05 3e
       -0.18136258 -0.10073033 0.10480586 0.13012114
000350 cb c7 3e bd 5a ac 9f 3d ff 66 aa bc c0 8f 16 bd
       -0.046577256 0.07796545 -0.020801065 -0.036758184
000360 9d 44 66 3e bc f2 20 3e 3a 97 6f bb 16 b8 46 3d
       0.22487111 0.15717596 -0.0036558644 0.0485154
000370 fe 3b 9b bc 9b e1 8d be bc 59 c0 3d bd 99 4d 3e
       -0.018949505 -0.27711186 0.093921155 0.20078178
000380 d2 0e 8a be e0 83 b4 3d 94 a8 26 bc 7f 78 2c 3d
       -0.26964432 0.08814216 -0.010172028 0.0421071
000390 32 93 54 be a8 06 95 3d fa 95 17 bd ab 45 a6 bc
       -0.20759276 0.0727666 -0.037008263 -0.020296892
0003a0 46 2b ea bd a4 da bf be df 05 88 3e 61 4e 64 3e
       -0.11434035 -0.37471497 0.2656698 0.22295524
0003b0 b9 29 30 be ec 73 2c 3e 77 86 bd be 2b d1 f2 bc
       -0.17203416 0.16841096 -0.3701665 -0.029640755
0003c0 dc 42 43 3e 45 dd f7 3d fb e5 d4 bb 00 a9 00 be
       0.19068474 0.12102751 -0.0064971424 -0.12564468
0003d0 0b 0a aa bc d1 f5 7b 3d e5 ef 0e 3e e3 6a 5a 3e
       -0.020756742 0.061513726 0.139587 0.21329837
0003e0 39 05 c2 3d c8 f2 8f 3d c2 d7 00 be 68 22 9d 3c
       0.094736524 0.07028729 -0.12582305 0.019181445
0003f0 16 36 55 be 96 42 13 3e be 85 25 be 52 ba 6e be
       -0.20821413 0.1438087 -0.161643 -0.23313263

rnn.bias_ih_l0 f4 [72]
000000 50 cf 04 3e d5 fe 16 3e 15 b6 a6 bd 93 51 9a bd
       0.12969708 0.14745648 -0.08140198 -0.0753509
000010 62 4a c9 bd 24 7f 90 3c 35 f6 2b 3e fc d3 3c 3e
       -0.098286405 0.01763875 0.1679314 0.1844024
000020 5b 98 e2 bd cb 24 f2 3c f3 e1 1c be b8 32 e8 bd
       -0.11064216 0.02955856 -0.15320568 -0.11337799
000030 ee 71 e6 3d 4f 42 23 3e 32 d9 14 3e 61 da 8f 3e
       0.11252199 0.15943263 0.14535978 0.28096297
000040 cb ea 15 be 31 15 13 3e 68 ea 7a bd ab bb 87 3e
       -0.14640348 0.14363553 -0.061258703 0.26510367
000050 0a 20 dd bc 9d 92 d1 bd 26 88 56 3e 38 f9 7c 3e
       -0.026992816 -0.102330424 0.20950374 0.24704444
000060 a4 e3 41 bd 18 34 9c 3d d5 16 bb 3d d0 d0 91 bd
       -0.047336236 0.076271236 0.09135214 -0.07119906
000070 db bb 06 be 2e e6 2e 3e 9f 93 27 be cf 28 45 3e
       -0.13157599 0.17079994 -0.16364907 0.19253848
000080 1e 03 43 3e 8e 3b 11 3e 96 a6 8d be b3 2b 66 bd
       0.19044158 0.14182875 -0.27666157 -0.05619402
000090 12 0e b9 3d ba 18 7a 3d 0f 13 b8 3d 89 c5 ae be
       0.09035887 0.061058737 0.0898801 -0.34135082
0000a0 31 d5 02 be 60 81 8f 3d a0 b9 40 be 6e fd 7d bd
       -0.12776639 0.07007098 -0.1882081 -0.062009268
0000b0 ab 81 c5 3c dc 15 53 3e b0 7e ab 3e 4f 8a 53 3e
       0.024109682 0.20613807 0.33495092 0.2065823
0000c0 36 87 72 3e 1d 4a 49 bd 74 30 f8 3d b0 78 3b 3d
       0.23684391 -0.049142946 0.12118617 0.045769393
0000d0 15 4a e9 3d 0f a5 0c 3e de 01 75 3c fd fd 00 be
       0.11391083 0.1373484 0.014954058 -0.12596889
0000e0 d3 a1 0c be a8 8d 0e 3e dc b9 2a be a3 ef 09 3e
       -0.13733606 0.13921225 -0.16672462 0.1347032
0000f0 eb 60 9a bd 04 d0 3b 3e 0a 42 89 3c 96 96 d0 3d
       -0.07538017 0.1834107 0.016755123 0.10184972
000100 a9 c2 5c be e4 44 0d be d5 b0 d2 3c 96 fd cf bb
       -0.21558632 -0.13795811 0.025719086 -0.0063473685
000110 42 25 fd bd 99 d3 55 3e e6 62 8b bd 78 9b 00 be
       -0.12360622 0.208815 -0.06805973 -0.12559307

rnn.bias_hh_l0 f4 [72]
000000 f2 7f b9 3d 9a 6c 02 bd 77 03 d6 3c 4e 0c 57 3e
       0.09057607 -0.03184185 0.026124699 0.21000788
000010 ae 97 57 3d ab ae ed 3d b0 ab 56 3e e7 4c 1b 3e
       0.052634887 0.11605581 0.20963931 0.15166055
000020 d0 a1 c4 3c ec 0d 2c 3e 4a e7 18 3d 60 09 69 3c
       0.02400294 0.16802186 0.03732995 0.014223427
000030 13 83 85 3e 3e d9 2c 3d 4f 36 2e 3e 48 37 d1 3c
       0.26076564 0.042199366 0.17012905 0.025539055
000040 dd f7 5d 3d d8 77 33 3e 1f 0f 94 3d c9 9a 54 bd
       0.05419146 0.17526186 0.072294466 -0.051905427
000050 87 12 90 3e 17 40 4c 3e 42 bd 50 3d 09 c6 fa 3c
       0.28139135 0.19946323 0.05096174 0.030612009
000060 3a 67 95 bd ed b7 58 3e 6a 36 25 3a 4b 5b 87 3e
       -0.072950795 0.21163912 0.0006302359 0.26436839
000070 91 54 4f be 31 ac 5f 3e e1 a2 95 be fb b6 ed bd
       -0.20247103 0.2184303 -0.2922583 -0.116071664
000080 a7 b4 36 3e 69 3c a1 bd 8a 76 d1 bd 00 8e 18 3e
       0.17842351 -0.078728504 -0.10227688 0.14897919
000090 d3 f2 14 bd 81 06 7d bd 63 53 93 bd a2 a8 73 be
       -0.036364388 -0.06177378 -0.07193639 -0.23794797
0000a0 ee ec 5e be d0 e2 ee 3d 6c f7 24 3e 3e 72 13 3e
       -0.21770069 0.11664355 0.16110009 0.14399049
0000b0 32 c1 34 3e 52 f6 31 3e 9f 2e 42 3d 08 f0 8c bd
       0.17651823 0.1737912 0.047407743 -0.0688172
0000c0 1b 7d 3d 3e 62 40 98 3d 06 c5 11 3e d8 9a 69 38
       0.18504755 0.07434155 0.14235315 5.569574e-05
0000d0 c9 c3 72 3d 04 50 08 be ea 0d 26 be 71 39 2d 3e
       0.059268747 -0.13311774 -0.16216245 0.16916443
0000e0 75 bf 05 bb 89 67 16 be 2a ac 03 be 42 0c db ba
       -0.0020408307 -0.14687933 -0.12858644 -0.0016712027
0000f0 be 11 41 be 1b 3f 14 bd 94 53 c9 bd 0b 17 15 3e
       -0.18854424 -0.036192995 -0.098303944 0.14559571
000100 52 39 4a bd cf 42 1f 3e 22 c1 07 be 6b a9 76 3e
       -0.04937107 0.15552829 -0.13257268 0.24088065
000110 95 75 81 bc ee 19 3e 3e bb 59 08 be cc d2 3a be
       -0.015803138 0.18564579 -0.1331548 -0.18244475

fc.weight f4 [24, 24]
000000 af db 39 3e cf 57 64 3e 6c 3e ab bd 9c 79 84 bd
       0.18150209 0.22299121 -0.083615154 -0.06468508
000010 93 b6 df bd f0 5c 87 3d d3 f2 0b 3d 5b ed 93 3d
       -0.10923495 0.06609523 0.034167122 0.07223006
000020 6c 92 3e be 5b 35 9f 3c de 18 e0 3d 4b 59 c7 bd
       -0.18610543 0.019434622 0.10942243 -0.09733828
000030 8b fa 43 bc 96 29 d6 3d 77 06 1b 3e a8 3e 36 be
       -0.01196159 0.10457151 0.15139185 -0.17797339
000040 a2 d2 29 be 20 94 bb bc 83 9f b8 3d b4 bd 1b 3e
       -0.16584256 -0.02289778 0.090147994 0.15209085
000050 96 11 b3 bd 02 da 29 3e d1 87 6c 3d 4c 6a d8 3d
       -0.087435886 0.1658707 0.057746712 0.105671495
000060 69 f4 83 3a 8e c0 c0 3d c1 c9 c2 bd db 3a 54 bd
       0.0010067347 0.09411727 -0.09511138 -0.05181394
000070 3a db 29 be 67 50 98 3d 35 b5 45 3d cc 7a 73 3d
       -0.16587535 0.074372105 0.048268516 0.05944328
000080 c3 7e 62 3d 55 2b db 3d 3d 3c 0b 3e a0 85 d6 3d
       0.05529667 0.10701624 0.13597198 0.10474706
000090 10 26 03 be f3 92 13 be cb a8 e9 3d 38 a8 bc be
       -0.12807488 -0.14411525 0.11409148 -0.3684709
0000a0 c1 87 b3 bd 02 86 61 bc 98 f5 73 3e f2 dc e3 3d
       -0.087661274 -0.01376486 0.23824155 0.11126126
0000b0 75 3b f1 bc a8 9e a1 bd c0 a3 11 b8 49 61 3a bd
       -0.029447297 -0.078915894 -3.4723198e-05 -0.045502935
0000c0 0d 65 7a bd b2 b8 76 3d 00 76 30 be b0 3b eb 3d
       -0.061131526 0.060234733 -0.17232513 0.11485994
0000d0 1e 5c 12 bc f3 b2 a1 bd d5 d7 2e bb 36 6d 24 3d
       -0.008933095 -0.0789546 -0.002667894 0.040143214
0000e0 f1 50 8c 3d b1 0d 83 bc 2a d4 2b 3c 7d fc 1d bc
       0.06851376 -0.01599774 0.010487596 -0.009642717
0000f0 c1 fd 84 3d 29 c4 29 be 40 81 05 3c 21 ec b3 3e
       0.06493712 -0.16578735 0.008148491 0.3514109
000100 0b c7 c5 3c 3e fa 17 bd b6 39 ec bd 86 55 39 3d
       0.024142763 -0.037103884 -0.11534445 0.045247577
000110 98 56 66 bd 96 f0 2b 3e d5 f9 ca 3d 15 ee 19 3e
       -0.056234926 0.16790995 0.09910933 0.15032227
000120 0b b1 cd 3d ad e6 97 3d 7d 18 3c be 8d a4 5b 3d
       0.10043534 0.07417045 -0.18368717 0.053623725
000130 03 3b 03 3e c5 6e 4a 3d 73 8b b2 3c 6e 5f 00 be
       0.1281548 0.049422044 0.02179501 -0.12536404
000140 6b ed 5f bd f2 30 3a 3d 61 b3 a2 bd 27 bb 1e ba
       -0.05466978 0.045456834 -0.0794437 -0.00060551096
000150 24 e5 2d 3e c1 fa 27 3e a8 f1 41 bc ae 76 df 3d
       0.16981941 0.16404249 -0.0118374005 0.10911308
000160 de f3 eb 3d 32 ca 06 be f7 e9 5d bc 8f 9a 52 bd
       0.11521123 -0.13163069 -0.013544551 -0.05141693
000170 c0 92 fd bd f2 84 0a be 81 6d 14 3e b6 7e b2 3e
       -0.12381506 -0.13527277 0.14494897 0.34862298
000180 42 db fb bd 68 3b bf 3c e8 e9 68 be 3b 90 a1 3d
       -0.122976795 0.023343757 -0.22745478 0.07888838
000190 98 81 41 bd a5 6c f6 bd db 11 49 bd 0f 34 05 be
       -0.04724273 -0.12032441 -0.049089294 -0.1300814
0001a0 78 7c a9 bd ba 3e 52 be 02 7e c9 3c 0f 98 40 bc
       -0.08275694 -0.20531741 0.024596218 -0.011755004
0001b0 99 1d 84 3e 26 04 95 bd 59 72 5f 3d f6 0f 11 3e
       0.2580383 -0.07276182 0.05455241 0.14166245
0001c0 bf 4a 21 3d cb 13 82 bc 1a 8e d1 3d 2c e5 19 be
       0.039377924 -0.015878579 0.10232182 -0.15028828
0001d0 8c c1 6a 3e 38 5b 65 be 90 17 85 3d 6d 8d 03 3e
       0.22925395 -0.22398078 0.06498635 0.12846918
0001e0 70 e3 95 3d 72 77 16 3e cf 3a 66 bd a6 1c 2d 3e
       0.07318771 0.14694002 -0.056208428 0.1690546
0001f0 d1 b0 c3 3d d5 b6 8f bd bd b2 39 3e fd 48 a3 ba
       0.095552094 -0.07017294 0.1813459 -0.0012457665
000200 94 15 69 be c6 54 59 3e e5 42 2e 3e b3 59 94 bb
       -0.22762138 0.21223745 0.17017706 -0.0045272945
000210 69 3b 59 bd da 65 8a 3c 8d 93 2b 3e ef c4 18 be
       -0.053035174 0.01689427 0.16755505 -0.14918874
000220 05 af cf bd b0 9d 93 3d dd c4 28 3e d0 eb 79 3e
       -0.10140804 0.07207811 0.16481347 0.24406362
000230 80 a0 55 be 57 fa 26 3e 70 87 23 be 5e 2d e0 3d
       -0.20862007 0.16306435 -0.15969634 0.10946153
000240 60 72 73 3e 64 3b 92 3d 90 73 82 3d 26 fa 95 3d
       0.237741 0.07140234 0.06369698 0.07323103
000250 8b 8b d5 3d 6b 26 93 be f2 00 96 3d a0 e5 9c bd
       0.10427006 -0.28740248 0.07324399 -0.07660985
000260 44 19 aa bd 20 26 8d 3e 21 58 67 bd a1 90 d6 bd
       -0.083056 0.2756815 -0.05648053 -0.104768045
000270 06 6f 88 be e5 33 85 3e 44 c7 4d 3d d0 e9 8e be
       -0.26647204 0.26016155 0.050238863 -0.2791276
000280 62 6d 34 bc cf bf d7 bd 75 f2 0f 3e e7 74 7d 3c
       -0.011012407 -0.105346315 0.14057334 0.015469766
000290 14 3b 30 3c 21 09 c6 bd 83 c6 8d bc 37 ec 21 bd
       0.010756273 -0.0966971 -0.017306572 -0.039531913
0002a0 21 87 d4 bb 8e 65 ba bb 5e 48 6e 3e 37 cd 61 3d
       -0.006485835 -0.005688376 0.23269793 0.05512735
0002b0 f0 fb 38 be 71 03 3d be f0 9f 1e 3c da 9d 35 3b
       -0.18064857 -0.18458344 0.009681687 0.0027712495
0002c0 a6 d9 1f bb b9 02 2d 3c 5f fb 10 bd 33 4e 83 be
       -0.0024391203 0.010559731 -0.035395976 -0.256456
0002d0 b9 7d 48 be b5 15 35 3e 64 97 fb bd 36 2b bc be
       -0.1957921 0.17684062 -0.12284735 -0.36751717
0002e0 da ad fb 3d d0 83 8d 3d 9e 3d 0d be ae 23 82 3e
       0.12289019 0.06909907 -0.13793036 0.25417846
0002f0 a1 b6 58 3c 30 40 e0 3d 0e 9e 9a be 6f 7d 99 be
       0.013227136 0.10949743 -0.3019871 -0.2997851
000300 79 17 cc bd bf 6a ee bd bd bb 33 be 0b 78 4e 3c
       -0.099654146 -0.11641454 -0.17552085 0.012601863
000310 f2 97 a9 3d 6c bc 98 bd b4 64 f5 bc bb d5 9a 3d
       0.082809344 -0.074578136 -0.029955246 0.07560297
000320 84 85 0d 3e e6 1b 71 3d 8b b2 96 bd b6 2b 37 bb
       0.13820463 0.058864497 -0.07358273 -0.0027949638
000330 52 be b0 3d 16 e3 32 3e b0 ff b6 bd f3 c5 36 3e
       0.08630051 0.17469439 -0.08935487 0.17848949
000340 24 33 7f 3d 3d 9b 31 be 4d 36 08 bd 13 7b 79 be
       0.06230463 -0.17344375 -0.03325491 -0.24363355
000350 3b 33 38 3e 04 60 e5 bd f8 09 7f 3e da 97 01 3e
       0.17988293 -0.11199954 0.24906147 0.12655583
000360 c0 81 ad bd 74 b2 7d bc 2a 14 3a 3d ab b5 e6 bd
       -0.084720135 -0.015484441 0.045429386 -0.11265119
000370 d8 7f 04 3d ae 42 0e 3d 17 9d 6b be f5 ec 3e be
       0.032348484 0.03473156 -0.23009144 -0.1864508
000380 91 3f b6 3d 60 30 65 3b ff 23 8f 3d 22 e1 3c 3e
       0.08898843 0.003497146 0.069892876 0.18445256
000390 2c bf 37 bd 24 f7 bc bd 39 8f 04 bc 55 ef a0 3d
       -0.04486005 -0.09226826 -0.008090788 0.07858149
0003a0 6b 8d 3d bd 00 e3 7d bb 32 1d 2e 3e d9 f7 03 be
       -0.046277445 -0.003874004 0.17003325 -0.12887515
0003b0 78 0b 5f 3e 75 f3 b4 bd 60 19 59 3e dc 1d 43 bd
       0.21781719 -0.08835498 0.21201086 -0.047635898
0003c0 96 41 4b be c9 ef 42 be 7f 51 33 be e8 51 7e 3c
       -0.19849238 -0.19036783 -0.17511557 0.015522458
0003d0 78 62 43 3d 92 48 d7 3d 37 91 c4 bd 07 dc 27 3e
       0.04770133 0.105118886 -0.0959801 0.16392528
0003e0 57 35 1b 3d fa b4 41 bd dc 1b 8a be bd c3 35 3e
       0.037892666 -0.047291733 -0.2697438 0.1775045
0003f0 54 36 80 3d 83 5b 41 be d1 f3 bb 3c fe f1 88 b9
       0.06260362 -0.18882565 0.02294341 -0.0002612024

fc.bias f4 [24]
000000 01 72 d3 bd c2 22 09 3d d7 5d 94 3d 6b 25 cd 3d
       -0.10324479 0.033480413 0.07244461 0.100169025
000010 b9 64 03 be a7 7c ab bb 0d 58 42 3e 26 22 1b 3d
       -0.12831391 -0.0052333656 0.18978901 0.037874363
000020 9c 90 04 3c 9e 73 b6 3d 28 f5 7b bd 23 c1 10 bb
       0.008091118 0.08908771 -0.061513096 -0.0022087775
000030 73 f5 86 bd 7d 08 dc bd e4 8c 1f bc 9c 0e f0 3c
       -0.065897845 -0.107438065 -0.009738181 0.029303841
000040 bc a6 42 3e ec 74 08 be e3 83 73 3d f0 5b e8 bc
       0.19008917 -0.13325852 0.05945195 -0.028364152
000050 af 1d ee bd 16 94 f2 3c d1 df 1f 3e 7d ab 24 be
       -0.116267554 0.029611629 0.15612723 -0.16081043
